app/src/main/assets/models/DSCF_dynamic_range_quant.tflite (tflite, 159352 bytes, 45 tensors)

arith.constant f4 [1, 1, 1, 3]
0.4488 0.4371 0.404
00000000: 1dc9 e53e 92cb df3e 17d9 ce3e

arith.constant5 f4 [26, 3, 3, 3]
-0.51883733 -0.19427595 0.16510773 0.97273594 -0.24636237 0.36680767 0.09714704 -0.42509806
0.53731036 1.4588437 -0.22059141 0.1753236 21.423368 11.243519 -35.02056 -0.67450434
1.6527176 -0.53165907 -0.71309435 -0.07188565 0.95186555 0.5862597 -0.15337685 -0.8318227
-0.53965724 0.36530465 0.46015233 0.51230794 -0.3495709 0.384007 -0.38141486 -0.27684054
0.5042114 -0.19640236 0.57649654 -0.11412995 1.2228503 -1.781088 -0.4298333 0.036253855
0.43762252 0.0448096 -0.5730143 0.4527198 -0.1771084 0.3240025 -0.912156 1.2004124
-0.78446025 1.127736 -0.5955202 -0.2540464 0.4958453 -0.39664242 -0.18405692 -0.33750167
0.1533669 -5.6401973 -6.863708 -4.977283 0.30872256 -1.737507 -0.25227767 -6.5323157
-7.3254967 -4.255478 22.733864 28.943115 21.231749 -5.498341 -5.858852 -3.9139864
-0.33164132 0.2005383 0.049310938 -4.187736 -4.885451 -5.425307 -0.08224977 0.011382637
-0.14451247 -0.4293814 0.7508755 -0.055302527 0.6127547 -0.3005226 0.25219315 0.6461823
-1.4267839 0.53069323 0.38575852 0.25952208 -1.025667 -4.0808783 1.1833615 2.6154776
-0.23677701 0.8518891 -0.99643725 0.46969214 -0.45428616 0.13333744 0.5754718 0.0046498473
-0.35878524 -0.6262542 0.83372456 -0.040080678 0.0046478077 0.14154759 0.09645192 0.7069452
-0.57079345 0.28418088 -0.99841934 0.55589896 0.51332664 -1.0392797 -0.23770082 0.749077
0.6069956 0.46364686 -1.6127855 0.54469144 -0.5547698 -0.11305763 0.040580876 0.3921799
0.074921384 -0.15966475 -0.14018609 0.16789132 0.17722544 -0.16097893 0.16384779 0.27808633
1.2454857 -0.86418027 -6.099333 5.3041463 -0.9241045 0.12515157 1.5822713 -1.0472729
-3.8106644 0.014861235 2.7261388 56.60938 -76.57401 22.593838 -3.5294626 -1.055232
4.136247 -0.438582 1.5481194 -1.2537256 -0.7859333 -1.4636315 2.052748 -0.9074552
2.373073 -1.7894503 0.67927384 -0.53792816 0.1777899 -0.27716988 -0.088467054 0.70731866
-0.51500267 0.862358 -0.910604 -0.6501893 -0.7317751 1.2484561 -1.0136355 3.1385534
-3.0733862 1.3258283 -0.24829637 0.5106492 1.0389086 -2.6382518 0.9940171 -1.3235666
2.695637 -0.7186754 -0.17896244 -1.3877367 0.55650353 0.27368098 -1.0653963 0.33372086
0.67287326 0.686748 -0.4093591 -1.0389779 0.23007642 0.48097605 1.3666263 -0.814432
0.46359724 -2.0561457 0.96406907 -0.58629334 0.42705214 0.47916478 -0.050155155 -0.022442658
-1.8521018 1.3810656 1.3021017 0.6709567 -0.9446106 -0.32303458 -0.11204892 0.5851628
-0.854831 1.1100979 -0.5715141 -0.47830233 -0.8846535 0.921025 -0.13312718 0.23234718
0.43089512 0.12315976 -0.83496666 0.20205438 0.91720235 1.2410438 -0.71495444 0.39909172
-0.95086354 0.10388189 -1.129822 0.11419254 0.7218871 1.6971843 -0.52188146 -2.0060482
-0.9390343 0.59960437 0.7929889 -0.0272381 -0.25676334 0.026531806 5.291522 3.2695787
-7.8536286 -1.404348 0.9244133 0.89204335 10.490278 1.723959 -11.052582 -34.536983
00000000: 86d2 04bf 46f0 46be 0012 293e 3905 793f
00000010: 6b46 7cbe 37ce bb3e 07f5 c63d 74a6 d9be
00000020: 2c8d 093f 64bb ba3f b7e2 61be 0888 333e
00000030: 0f63 ab41 74e5 3341 0e15 0cc2 51ac 2cbf
00000040: 408c d33f cf1a 08bf 5a8d 36bf c938 93bd
00000050: 76ad 733f 1e15 163f d20e 1dbe 55f2 54bf
00000060: fa26 0abf 3609 bb3e 1699 eb3e 9d26 033f
00000070: f5fa b2be 919c c43e cf48 c3be 0bbe 8dbe
00000080: 0014 013f b31d 49be 4795 133f f7bc e9bd
00000090: 5c86 9c3f b1fa e3bf 1c13 dcbe ec7e 143d
000000a0: 0f10 e03e 458a 373d 11b1 12bf e4ca e73e
000000b0: e85b 35be a8e3 a53e 0e83 69bf 1da7 993f
000000c0: 63d2 48bf a759 903f 0374 18bf 5f12 82be
000000d0: 6fdf fd3e b714 cbbe 6b79 3cbe 05cd acbe
000000e0: 360c 1d3e 7f7c b4c0 7fa3 dbc0 e745 9fc0
000000f0: e210 9e3e a166 debf 8a2a 81be bb08 d1c0
00000100: 786a eac0 e02c 88c0 f4de b541 808b e741
00000110: 9fda a941 69f2 afc0 b77b bbc0 c17e 7ac0
00000120: e4cc a9be ea59 4d3e 44fa 493d ef01 86c0
00000130: 9d55 9cc0 1d9c adc0 9172 a8bd 3d7e 3a3c
00000140: 14fb 13be e1d7 dbbe 6039 403f e784 62bd
00000150: 7edd 1c3f 19de 99be 761f 813e 346c 253f
00000160: dba0 b6bf 83db 073f 2482 c53e 14e0 843e
00000170: 0e49 83bf 8e96 82c0 6478 973f fc63 2740
00000180: ac75 72be 6715 5a3f 8316 7fbf 7d7b f03e
00000190: 3298 e8be 9c89 083e 1f52 133f bf5d 983b
000001a0: b3b2 b7be 3252 20bf f96e 553f a32b 24bd
000001b0: a34c 983b daf1 103e 9688 c53d 5cfa 343f
000001c0: 851f 12bf 2880 913e 6998 7fbf 654f 0e3f
000001d0: 6069 033f 1e07 85bf d867 73be 83c3 3f3f
000001e0: 1064 1b3f 1f63 ed3e c16f cebf e670 0b3f
000001f0: 6505 0ebf c28a e7bd 2238 263d cecb c83e
00000200: 6270 993d 287f 23be f18c 0fbe b4eb 2b3e
00000210: 967a 353e a9d7 24be b7c7 273e 5561 8e3e
00000220: 136c 9f3f eb3a 5dbf bc2d c3c0 91bb a940
00000230: 1d92 6cbf bc27 003e de87 ca3f 0a0d 86bf
00000240: ede1 73c0 8a7c 733c 0f79 2e40 0170 6242
00000250: e525 99c2 2ec0 b441 b7e2 61c0 d811 87bf
00000260: 235c 8440 d28d e0be c728 c63f 157a a0bf
00000270: ed32 49bf 4758 bbbf 3960 0340 fc4e 68bf
00000280: 6ee0 1740 b50c e5bf e4e4 2d3f a9b5 09bf
00000290: 8e0e 363e 36e9 8dbe 372e b5bd d612 353f
000002a0: 37d7 03bf 7ec3 5c3f 581d 69bf ce72 26bf
000002b0: 9d55 3bbf 69cd 9f3f cfbe 81bf 0fde 4840
000002c0: 5cb2 44c0 beb4 a93f 6741 7ebe e8b9 023f
000002d0: f5fa 843f 1ed9 28c0 e877 7e3f a16a a9bf
000002e0: 5185 2c40 1cfb 37bf ee41 37be 5ba1 b1bf
000002f0: 0477 0e3f ea1f 8c3e e85e 88bf 76dd aa3e
00000300: 6c41 2c3f b8ce 2f3f 8497 d1be 3afd 84bf
00000310: 2799 6b3e 7e42 f63e 9ced ae3f 9e7e 50bf
00000320: 9e5c ed3e e497 03c0 3bcd 763f 5217 16bf
00000330: 94a6 da3e 1655 f53e 7e6f 4dbd aad9 b7bc
00000340: ac11 edbf c2c6 b03f 45ab a63f d1c3 2b3f
00000350: 00d2 71bf ca64 a5be e779 e5bd 3bcd 153f
00000360: 34d6 5abf b017 8e3f c04e 12bf 0be4 f4be
00000370: a778 62bf 4bc8 6b3f 7e52 08be 6bec 6d3e
00000380: 499e dc3e 2f3b fc3d 60c0 55bf 58e7 4e3e
00000390: c6cd 6a3f 86da 9e3f 4107 37bf c055 cc3e
000003a0: cb6b 73bf 07c0 d43d 029e 90bf c7dd e93d
000003b0: 98cd 383f 563d d93f 069a 05bf 1863 00c0
000003c0: 8d64 70bf ac7f 193f 5201 4b3f 7022 dfbc
000003d0: 7c76 83be 3b59 d93c 2654 a940 c740 5140
000003e0: ed50 fbc0 adc1 b3bf 5aa6 6c3f f45c 643f
000003f0: 2ed8 2741 b0aa dc3f 60d7 30c1 df25 0ac2

arith.constant6 f4 [48]
0.3511206 0.34536868 0.33967635 0.34668 0.34214997 0.33988497 0.34077927 0.34329596
0.33759016 0.33860347 0.34599453 0.34262684 0.34289506 0.34030223 0.34170294 0.34292486
0.3433421 0.33845446 0.33267272 0.3389611 0.33484834 0.3334178 0.3348483 0.33663648
0.33002028 0.33192766 0.3401234 0.33624905 0.3346397 0.33292046 0.33493772 0.3356537
0.3245664 0.3202152 0.31553617 0.32078144 0.31756276 0.31648985 0.31866544 0.31988737
0.31297314 0.31511894 0.32334447 0.31955954 0.31637064 0.31499973 0.31768197 0.3180098
00000000: 14c6 b33e 2ad4 b03e 0fea ad3e 0a80 b13e
00000010: 482e af3e 6705 ae3e 9f7a ae3e 7dc4 af3e
00000020: 9ed8 ac3e 6f5d ad3e 3226 b13e c96c af3e
00000030: f18f af3e 183c ae3e b0f3 ae3e d993 af3e
00000040: 89ca af3e e749 ad3e 1454 aa3e 4f8c ad3e
00000050: 3e71 ab3e bdb5 aa3e 3d71 ab3e 9e5b ac3e
00000060: 6bf8 a83e 6cf2 a93e a724 ae3e d628 ac3e
00000070: e555 ab3e 8d74 aa3e f57c ab3e cdda ab3e
00000080: 912d a63e 3ff3 a33e f58d a13e 773d a43e
00000090: 9697 a23e f50a a23e 1e28 a33e 47c8 a33e
000000a0: 043e a03e 4557 a13e 688d a53e 4f9d a33e
000000b0: 55fb a13e a547 a13e 36a7 a23e 2ed2 a23e

arith.constant7 f4 [26]
-0.0019448013 0.07422809 -0.12618326 0.035940204 0.07055418 -0.019144671 -0.19689904 -0.11050711
0.053777605 0.08143217 -0.087296 -0.051351927 0.049673963 -0.025642069 -0.07675954 -0.0013359413
-0.039770894 0.008356145 -0.021523679 0.09089181 -0.05274148 0.025160823 0.082102895 0.05952621
0.1389184 0.06820952
00000000: b4e8 feba e604 983d 2f36 01be 0936 133d
00000010: b67e 903d 49d5 9cbc e79f 49be 8d51 e2bd
00000020: e845 5c3d e9c5 a63d 3fc8 b2bd 6656 52bd
00000030: ed76 4b3d 510f d2bc 1b34 9dbd c01a afba
00000040: cee6 22bd 36e8 083c 6d52 b0bc 7c25 ba3d
00000050: 7307 58bd 121e ce3c 9025 a83d c1d1 733d
00000060: a040 0e3e 6fb1 8b3d

arith.constant8 f4 [26]
0.01356256 0.10322012 0.06483962 -0.47645614 -0.015040167 -0.059426196 -0.19580069 -0.04315396
0.12229233 -0.05451764 -0.092695504 -0.009986451 0.06386487 0.042208217 -0.19680429 -0.052615438
-0.36386523 -0.19045457 -0.19367625 0.07763874 -0.072096474 -0.49609706 0.054472975 0.14046377
0.01854442 -0.10947228
00000000: 8035 5e3c 1265 d33d a2ca 843d 0ff2 f3be
00000010: 086b 76bc e268 73bd fa7f 48be 35c2 30bd
00000020: 6774 fa3d e44d 5fbd 24d7 bdbd 369e 23bc
00000030: 96cb 823d 86e2 2c3d 1087 49be 4983 57bd
00000040: 8b4c babe 8606 43be 1153 46be 0f01 9f3d
00000050: 51a7 93bd 6f00 febe 0e1f 5f3d bcd5 0f3e
00000060: 78ea 973c 0133 e0bd

arith.constant9 f4 [26]
0.46870854 0.043383427 0.12592389 -0.09595032 0.5472797 0.8544004 0.45159382 -0.41484427
0.42420748 0.54092014 1.491865 -0.31401622 0.5972482 0.48057646 -0.024404017 0.86920834
1.0443486 0.2507153 -0.007598333 -0.4467405 -0.22929713 -0.038286358 0.87685865 0.46943733
-0.10605419 0.2930866
00000000: 91fa ef3e d2b2 313d 31f2 003e 9a81 c4bd
00000010: 861a 0c3f fcb9 5a3f 4e37 e73e 7866 d4be
00000020: b931 d93e be79 0a3f 6ff5 be3f bcc6 a0be
00000030: 42e5 183f 1e0e f63e efea c7bc 7084 5e3f
00000040: 37ad 853f c15d 803e 70fb f8bb 2cbb e4be
00000050: decc 6abe 28d2 1cbd cf79 603f 175a f03e
00000060: f032 d9bd 720f 963e

arith.constant10 f4 [26]
0.008848145 -1.1905981 1.362321 0.2045762 0.1896776 1.0236068 -0.28417695 1.0188354
0.4419939 0.48020208 0.76578057 0.4914992 0.003445536 1.209548 0.13436322 -1.8403821
0.3491848 0.92049813 0.2947935 1.342318 -0.32329628 -1.1068954 1.1459268 0.78735775
-0.101426035 0.0010285378
00000000: cff7 103c 8565 98bf 8960 ae3f 6c7c 513e
00000010: d83a 423e 8c05 833f a47f 91be 3369 823f
00000020: 064d e23e 0cdd f53e 320a 443f c8a5 fb3e
00000030: 80ce 613b 78d2 9a3f 8396 093e a491 ebbf
00000040: 5ac8 b23e c4a5 6b3f 2cef 963e 14d1 ab3f
00000050: 1787 a5be c0ae 8dbf bbad 923f 4790 493f
00000060: 74b8 cfbd 00d0 863a

arith.constant11 f4 [26]
0.13741796 -1.5531081 -1.0754807 -0.6120436 -1.4596118 -1.4446896 0.08233056 0.25421965
-0.952718 -0.6542832 -0.06889291 -1.3213924 -0.5552257 -1.4778912 -0.5394236 -0.60956264
-1.3931165 -0.42634264 -1.240873 -1.3187286 -1.5854744 -0.34366992 0.0915986 -1.5516607
-1.0376754 -2.2744234
00000000: 4bb7 0c3e 3fcc c6bf 5aa9 89bf e4ae 1cbf
00000010: 8fd4 babf 97eb b8bf ed9c a83d 1429 823e
00000020: 54e5 73bf 1b7f 27bf ba17 8dbd 6323 a9bf
00000030: 4523 0ebf 8a2b bdbf aa17 0abf 4c0c 1cbf
00000040: a451 b2bf 9549 dabe edd4 9ebf 19cc a8bf
00000050: d3f0 cabf 81f5 afbe 0c98 bb3d d19c c6bf
00000060: 8cd2 84bf 2790 11c0

arith.constant12 f4 [26]
0.14048277 0.15451959 -1.547893 -0.23377262 -0.02875868 -0.037425768 0.5935258 -0.36147526
-0.091501296 0.37212005 0.19425572 -0.13212049 0.111631125 0.3757571 0.10595316 -0.74366695
-0.27971542 -0.090727106 -0.41269994 -0.28634465 1.7150266 0.25745392 -0.016745377 0.079208635
-1.097193 0.048623025
00000000: b7da 0f3e 623a 1e3e 5c21 c6bf 1762 6fbe
00000010: 5397 ebbc c34b 19bd 4ff1 173f 4913 b9be
00000020: 0865 bbbd 8586 be3e f9ea 463e 984a 07be
00000030: dc9e e43d 3c63 c03e f8fd d83d f560 3ebf
00000040: dc36 8fbe 22cf b9bd 684d d3be c49b 92be
00000050: fe85 db3f 00d1 833e 9a2d 89bc 2338 a23d
00000060: d270 8cbf f028 473d

arith.constant13 f4 [26]
-0.4367925 -0.7548022 0.69765157 -0.71770775 0.029658718 -0.8369633 0.2446344 -0.7152778
-1.3904886 0.2101867 0.109689444 0.7317174 -0.60908574 1.3931813 -0.35246173 0.24450353
-0.63586056 1.377071 0.15498662 0.4216636 -1.135448 -0.6571659 -0.96192783 0.060263664
-0.90430504 1.0003955
00000000: 44a3 dfbe b83a 41bf 4b99 323f b2bb 37bf
00000010: d7f6 f23c 3a43 56bf 7181 7a3e 721c 37bf
00000020: 88fb b1bf 2f3b 573e dca4 e03d d551 3b3f
00000030: 0bed 1bbf c453 b23f dd75 b4be 225f 7a3e
00000040: c2c7 22bf dd43 b03f d0b4 1e3e 4be4 d73e
00000050: 5c56 91bf 063c 28bf e740 76bf 08d7 763d
00000060: 8980 67bf f60c 803f

arith.constant14 f4 [26]
3.3358767 -0.04151929 0.25968874 -0.23777746 -0.056081787 -1.2820675 1.0333335 -1.2101406
-0.301313 0.5303629 0.14952213 -0.5834028 0.44652265 -0.5319649 -0.4216053 0.57599694
-0.100046515 0.9136616 0.1283379 1.2902074 -0.5066534 -1.4485022 0.9351047 1.2050824
0.13406329 1.4313823
00000000: 017f 5540 2210 2abd ecf5 843e ef7b 73be
00000010: 04b6 65bd ca1a a4bf 4644 843f e3e5 9abf
00000020: b345 9abe ddc5 073f 541c 193e e359 15bf
00000030: 9e9e e43e da2e 08bf a6dc d7be 8974 133f
00000040: 30e5 ccbd bae5 693f 036b 033e 8425 a53f
00000050: 0ab4 01bf 8568 b9bf 0663 6f3f 2440 9a3f
00000060: e347 093e 8937 b73f

arith.constant15 f4 [26]
-0.2679465 0.1283379 1.3434465 0.22344908 -0.1272473 -0.1779512 -0.26298106 0.2692561
-0.45776564 -0.055909075 0.55963314 -0.6671658 -0.06379903 0.6898105 -0.1096355 -0.041832216
0.17495301 0.14048553 -0.15836002 0.0499314 -1.4279478 -0.029617768 -0.18483248 -0.76309973
0.88857925 0.5627645
00000000: 4930 89be 036b 033e 0ef6 ab3f d6cf 643e
00000010: 1e4d 02be d738 36be 74a5 86be efdb 893e
00000020: 4260 eabe ea00 65bd 1e44 0f3f 61cb 2abf
00000030: 11a9 82bd 6c97 303f 9488 e0bd 4258 2bbd
00000040: e226 333e 70db 0f3e 2129 22be de84 4c3d
00000050: fec6 b6bf f6a0 f2bc ba44 3dbe 815a 43bf
00000060: ee79 633f 5611 103f

arith.constant16 f4 [26]
-0.008541736 -0.36671674 -0.26493615 -1.1192108 0.21297416 -0.09326185 -0.48255914 -0.9360285
0.36380544 0.33705714 0.33060697 0.025271922 0.4629023 0.42801157 0.4628814 -0.5069903
-0.16277198 -0.518895 0.060054317 0.20489645 0.7992269 0.5411171 -0.39404038 -1.0233426
1.0089993 -0.017642424
00000000: a3f2 0bbc 4cc2 bbbe b6a5 87be 4d42 8fbf
00000010: e615 5a3e 1200 bfbd fe11 f7be 909f 6fbf
00000020: b544 ba3e c192 ac3e 5145 a93e 1007 cf3c
00000030: 8801 ed3e 5524 db3e cafe ec3e 1eca 01bf
00000040: b3ad 26be 4dd6 04bf 84fb 753d 60d0 513e
00000050: 229a 4c3f a686 0a3f a9bf c9be e4fc 82bf
00000060: e426 813f d886 90bc

arith.constant17 f4 [26]
-0.12221899 -1.6256531 -1.5638672 -1.2967362 -0.071041465 0.21664031 -0.0760474 0.714658
-0.28922182 -0.96784294 -0.1781114 -0.6686258 0.57791376 -0.15125844 0.277852 1.1620625
-0.588837 -1.2239498 1.3379714 0.8202599 -0.6558744 -0.69923353 -1.9646026 -0.4966834
0.690877 -1.89378
00000000: f34d fabd 6715 d0bf cd2c c8bf 74fb a5bf
00000010: 307e 91bd f5d6 5d3e bdbe 9bbd d4f3 363f
00000020: e214 94be 8ec4 77bf d662 36be 0f2b 2bbf
00000030: 28f2 133f 7ee3 1abe 9e42 8e3e 77be 943f
00000040: 06be 16bf 63aa 9cbf a642 ab3f 8efc 513f
00000050: 62e7 27bf f800 33bf 1978 fbbf 494d febe
00000060: 51dd 303f 6267 f2bf

arith.constant18 f4 [26]
0.27510932 0.6439471 1.9024917 -0.06437166 -0.49783054 -2.520321 1.5180328 1.2143445
-0.12773131 0.3147176 -2.4926143 -1.9254632 0.6031776 -1.5007619 -1.8366884 -0.20201501
-0.57958424 0.7743319 -0.6386205 -1.541523 1.9135661 -1.6189145 -2.9715185 -2.2085142
-2.6975026 1.1707203
00000000: 21db 8c3e b8d9 243f d984 f33f 4ad5 83bd
00000010: a5e3 febe f04c 21c0 e64e c23f a46f 9b3f
00000020: ffcb 02be aa22 a13e fe86 1fc0 9475 f6bf
00000030: d969 1a3f f718 c0bf 9b18 ebbf 06dd 4ebe
00000040: a25f 14bf 9e3a 463f a27c 23bf a050 c5bf
00000050: bcef f43f 9738 cfbf 5c2d 3ec0 4c58 0dc0
00000060: e2a3 2cc0 2ada 953f

arith.constant19 f4 [26]
0.34839737 -0.811512 0.11431576 -0.3904482 0.29915202 -0.90020424 0.29258162 -1.1412206
-0.10959573 0.66150427 0.37907553 -0.02335459 1.6557794 0.99855614 1.0134248 0.8753784
-0.42006743 1.6997273 0.48051572 0.16299845 1.1790925 0.21477756 -1.0998759 0.4982497
1.1464173 -0.027397256
00000000: 2461 b23e 40bf 4fbf 621e ea3d d4e8 c7be
00000010: 742a 993e c973 66bf 42cd 953e 8413 92bf
00000020: ba73 e0bd 5858 293f 3016 c23e 2052 bfbc
00000030: 94f0 d33f 60a1 7f3f e7b7 813f cc18 603f
00000040: 1413 d7be aa90 d93f 2806 f63e 11e9 263e
00000050: 81ec 963f a6ee 5b3e bcc8 8cbf 961a ff3e
00000060: cdbd 923f 3670 e0bc

arith.constant20 f4 [26]
-1.8179055 0.18485942 0.057331096 0.7641872 0.73588735 0.5230599 0.04139936 -0.07382503
-0.24737309 -0.9699515 -0.21446773 -0.5756393 0.231028 1.8547935 0.5951196 -0.20734985
0.21112688 0.13423195 0.56193715 1.2745833 0.48088935 1.372008 0.08049657 -0.904206
0.3769772 0.20269567
00000000: 21b1 e8bf ca4b 3d3e 03d4 6a3d c6a1 433f
00000010: 1d63 3c3f 41e7 053f 6092 293d 9431 97bd
00000020: 5f4f 7dbe be4e 78bf 6e9d 5bbe 195d 13bf
00000030: 9b92 6c3e e069 ed3f c259 183f 8553 54be
00000040: a531 583e 1a74 093e 1ddb 0f3f 8c25 a33f
00000050: 2137 f63e f59d af3f 63db a43d 0b7a 67bf
00000060: 2803 c13e 748f 4f3e

arith.constant21 f4 [26]
2.0837948 -1.8360256 6.9360743 -3.0546181 -0.32195288 3.164007 -1.4971792 -1.939079
2.842607 -2.616797 -6.200937 -1.6448218 -0.73884106 1.7446418 1.9236455 -1.0834529
-0.83742625 -0.7622156 0.22978632 0.73935795 1.806494 2.832369 -4.0434456 -2.1588147
6.432904 -1.7493014
00000000: e55c 0540 e302 ebbf 52f4 dd40 dd7e 43c0
00000010: 02d7 a4be 177f 4a40 91a3 bfbf be33 f8bf
00000020: 46ed 3540 9a79 27c0 136e c6c0 8589 d2bf
00000030: b024 3dbf 6c50 df3f 043a f63f 96ae 8abf
00000040: 9161 56bf 9020 43bf 1b4d 6b3e 9046 3d3f
00000050: 323b e73f 8945 3540 e863 81c0 052a 0ac0
00000060: 59da cd40 1ce9 dfbf

arith.constant22 f4 [26]
0.2809598 -0.2196236 0.06630457 1.6446276 -0.70479 1.2769082 0.50312036 -2.5617216
-0.15719782 -0.62535024 3.6165466 0.62338656 0.8441021 1.2591133 -0.13773012 -0.91115814
0.42520076 0.3099516 -0.8366024 1.6224486 1.2298598 -0.29134423 -1.2638193 1.4108917
0.49313617 1.0301074
00000000: f7d9 8f3e 02e5 60be b1ca 873d 2883 d23f
00000010: 1e6d 34bf ba71 a33f 7fcc 003f 3ff3 23c0
00000020: 77f8 20be f416 20bf 8075 6740 4396 1f3f
00000030: 1317 583f a02a a13f 2009 0dbe a941 69bf
00000040: eab3 d93e fab1 9e3e 932b 56bf 65ac cf3f
00000050: 0c6c 9d3f 122b 95be d5c4 a1bf 1998 b43f
00000060: 587c fc3e 8fda 833f

arith.constant23 f4 [26]
-0.7658402 -0.7584491 0.7883114 -0.4172655 1.2050191 1.8174411 -1.1423122 -1.0541942
0.71046674 0.7060081 0.12535964 -0.30333543 -0.25906003 -0.8130907 -0.7830236 -1.4669489
1.9077114 -5.0697217 0.49651036 0.27463946 0.47222203 0.9663574 -9.968504 -0.22375128
0.10071765 0.06629985
00000000: 1a0e 44bf b829 42bf c7ce 493f d3a3 d5be
00000010: 113e 9a3f e9a1 e83f 4937 92bf d6ef 86bf
00000020: 26e1 353f f2bc 343f 475e 003e c84e 9bbe
00000030: 84a3 84be b626 50bf 3c74 48bf fbc4 bbbf
00000040: e32f f43f 293b a2c0 9b36 fe3e 8b9d 8c3e
00000050: 16c7 f13e 3363 773f fe7e 1fc1 0e1f 65be
00000060: 0e45 ce3d 37c8 873d

arith.constant24 f4 [26]
-0.21218783 -2.348065 0.8946738 -0.017433269 -0.08128539 -0.10850793 -1.2452478 -1.2913703
0.009677963 0.12961164 0.33999532 0.06529175 0.054710045 0.041701376 1.041048 -2.927271
0.77509516 0.029854978 -0.6277004 -0.0056839436 -0.008667842 0.0049189343 0.2911462 -0.0058439225
0.0029674098 0.16102523
00000000: c447 59be b246 16c0 5809 653f 37d0 8ebc
00000010: f478 a6bd 6839 debd 4864 9fbf 9f4b a5bf
00000020: 5290 1e3c eab8 043e de13 ae3e aeb7 853d
00000030: a417 603d 10cf 2a3d 1041 853f 6858 3bc0
00000040: a36c 463f 6d92 f43c f9b0 20bf 6040 babb
00000050: 9003 0ebc 032f a13b 1d11 953e 607e bfbb
00000060: e078 423b cce3 243e

arith.constant25 f4 [26]
1.0372142 0.2907017 -4.6074066 -1.1192515 -0.20032918 -3.1898632 -2.5347996 -5.2322373
0.649768 -0.25007254 -4.1750236 -0.12827067 -1.2998699 -4.5546017 0.94086623 1.2135487
1.3603756 1.059729 -3.6978407 -1.0645008 1.3237135 0.5281098 -0.30826944 -2.9628634
-5.80377 -2.8868005
00000000: 6fc3 843f dad6 943e e06f 93c0 a243 8fbf
00000010: 1823 4dbe b826 4cc0 283a 22c0 7d6e a7c0
00000020: 3257 263f 8209 80be cb99 85c0 6359 03be
00000030: 2362 a6bf 4cbf 91c0 9cdc 703f 9055 9b3f
00000040: ca20 ae3f 33a5 873f 6ca9 6cc0 9041 88bf
00000050: 726f a93f 3432 073f 7ed5 9dbe 8e9f 3dc0
00000060: 7cb8 b9c0 57c1 38c0

arith.constant26 f4 [26]
-0.3992326 1.7088332 0.100831054 1.4800127 2.1708512 2.3700547 0.21335375 -0.026723921
-0.46732134 1.0163169 0.80751544 1.1782213 1.2936742 -3.365137 -0.624501 -0.039317086
-3.2041335 -0.5882995 -0.10153123 -1.9910574 -0.74419165 -0.49774164 -0.42272586 0.37778264
3.5667133 0.0814068
00000000: 3768 ccbe 0cbb da3f 8380 ce3d 0e71 bd3f
00000010: 3aef 0a40 faae 1740 6879 5a3e 20ec dabc
00000020: be44 efbe ac16 823f 55b9 4e3f f5cf 963f
00000030: 1e97 a53f 685e 57c0 4cdf 1fbf f40a 21bd
00000040: 8610 4dc0 cc9a 16bf 9bef cfbd f8da febf
00000050: 5883 3ebf fed7 febe 866f d8be ba6c c13e
00000060: 0845 6440 9cb8 a63d

arith.constant27 f4 [26]
0.95890725 -0.14090833 -0.72910774 -1.1740276 -0.4788998 0.21865904 -0.12990732 -0.08168107
0.62766165 -0.6414799 -0.69449884 0.17443705 0.007150665 0.4020164 -0.06912473 -0.13134798
0.24733157 0.023977965 -0.14279257 0.10784495 -0.21472913 -0.08585983 0.29770073 -0.0119508505
-0.047121674 0.027368069
00000000: f27a 753f 464a 10be cea6 3abf 8946 96bf
00000010: 5b32 f5be 28e8 5f3e 6d06 05be 6848 a7bd
00000020: 6fae 203f 0738 24bf adca 31bf a09f 323e
00000030: 2050 ea3b 18d5 cd3e 4491 8dbd 1680 06be
00000040: 7d44 7d3e 706d c43c 3738 12be d0dd dc3d
00000050: f4e1 5bbe 47d7 afbd 3b6c 983e 80cd 43bc
00000060: a802 41bd 0033 e03c

tfl.pseudo_qconst i1 [48, 3, 3, 26]
19 18 -10 13 4 -11 -38 6
-2 -31 3 -5 -19 18 18 5
22 43 2 -15 22 -3 -15 -15
5 -21 5 -24 -2 -9 1 -15
-52 -24 6 -20 20 13 -6 31
46 -18 -28 39 18 28 -8 25
22 -3 9 11 16 3 -5 6
-4 1 0 7 -5 -4 -4 -7
2 0 -3 3 9 9 -2 -9
4 2 -11 0 -3 -4 -5 15
14 -2 9 -14 -49 27 30 17
-13 12 -8 15 -29 -21 30 43
-14 29 8 25 16 13 -12 -1
-7 -28 40 51 -28 -40 -80 54
-20 -19 -10 29 17 5 -52 -9
-66 127 12 -61 -6 3 28 7
82 14 4 11 -31 -12 4 15
-16 -2 12 3 1 -5 8 15
-5 -23 20 -5 3 10 3 -6
-16 -2 -15 -1 5 -4 -7 0
-6 1 -4 -6 -2 -1 0 -5
1 3 5 3 -1 -4 1 -3
5 -2 -8 -6 -1 -1 -11 7
-31 -12 -1 8 -15 -4 8 -4
-2 -14 9 11 17 -4 -2 -12
-5 3 -4 -2 -13 6 -8 3
1 -3 5 0 2 -1 5 -1
-1 0 1 1 -2 -2 0 5
1 -4 0 0 3 -1 2 0
-1 -2 4 0 -22 1 4 2
-21 -3 0 -7 -3 2 2 3
-2 -1 -2 25 -5 -9 4 3
00000000: 1312 f60d 04f5 da06 fee1 03fb ed12 1205
00000010: 162b 02f1 16fd f1f1 05eb 05e8 fef7 01f1
00000020: cce8 06ec 140d fa1f 2eee e427 121c f819
00000030: 16fd 090b 1003 fb06 fc01 0007 fbfc fcf9
00000040: 0200 fd03 0909 fef7 0402 f500 fdfc fb0f
00000050: 0efe 09f2 cf1b 1e11 f30c f80f e3eb 1e2b
00000060: f21d 0819 100d f4ff f9e4 2833 e4d8 b036
00000070: eced f61d 1105 ccf7 be7f 0cc3 fa03 1c07
00000080: 520e 040b e1f4 040f f0fe 0c03 01fb 080f
00000090: fbe9 14fb 030a 03fa f0fe f1ff 05fc f900
000000a0: fa01 fcfa feff 00fb 0103 0503 fffc 01fd
000000b0: 05fe f8fa ffff f507 e1f4 ff08 f1fc 08fc
000000c0: fef2 090b 11fc fef4 fb03 fcfe f306 f803
000000d0: 01fd 0500 02ff 05ff ff00 0101 fefe 0005
000000e0: 01fc 0000 03ff 0200 fffe 0400 ea01 0402
000000f0: ebfd 00f9 fd02 0203 feff fe19 fbf7 0403

tfl.pseudo_qconst1 i1 [26, 1, 1, 104]
0 5 1 4 11 0 -2 10
-5 -3 0 1 -2 1 -14 0
-1 1 2 2 0 -1 2 -5
3 4 -27 -19 -19 21 -12 -2
-5 0 -52 -6 24 38 32 -9
6 -9 -15 19 -8 35 -62 12
-61 21 43 1 2 25 1 -1
4 6 -1 1 1 -2 0 0
-7 -4 -127 1 -4 -75 0 24
5 -2 -1 29 -26 -21 1 -10
6 -26 5 -18 14 4 3 2
-12 -62 7 7 3 -1 47 -6
75 -7 9 -8 -8 -91 8 11
0 3 -1 -1 -1 -1 1 4
-5 0 0 -1 2 2 -5 -1
2 -2 3 0 -1 2 2 4
-4 5 22 0 -12 -7 11 -8
18 -1 24 3 0 -1 11 -24
2 6 -46 -27 6 32 -29 27
-12 -42 26 28 1 8 0 -1
1 2 1 0 1 -3 0 0
0 3 -44 0 9 66 7 -27
-4 36 -1 -72 36 -42 -6 -23
63 8 27 -5 4 0 -54 5
2 56 3 -10 -6 4 37 7
-127 67 24 -18 0 3 -8 -9
0 -33 25 -4 1 1 -2 25
2 -1 -4 -2 2 1 -4 1
-4 -1 0 -1 -5 2 -4 1
2 4 -4 18 -2 -36 8 -4
-51 -17 20 -14 4 -10 23 -20
-29 -4 -76 -14 -44 44 1 -92
00000000: 0005 0104 0b00 fe0a fbfd 0001 fe01 f200
00000010: ff01 0202 00ff 02fb 0304 e5ed ed15 f4fe
00000020: fb00 ccfa 1826 20f7 06f7 f113 f823 c20c
00000030: c315 2b01 0219 01ff 0406 ff01 01fe 0000
00000040: f9fc 8101 fcb5 0018 05fe ff1d e6eb 01f6
00000050: 06e6 05ee 0e04 0302 f4c2 0707 03ff 2ffa
00000060: 4bf9 09f8 f8a5 080b 0003 ffff ffff 0104
00000070: fb00 00ff 0202 fbff 02fe 0300 ff02 0204
00000080: fc05 1600 f4f9 0bf8 12ff 1803 00ff 0be8
00000090: 0206 d2e5 0620 e31b f4d6 1a1c 0108 00ff
000000a0: 0102 0100 01fd 0000 0003 d400 0942 07e5
000000b0: fc24 ffb8 24d6 fae9 3f08 1bfb 0400 ca05
000000c0: 0238 03f6 fa04 2507 8143 18ee 0003 f8f7
000000d0: 00df 19fc 0101 fe19 02ff fcfe 0201 fc01
000000e0: fcff 00ff fb02 fc01 0204 fc12 fedc 08fc
000000f0: cdef 14f2 04f6 17ec e3fc b4f2 d42c 01a4

tfl.pseudo_qconst2 i1 [26, 3, 3, 26]
0 0 1 -12 0 18 4 8
-3 -2 0 -1 0 -12 4 -17
-2 5 -1 0 1 -1 2 1
6 -6 2 19 26 11 2 -5
-19 -65 4 53 -4 -4 11 20
27 16 6 -14 -31 -14 0 4
-5 -9 -15 8 -6 5 7 0
-4 -6 -13 -6 2 2 -2 4
-1 4 -1 2 7 4 -1 2
1 10 -1 -4 -5 9 4 -3
-20 -2 -2 27 5 13 -1 -2
2 15 3 -23 1 -55 -2 -5
0 6 5 -21 28 18 2 -25
47 49 -25 69 -18 -46 -86 -26
28 21 11 24 10 53 82 10
25 -20 -127 -5 -17 -19 7 3
-34 23 19 -17 -5 25 1 -11
13 -6 -18 11 0 12 7 4
-33 7 -9 -1 60 -9 0 -20
-15 5 -15 8 3 4 -2 1
1 23 -2 1 5 1 -1 -10
-3 3 -10 3 1 -5 6 1
1 -6 -9 3 -1 5 -14 -39
0 0 -1 -20 -5 1 19 -1
-9 25 1 9 -6 -10 12 -10
-15 7 1 -1 13 16 1 13
5 6 0 0 -2 -2 5 -2
1 2 -1 0 3 -2 -3 -2
0 2 0 1 0 2 4 -6
1 -11 -2 -4 3 0 0 -2
-4 -4 -3 5 -2 12 5 6
1 -20 1 -13 -1 2 0 7
00000000: 0000 01f4 0012 0408 fdfe 00ff 00f4 04ef
00000010: fe05 ff00 01ff 0201 06fa 0213 1a0b 02fb
00000020: edbf 0435 fcfc 0b14 1b10 06f2 e1f2 0004
00000030: fbf7 f108 fa05 0700 fcfa f3fa 0202 fe04
00000040: ff04 ff02 0704 ff02 010a fffc fb09 04fd
00000050: ecfe fe1b 050d fffe 020f 03e9 01c9 fefb
00000060: 0006 05eb 1c12 02e7 2f31 e745 eed2 aae6
00000070: 1c15 0b18 0a35 520a 19ec 81fb efed 0703
00000080: de17 13ef fb19 01f5 0dfa ee0b 000c 0704
00000090: df07 f7ff 3cf7 00ec f105 f108 0304 fe01
000000a0: 0117 fe01 0501 fff6 fd03 f603 01fb 0601
000000b0: 01fa f703 ff05 f2d9 0000 ffec fb01 13ff
000000c0: f719 0109 faf6 0cf6 f107 01ff 0d10 010d
000000d0: 0506 0000 fefe 05fe 0102 ff00 03fe fdfe
000000e0: 0002 0001 0002 04fa 01f5 fefc 0300 00fe
000000f0: fcfc fd05 fe0c 0506 01ec 01f3 ff02 0007

tfl.pseudo_qconst3 i1 [26, 3, 3, 26]
-5 5 11 9 3 -5 -6 4
4 -1 -1 2 6 6 7 7
0 1 -5 8 -1 -3 5 -9
-12 3 -6 4 62 -2 2 0
-7 2 5 -21 2 -18 11 18
42 -5 8 0 -13 -11 8 4
11 -21 -45 8 -2 2 5 -1
-2 -3 -9 2 1 1 -4 9
4 4 9 -5 -4 10 -3 -13
2 3 5 6 -1 0 -21 -4
-23 -6 2 8 4 -10 2 0
1 2 21 16 -31 4 2 -15
-7 3 -4 -3 -5 -20 7 6
13 -2 -126 -6 -18 18 -19 18
-27 8 49 -16 64 14 -127 24
-7 -16 116 0 -20 -34 9 -74
39 2 6 6 -5 -3 -2 2
17 -11 4 -24 -7 0 12 5
-1 11 -5 -12 26 11 16 -16
-14 8 5 -2 7 -1 -26 -2
3 -7 -2 2 11 -14 -1 1
2 3 34 -7 5 -2 0 8
3 -3 -6 3 5 -1 -5 -14
-5 -1 16 -8 -1 -18 14 8
7 2 1 -1 27 -13 7 -5
18 6 -2 0 0 2 9 -14
-4 -1 -19 3 -5 -1 0 2
4 3 -6 0 -3 2 5 -12
8 -4 0 3 -2 15 0 -8
2 -1 3 -2 2 22 -2 -10
5 4 -2 -3 2 -4 -2 4
2 -4 -3 -19 -7 -10 -6 6
00000000: fb05 0b09 03fb fa04 04ff ff02 0606 0707
00000010: 0001 fb08 fffd 05f7 f403 fa04 3efe 0200
00000020: f902 05eb 02ee 0b12 2afb 0800 f3f5 0804
00000030: 0beb d308 fe02 05ff fefd f702 0101 fc09
00000040: 0404 09fb fc0a fdf3 0203 0506 ff00 ebfc
00000050: e9fa 0208 04f6 0200 0102 1510 e104 02f1
00000060: f903 fcfd fbec 0706 0dfe 82fa ee12 ed12
00000070: e508 31f0 400e 8118 f9f0 7400 ecde 09b6
00000080: 2702 0606 fbfd fe02 11f5 04e8 f900 0c05
00000090: ff0b fbf4 1a0b 10f0 f208 05fe 07ff e6fe
000000a0: 03f9 fe02 0bf2 ff01 0203 22f9 05fe 0008
000000b0: 03fd fa03 05ff fbf2 fbff 10f8 ffee 0e08
000000c0: 0702 01ff 1bf3 07fb 1206 fe00 0002 09f2
000000d0: fcff ed03 fbff 0002 0403 fa00 fd02 05f4
000000e0: 08fc 0003 fe0f 00f8 02ff 03fe 0216 fef6
000000f0: 0504 fefd 02fc fe04 02fc fded f9f6 fa06

tfl.pseudo_qconst4 i1 [26, 3, 3, 26]
-2 3 0 2 -1 0 1 -1
-1 -1 0 -4 -5 2 1 0
2 3 -1 2 -4 0 4 21
0 -4 21 -9 3 -3 -2 0
-18 -3 0 6 6 -3 5 3
-3 13 -4 10 0 8 -9 -1
-12 -3 -2 31 5 0 3 -1
0 -1 1 -3 0 -3 -1 5
5 -2 2 -11 0 0 0 1
1 -3 -2 -16 2 8 -9 -6
2 0 -2 -1 -3 5 -1 -4
1 3 3 3 5 0 2 4
-1 -3 4 11 0 -13 2 -9
6 -11 -7 -8 -1 -4 -24 3
3 16 -8 23 9 19 -50 4
-1 7 0 -19 -7 14 -7 21
4 127 10 -2 -1 2 2 2
-2 -5 -3 -1 5 -1 -4 -3
-14 -17 6 9 0 -2 -1 0
0 13 -4 -24 2 1 0 0
1 0 2 1 1 0 2 -3
0 1 -1 2 2 -1 0 0
-3 -2 0 -6 -3 10 1 0
2 5 0 1 0 -5 -1 -4
0 -1 -4 -7 6 5 1 2
0 5 1 0 3 -27 0 20
0 2 3 2 0 2 0 2
0 -6 2 -5 1 -3 6 -2
1 5 -3 7 -1 -2 3 -3
0 11 -14 2 9 -19 1 -5
-11 3 2 5 2 7 18 -5
-2 -3 -3 -6 6 1 3 -18
00000000: fe03 0002 ff00 01ff ffff 00fc fb02 0100
00000010: 0203 ff02 fc00 0415 00fc 15f7 03fd fe00
00000020: eefd 0006 06fd 0503 fd0d fc0a 0008 f7ff
00000030: f4fd fe1f 0500 03ff 00ff 01fd 00fd ff05
00000040: 05fe 02f5 0000 0001 01fd fef0 0208 f7fa
00000050: 0200 feff fd05 fffc 0103 0303 0500 0204
00000060: fffd 040b 00f3 02f7 06f5 f9f8 fffc e803
00000070: 0310 f817 0913 ce04 ff07 00ed f90e f915
00000080: 047f 0afe ff02 0202 fefb fdff 05ff fcfd
00000090: f2ef 0609 00fe ff00 000d fce8 0201 0000
000000a0: 0100 0201 0100 02fd 0001 ff02 02ff 0000
000000b0: fdfe 00fa fd0a 0100 0205 0001 00fb fffc
000000c0: 00ff fcf9 0605 0102 0005 0100 03e5 0014
000000d0: 0002 0302 0002 0002 00fa 02fb 01fd 06fe
000000e0: 0105 fd07 fffe 03fd 000b f202 09ed 01fb
000000f0: f503 0205 0207 12fb fefd fdfa 0601 03ee

tfl.pseudo_qconst5 i1 [26, 3, 3, 26]
-6 -5 -4 20 23 -6 7 15
0 -4 4 11 -4 9 3 6
-12 11 0 -8 0 5 19 -5
-2 -33 -4 64 -25 -10 -8 -13
-11 44 4 -18 19 -2 52 45
0 25 -28 -2 8 -27 12 -81
127 -16 -21 -25 -5 -5 -11 8
7 8 0 27 11 13 2 14
3 17 -16 19 -9 10 -20 -12
0 -39 -16 -8 26 35 4 89
-20 -5 3 16 -13 -44 -6 7
46 -22 11 -13 -13 -17 -20 18
14 -10 4 -21 3 37 -22 -6
-51 -124 -87 41 -17 60 -72 -97
-5 -18 51 -21 61 20 -30 -11
15 60 39 46 13 39 1 87
-6 25 -21 -39 4 -5 18 -26
0 -48 19 -5 13 9 2 -5
5 -37 -13 14 37 10 1 -34
-46 15 -14 22 5 -2 3 4
-1 -4 7 13 7 -5 2 -13
-7 -1 0 -7 -13 -2 -9 1
-3 -17 37 18 -6 -12 -15 3
25 -16 -8 -10 10 11 -5 3
-18 -6 -15 -4 3 -11 13 0
-5 -3 -5 -14 -13 9 -7 10
1 13 -2 -5 3 -7 9 14
-5 -5 -22 -5 -8 5 3 -7
5 -2 -7 7 -7 1 32 5
3 -16 2 3 3 2 6 0
-1 5 3 11 -3 11 3 12
-1 9 -7 4 -2 1 -5 -4
00000000: fafb fc14 17fa 070f 00fc 040b fc09 0306
00000010: f40b 00f8 0005 13fb fedf fc40 e7f6 f8f3
00000020: f52c 04ee 13fe 342d 0019 e4fe 08e5 0caf
00000030: 7ff0 ebe7 fbfb f508 0708 001b 0b0d 020e
00000040: 0311 f013 f70a ecf4 00d9 f0f8 1a23 0459
00000050: ecfb 0310 f3d4 fa07 2eea 0bf3 f3ef ec12
00000060: 0ef6 04eb 0325 eafa cd84 a929 ef3c b89f
00000070: fbee 33eb 3d14 e2f5 0f3c 272e 0d27 0157
00000080: fa19 ebd9 04fb 12e6 00d0 13fb 0d09 02fb
00000090: 05db f30e 250a 01de d20f f216 05fe 0304
000000a0: fffc 070d 07fb 02f3 f9ff 00f9 f3fe f701
000000b0: fdef 2512 faf4 f103 19f0 f8f6 0a0b fb03
000000c0: eefa f1fc 03f5 0d00 fbfd fbf2 f309 f90a
000000d0: 010d fefb 03f9 090e fbfb eafb f805 03f9
000000e0: 05fe f907 f901 2005 03f0 0203 0302 0600
000000f0: ff05 030b fd0b 030c ff09 f904 fe01 fbfc

tfl.pseudo_qconst6 i1 [26, 3, 3, 26]
53 -15 26 19 -13 3 10 3
12 -1 -2 -17 14 -27 -5 1
9 50 -1 -66 -8 -16 4 6
-27 -6 47 34 9 -29 -4 10
21 3 -12 17 10 -80 60 -52
2 -5 -75 50 65 -28 2 -29
-27 16 13 -47 -3 24 -1 -6
-4 -6 -23 -3 -6 5 -24 -32
-6 2 11 5 14 -17 18 26
-7 -1 10 10 0 11 13 38
-49 18 11 -10 -35 15 -26 19
-22 -17 26 109 2 14 -47 -10
28 -6 8 -15 -4 14 22 -8
37 -97 -34 4 -17 34 -63 -25
24 17 14 -9 -42 127 -6 20
65 -7 73 12 24 -68 -34 50
-21 23 -25 29 14 -50 -12 -9
2 -9 -9 5 -18 7 -30 -41
16 -7 30 10 12 -28 5 -32
10 11 -10 -37 -8 8 -28 -24
-13 2 -22 -5 0 -1 6 0
-12 -14 -2 10 22 19 4 -22
-7 -8 15 5 -5 -30 21 21
-10 -10 -16 -2 -63 -1 -14 -6
7 16 -2 -2 0 4 23 24
-23 -41 -28 -1 64 20 -27 -7
13 -3 -3 25 -6 4 2 -2
-1 9 6 8 8 15 -3 5
0 1 -4 -26 -4 3 10 6
13 -12 -45 1 1 -5 -15 -15
-12 8 12 4 -19 -7 7 40
12 11 8 -15 -12 13 12 6
00000000: 35f1 1a13 f303 0a03 0cff feef 0ee5 fb01
00000010: 0932 ffbe f8f0 0406 e5fa 2f22 09e3 fc0a
00000020: 1503 f411 0ab0 3ccc 02fb b532 41e4 02e3
00000030: e510 0dd1 fd18 fffa fcfa e9fd fa05 e8e0
00000040: fa02 0b05 0eef 121a f9ff 0a0a 000b 0d26
00000050: cf12 0bf6 dd0f e613 eaef 1a6d 020e d1f6
00000060: 1cfa 08f1 fc0e 16f8 259f de04 ef22 c1e7
00000070: 1811 0ef7 d67f fa14 41f9 490c 18bc de32
00000080: eb17 e71d 0ece f4f7 02f7 f705 ee07 e2d7
00000090: 10f9 1e0a 0ce4 05e0 0a0b f6db f808 e4e8
000000a0: f302 eafb 00ff 0600 f4f2 fe0a 1613 04ea
000000b0: f9f8 0f05 fbe2 1515 f6f6 f0fe c1ff f2fa
000000c0: 0710 fefe 0004 1718 e9d7 e4ff 4014 e5f9
000000d0: 0dfd fd19 fa04 02fe ff09 0608 080f fd05
000000e0: 0001 fce6 fc03 0a06 0df4 d301 01fb f1f1
000000f0: f408 0c04 edf9 0728 0c0b 08f1 f40d 0c06

tfl.pseudo_qconst7 i1 [26, 3, 3, 26]
0 -5 13 -6 -12 6 2 -22
-4 9 -2 -11 2 -1 6 -4
-10 -14 -14 -13 -11 33 5 20
10 -1 -7 -23 7 -17 36 -29
-3 -58 12 -19 13 31 18 11
7 15 48 18 62 19 46 -73
-18 -37 -18 -9 -5 6 0 -12
7 7 1 -28 -8 0 -3 -14
-6 3 5 -1 -10 4 -8 8
-5 8 1 -9 7 -7 0 -4
5 2 -17 -10 0 -27 5 -4
3 -10 -12 7 -13 -2 0 10
8 -4 18 -28 11 -5 3 -9
0 63 10 42 26 29 35 64
-27 -13 15 -15 1 -32 11 -17
-21 33 -112 -45 -29 127 44 -45
-19 21 -6 -10 -2 29 0 -2
8 41 -4 -12 -3 -6 -4 -5
1 0 10 2 11 7 25 -12
5 3 -23 11 -2 -9 -9 10
21 -2 -4 7 -11 -20 -4 11
8 -21 16 2 28 11 11 17
-15 -3 9 -11 -10 -6 3 -9
1 42 -32 -2 -9 -35 1 4
7 -2 -10 -25 -11 -11 -23 21
51 -22 -2 -107 14 -31 3 -18
-3 9 0 12 -11 -25 5 -33
-9 -43 7 20 5 6 9 -11
27 -20 3 25 -17 -7 -6 22
8 -28 0 -4 19 -9 -32 -12
-8 3 2 5 24 3 -8 33
4 -2 -26 -19 16 10 17 -29
00000000: 00fb 0dfa f406 02ea fc09 fef5 02ff 06fc
00000010: f6f2 f2f3 f521 0514 0aff f9e9 07ef 24e3
00000020: fdc6 0ced 0d1f 120b 070f 3012 3e13 2eb7
00000030: eedb eef7 fb06 00f4 0707 01e4 f800 fdf2
00000040: fa03 05ff f604 f808 fb08 01f7 07f9 00fc
00000050: 0502 eff6 00e5 05fc 03f6 f407 f3fe 000a
00000060: 08fc 12e4 0bfb 03f7 003f 0a2a 1a1d 2340
00000070: e5f3 0ff1 01e0 0bef eb21 90d3 e37f 2cd3
00000080: ed15 faf6 fe1d 00fe 0829 fcf4 fdfa fcfb
00000090: 0100 0a02 0b07 19f4 0503 e90b fef7 f70a
000000a0: 15fe fc07 f5ec fc0b 08eb 1002 1c0b 0b11
000000b0: f1fd 09f5 f6fa 03f7 012a e0fe f7dd 0104
000000c0: 07fe f6e7 f5f5 e915 33ea fe95 0ee1 03ee
000000d0: fd09 000c f5e7 05df f7d5 0714 0506 09f5
000000e0: 1bec 0319 eff9 fa16 08e4 00fc 13f7 e0f4
000000f0: f803 0205 1803 f821 04fe e6ed 100a 11e3

tfl.pseudo_qconst8 i1 [26, 3, 3, 26]
-17 -11 6 19 -18 -11 9 -18
-21 -30 4 10 -29 -25 -33 -58
-36 -52 -3 -45 0 -15 50 8
-16 17 2 20 10 10 -28 0
16 1 -19 -5 -29 -63 -39 -28
-33 2 -1 -36 55 -34 12 16
-29 -4 7 8 -8 35 16 -59
-45 -5 -6 29 -27 -69 -25 -43
-12 5 8 0 -36 -31 -7 -11
10 -4 -29 -4 -12 18 -9 -6
7 15 -21 1 -21 0 -28 -57
-59 48 4 24 -56 52 8 -23
10 -9 22 -42 -4 -6 10 -11
-11 4 -13 21 -21 32 6 -127
-39 -22 78 33 -12 -14 -17 4
8 -15 30 -19 38 -13 53 -54
-48 -61 -30 -44 1 -64 -35 26
8 -8 -29 -21 -26 46 5 -4
-58 78 -23 -15 31 -36 23 -14
-72 0 -7 -32 6 26 9 0
-31 2 0 -27 -33 31 -28 17
-18 0 -23 -38 -63 -38 -10 -30
-2 -51 20 10 -11 -15 19 25
4 -4 -7 -10 1 31 -4 -12
-17 -44 2 -29 18 -45 -41 -25
60 -20 -7 -23 -1 19 8 -32
-30 -23 15 -43 -5 -4 29 10
-19 21 6 7 -36 -34 -56 -20
-28 -14 -25 -71 0 -42 47 -2
-20 4 -23 -19 7 -5 -17 -12
9 1 3 3 -9 -3 -17 -19
-12 15 -7 6 15 -20 -19 0
00000000: eff5 0613 eef5 09ee ebe2 040a e3e7 dfc6
00000010: dccc fdd3 00f1 3208 f011 0214 0a0a e400
00000020: 1001 edfb e3c1 d9e4 df02 ffdc 37de 0c10
00000030: e3fc 0708 f823 10c5 d3fb fa1d e5bb e7d5
00000040: f405 0800 dce1 f9f5 0afc e3fc f412 f7fa
00000050: 070f eb01 eb00 e4c7 c530 0418 c834 08e9
00000060: 0af7 16d6 fcfa 0af5 f504 f315 eb20 0681
00000070: d9ea 4e21 f4f2 ef04 08f1 1eed 26f3 35ca
00000080: d0c3 e2d4 01c0 dd1a 08f8 e3eb e62e 05fc
00000090: c64e e9f1 1fdc 17f2 b800 f9e0 061a 0900
000000a0: e102 00e5 df1f e411 ee00 e9da c1da f6e2
000000b0: fecd 140a f5f1 1319 04fc f9f6 011f fcf4
000000c0: efd4 02e3 12d3 d7e7 3cec f9e9 ff13 08e0
000000d0: e2e9 0fd5 fbfc 1d0a ed15 0607 dcde c8ec
000000e0: e4f2 e7b9 00d6 2ffe ec04 e9ed 07fb eff4
000000f0: 0901 0303 f7fd efed f40f f906 0fec ed00

tfl.pseudo_qconst9 i1 [26, 3, 3, 26]
15 9 57 31 -26 29 10 -7
-60 87 6 -21 33 57 -5 5
42 31 -4 -3 -13 -16 -87 -21
2 -28 -36 11 48 40 -53 57
-9 66 29 12 -14 72 3 29
-28 2 29 18 10 -7 -23 -7
-15 50 -41 -53 -44 25 -110 -7
-53 -26 -27 62 12 -20 -4 0
-11 14 -64 38 -64 9 2 20
-17 -28 -25 -10 30 9 -100 1
-27 62 21 -21 8 12 96 -12
-31 -9 33 -19 -33 -54 -12 -6
-13 33 24 5 -25 -7 53 52
-50 48 -121 48 -34 -25 52 -48
84 -36 4 -42 -38 -6 -114 -64
97 -49 -14 10 118 6 25 -17
94 17 -27 3 80 7 8 23
51 91 12 48 -127 -21 -9 -22
24 -12 66 -24 -13 -16 -22 27
-59 13 72 -118 -18 21 21 -29
22 31 9 90 15 15 -27 -19
-34 -10 1 -1 52 -28 26 -50
-6 -5 13 3 -1 -32 31 43
17 -62 17 30 26 33 42 101
-10 -63 -14 -27 4 23 -88 59
12 -26 -7 -27 -73 -23 9 -36
-17 -19 -84 33 6 7 3 24
14 44 -82 10 52 -21 -99 11
-11 30 -2 22 -2 -7 -75 -9
17 13 9 42 -31 -1 7 20
-5 -4 -4 26 -23 -4 27 -14
-19 -10 27 -32 -15 2 28 -4
00000000: 0f09 391f e61d 0af9 c457 06eb 2139 fb05
00000010: 2a1f fcfd f3f0 a9eb 02e4 dc0b 3028 cb39
00000020: f742 1d0c f248 031d e402 1d12 0af9 e9f9
00000030: f132 d7cb d419 92f9 cbe6 e53e 0cec fc00
00000040: f50e c026 c009 0214 efe4 e7f6 1e09 9c01
00000050: e53e 15eb 080c 60f4 e1f7 21ed dfca f4fa
00000060: f321 1805 e7f9 3534 ce30 8730 dee7 34d0
00000070: 54dc 04d6 dafa 8ec0 61cf f20a 7606 19ef
00000080: 5e11 e503 5007 0817 335b 0c30 81eb f7ea
00000090: 18f4 42e8 f3f0 ea1b c50d 488a ee15 15e3
000000a0: 161f 095a 0f0f e5ed def6 01ff 34e4 1ace
000000b0: fafb 0d03 ffe0 1f2b 11c2 111e 1a21 2a65
000000c0: f6c1 f2e5 0417 a83b 0ce6 f9e5 b7e9 09dc
000000d0: efed ac21 0607 0318 0e2c ae0a 34eb 9d0b
000000e0: f51e fe16 fef9 b5f7 110d 092a e1ff 0714
000000f0: fbfc fc1a e9fc 1bf2 edf6 1be0 f102 1cfc

tfl.pseudo_qconst10 i1 [26, 3, 3, 26]
-13 -38 -21 -6 14 2 9 -10
-4 25 -5 -13 10 -5 -10 -6
14 33 -5 -5 3 3 29 5
0 5 3 32 11 11 34 5
10 -9 28 2 -17 -24 16 7
-18 -4 11 28 -13 -6 -13 0
54 -84 0 -27 -3 32 -8 -11
5 -7 -8 -12 8 7 -2 -42
6 -1 -1 -20 4 1 4 3
-18 16 -1 -5 6 -5 8 -92
68 -15 -2 -8 13 -27 -10 27
-9 -4 -15 7 20 20 -7 -18
-28 8 6 4 47 33 -7 -26
3 -10 18 7 -36 -39 -32 -65
-5 11 5 38 -18 5 -14 -14
-27 10 -57 10 0 -3 -91 -2
-4 13 3 -5 -23 29 -42 -38
17 27 14 -36 -15 6 52 -14
-27 -26 -68 3 -26 -53 15 9
41 -27 23 36 -4 48 -18 -13
13 -4 -11 -4 7 -17 7 -20
9 -12 -18 -8 2 -6 -5 -14
5 -1 127 -4 9 9 -26 -24
-8 16 -5 4 -27 1 -22 -4
-6 -15 14 -14 -3 -29 38 -16
10 -17 9 -21 -100 61 8 -3
-8 20 -6 -15 20 13 -19 -16
11 -3 -10 -21 -32 17 35 -19
37 -13 -7 33 2 -15 -87 0
-25 7 6 1 4 -14 19 -6
-9 -2 16 -3 -20 -5 -2 23
3 6 1 -9 -27 3 3 1
00000000: f3da ebfa 0e02 09f6 fc19 fbf3 0afb f6fa
00000010: 0e21 fbfb 0303 1d05 0005 0320 0b0b 2205
00000020: 0af7 1c02 efe8 1007 eefc 0b1c f3fa f300
00000030: 36ac 00e5 fd20 f8f5 05f9 f8f4 0807 fed6
00000040: 06ff ffec 0401 0403 ee10 fffb 06fb 08a4
00000050: 44f1 fef8 0de5 f61b f7fc f107 1414 f9ee
00000060: e408 0604 2f21 f9e6 03f6 1207 dcd9 e0bf
00000070: fb0b 0526 ee05 f2f2 e50a c70a 00fd a5fe
00000080: fc0d 03fb e91d d6da 111b 0edc f106 34f2
00000090: e5e6 bc03 e6cb 0f09 29e5 1724 fc30 eef3
000000a0: 0dfc f5fc 07ef 07ec 09f4 eef8 02fa fbf2
000000b0: 05ff 7ffc 0909 e6e8 f810 fb04 e501 eafc
000000c0: faf1 0ef2 fde3 26f0 0aef 09eb 9c3d 08fd
000000d0: f814 faf1 140d edf0 0bfd f6eb e011 23ed
000000e0: 25f3 f921 02f1 a900 e707 0601 04f2 13fa
000000f0: f7fe 10fd ecfb fe17 0306 01f7 e503 0301

tfl.pseudo_qconst11 i1 [26, 3, 3, 26]
65 14 3 32 -7 13 15 -37
-2 1 -3 16 10 -6 14 -11
-29 12 17 64 -16 45 -8 -7
16 -23 -127 -8 -5 -21 -26 -11
-14 14 37 -15 -15 5 47 -4
3 30 -49 7 -33 -71 29 -47
-2 -5 -9 -8 93 23 -4 -3
19 -8 -13 10 -12 -2 8 8
-44 30 -5 -5 32 -18 -2 20
-8 4 1 -1 6 36 -54 -15
17 -33 15 -7 -4 43 43 -51
-43 -34 -3 28 1 -9 41 -37
10 -31 -8 -1 5 4 12 16
42 -3 -4 84 -10 16 32 -48
19 21 53 14 -1 -9 -27 -108
-16 -9 11 28 2 69 2 -9
4 4 -43 20 -11 -1 -29 9
-12 0 16 -2 -5 -11 20 2
19 54 -47 34 -22 4 1 19
-10 -18 4 2 -15 -2 0 26
4 -1 4 17 30 12 -5 -12
-26 10 -10 31 -6 17 -41 -22
-12 -29 6 -14 2 11 -3 -10
15 -31 -46 -1 -4 -20 17 -15
-18 8 65 3 -10 12 -33 7
-7 9 -3 15 2 5 -17 14
12 22 5 -28 8 1 -15 13
22 -45 -2 -20 1 12 25 -17
3 13 -2 -3 -2 -3 7 1
3 -13 -2 0 5 -13 3 -4
3 -16 -4 1 3 -1 -5 -8
-2 -8 12 -10 -13 13 -6 -3
00000000: 410e 0320 f90d 0fdb fe01 fd10 0afa 0ef5
00000010: e30c 1140 f02d f8f9 10e9 81f8 fbeb e6f5
00000020: f20e 25f1 f105 2ffc 031e cf07 dfb9 1dd1
00000030: fefb f7f8 5d17 fcfd 13f8 f30a f4fe 0808
00000040: d41e fbfb 20ee fe14 f804 01ff 0624 caf1
00000050: 11df 0ff9 fc2b 2bcd d5de fd1c 01f7 29db
00000060: 0ae1 f8ff 0504 0c10 2afd fc54 f610 20d0
00000070: 1315 350e fff7 e594 f0f7 0b1c 0245 02f7
00000080: 0404 d514 f5ff e309 f400 10fe fbf5 1402
00000090: 1336 d122 ea04 0113 f6ee 0402 f1fe 001a
000000a0: 04ff 0411 1e0c fbf4 e60a f61f fa11 d7ea
000000b0: f4e3 06f2 020b fdf6 0fe1 d2ff fcec 11f1
000000c0: ee08 4103 f60c df07 f909 fd0f 0205 ef0e
000000d0: 0c16 05e4 0801 f10d 16d3 feec 010c 19ef
000000e0: 030d fefd fefd 0701 03f3 fe00 05f3 03fc
000000f0: 03f0 fc01 03ff fbf8 fef8 0cf6 f30d fafd

tfl.pseudo_qconst12 i1 [26, 3, 3, 26]
2 -4 15 -1 -4 -8 6 -38
15 -6 -8 -7 -17 33 -31 -24
2 18 -29 5 46 5 -9 23
3 -7 36 11 30 15 25 -35
38 -31 14 10 -10 -1 -5 -22
-18 -1 15 26 -55 18 9 5
1 2 -7 -21 -7 3 10 -3
26 -8 2 -22 13 -6 -30 13
1 -8 17 -11 -2 -8 -33 -32
8 -3 3 3 24 -26 15 15
6 29 5 -8 -5 -13 28 -17
8 8 -19 9 17 -18 38 31
-60 18 55 -47 -13 11 -8 -4
4 29 -43 67 53 -29 127 18
50 -13 20 -24 6 15 -40 -27
24 40 -69 -47 21 -77 0 -54
56 -17 26 0 1 41 9 -31
34 41 26 6 -8 13 33 24
41 0 -3 15 -59 20 -20 9
-9 -16 -10 -29 -7 6 -13 23
-2 -15 -22 -4 13 5 -12 2
-11 36 -5 1 2 9 -49 1
11 -1 -1 -1 -1 -31 -12 4
49 46 20 -9 -57 -21 22 -4
17 30 -34 9 12 -20 -10 -7
-74 -5 9 35 -2 -34 27 -18
-1 -3 17 43 -6 -21 -28 10
2 -21 -7 1 -18 27 8 -25
-36 33 -31 -22 -12 33 -3 -42
37 -51 15 7 -10 -2 -36 -1
-12 17 -1 -5 -5 24 -19 -14
-2 1 13 -1 -1 -22 5 -14
00000000: 02fc 0fff fcf8 06da 0ffa f8f9 ef21 e1e8
00000010: 0212 e305 2e05 f717 03f9 240b 1e0f 19dd
00000020: 26e1 0e0a f6ff fbea eeff 0f1a c912 0905
00000030: 0102 f9eb f903 0afd 1af8 02ea 0dfa e20d
00000040: 01f8 11f5 fef8 dfe0 08fd 0303 18e6 0f0f
00000050: 061d 05f8 fbf3 1cef 0808 ed09 11ee 261f
00000060: c412 37d1 f30b f8fc 041d d543 35e3 7f12
00000070: 32f3 14e8 060f d8e5 1828 bbd1 15b3 00ca
00000080: 38ef 1a00 0129 09e1 2229 1a06 f80d 2118
00000090: 2900 fd0f c514 ec09 f7f0 f6e3 f906 f317
000000a0: fef1 eafc 0d05 f402 f524 fb01 0209 cf01
000000b0: 0bff ffff ffe1 f404 312e 14f7 c7eb 16fc
000000c0: 111e de09 0cec f6f9 b6fb 0923 fede 1bee
000000d0: fffd 112b faeb e40a 02eb f901 ee1b 08e7
000000e0: dc21 e1ea f421 fdd6 25cd 0f07 f6fe dcff
000000f0: f411 fffb fb18 edf2 fe01 0dff ffea 05f2

tfl.pseudo_qconst13 i1 [26, 3, 3, 26]
2 -15 -7 21 1 2 -6 10
6 -54 11 -8 7 5 -1 1
5 -3 5 14 -3 -6 3 -6
16 1 11 9 -4 3 -1 2
10 1 18 -127 0 -2 -2 1
-10 -15 -1 1 4 -5 2 19
-6 15 -8 -6 -3 12 -10 -14
-6 2 5 -1 -12 47 -14 -6
4 2 3 -6 -9 5 -3 7
-5 1 -2 10 0 6 -33 14
-13 4 -14 -13 12 -8 4 72
7 -3 17 1 4 -1 6 -2
2 -11 -18 -7 -3 7 0 29
-16 11 -59 -28 -23 -28 23 -41
-43 55 -9 -1 3 -6 11 -48
-44 9 -9 -17 -12 4 7 26
13 16 25 -7 -17 -9 2 -16
8 -22 -25 -45 -14 3 2 -4
-3 -35 -37 1 -5 -1 17 5
-5 30 -12 22 4 -8 -12 3
-3 -10 2 -13 5 47 -9 -19
-1 -4 1 -7 -10 10 -1 2
-4 -7 -5 5 19 18 -6 2
-16 10 -15 -31 17 -32 5 70
-13 -11 19 1 10 -16 -15 -3
6 7 10 0 -7 15 18 6
16 2 5 3 6 -8 -5 6
18 -58 0 0 -3 -7 6 -7
2 -3 -2 -29 3 10 8 5
-9 -16 -47 4 2 -11 2 -4
5 5 -15 -12 1 2 -1 -6
0 7 5 5 -11 5 -6 -2
00000000: 02f1 f915 0102 fa0a 06ca 0bf8 0705 ff01
00000010: 05fd 050e fdfa 03fa 1001 0b09 fc03 ff02
00000020: 0a01 1281 00fe fe01 f6f1 ff01 04fb 0213
00000030: fa0f f8fa fd0c f6f2 fa02 05ff f42f f2fa
00000040: 0402 03fa f705 fd07 fb01 fe0a 0006 df0e
00000050: f304 f2f3 0cf8 0448 07fd 1101 04ff 06fe
00000060: 02f5 eef9 fd07 001d f00b c5e4 e9e4 17d7
00000070: d537 f7ff 03fa 0bd0 d409 f7ef f404 071a
00000080: 0d10 19f9 eff7 02f0 08ea e7d3 f203 02fc
00000090: fddd db01 fbff 1105 fb1e f416 04f8 f403
000000a0: fdf6 02f3 052f f7ed fffc 01f9 f60a ff02
000000b0: fcf9 fb05 1312 fa02 f00a f1e1 11e0 0546
000000c0: f3f5 1301 0af0 f1fd 0607 0a00 f90f 1206
000000d0: 1002 0503 06f8 fb06 12c6 0000 fdf9 06f9
000000e0: 02fd fee3 030a 0805 f7f0 d104 02f5 02fc
000000f0: 0505 f1f4 0102 fffa 0007 0505 f505 fafe

tfl.pseudo_qconst14 i1 [26, 3, 3, 26]
4 -33 11 -14 50 5 13 -7
-11 -1 4 5 33 14 -32 -32
-12 2 -48 40 7 0 -6 -10
6 3 19 -28 5 -22 49 49
-71 -5 -31 14 13 24 18 -3
16 85 -10 -5 6 85 -23 16
-18 -34 9 7 -19 1 6 -28
78 12 29 -2 -16 32 23 25
32 2 5 -25 35 -25 35 98
-32 -23 -11 -8 -13 7 9 23
8 -1 2 1 -34 -2 2 16
21 -9 -35 -4 1 0 -19 8
21 26 -4 -7 10 0 -16 -14
93 12 -13 -29 85 9 127 4
-33 31 -55 -28 20 1 -4 -94
-23 -65 92 -10 66 -39 18 83
-29 -37 16 -22 -2 -9 -41 -12
-22 9 -38 22 18 -18 22 12
44 96 37 10 -104 22 -45 -28
12 60 -18 17 16 28 1 -33
-35 15 58 22 -21 38 16 28
38 -10 0 18 8 -9 -45 22
-27 -30 -5 0 -18 27 3 4
-11 -9 12 3 -36 6 5 28
-13 -12 7 11 28 46 36 2
39 35 3 0 10 19 9 4
-9 -20 3 -14 76 7 -11 -16
9 -15 17 10 12 -10 -11 -3
-12 -24 48 77 -5 -26 1 -13
-1 8 3 -3 -4 16 46 -7
-16 -11 11 6 -11 -28 -13 1
4 20 -7 4 -13 10 12 19
00000000: 04df 0bf2 3205 0df9 f5ff 0405 210e e0e0
00000010: f402 d028 0700 faf6 0603 13e4 05ea 3131
00000020: b9fb e10e 0d18 12fd 1055 f6fb 0655 e910
00000030: eede 0907 ed01 06e4 4e0c 1dfe f020 1719
00000040: 2002 05e7 23e7 2362 e0e9 f5f8 f307 0917
00000050: 08ff 0201 defe 0210 15f7 ddfc 0100 ed08
00000060: 151a fcf9 0a00 f0f2 5d0c f3e3 5509 7f04
00000070: df1f c9e4 1401 fca2 e9bf 5cf6 42d9 1253
00000080: e3db 10ea fef7 d7f4 ea09 da16 12ee 160c
00000090: 2c60 250a 9816 d3e4 0c3c ee11 101c 01df
000000a0: dd0f 3a16 eb26 101c 26f6 0012 08f7 d316
000000b0: e5e2 fb00 ee1b 0304 f5f7 0c03 dc06 051c
000000c0: f3f4 070b 1c2e 2402 2723 0300 0a13 0904
000000d0: f7ec 03f2 4c07 f5f0 09f1 110a 0cf6 f5fd
000000e0: f4e8 304d fbe6 01f3 ff08 03fd fc10 2ef9
000000f0: f0f5 0b06 f5e4 f301 0414 f904 f30a 0c13

tfl.pseudo_qconst15 i1 [26, 3, 3, 26]
13 -5 -1 0 -20 -6 8 -1
8 1 -2 7 1 4 0 -2
0 -1 0 -3 2 -2 -3 -1
-3 0 -1 -6 7 2 -2 2
2 -12 2 3 -1 -1 4 -2
-6 -2 -2 10 2 3 -4 -6
-7 -2 0 -2 1 1 -2 -2
-17 0 1 2 6 -4 -1 6
4 -1 -5 0 2 -1 3 -1
-1 3 -3 0 -2 -1 8 -10
13 -2 -8 8 4 1 5 3
3 11 2 -4 -6 0 18 17
1 6 5 -5 0 6 -7 0
34 31 -6 -4 127 -1 10 -12
-51 -12 -9 -2 -9 0 6 2
-5 21 12 18 42 -1 -6 13
-18 8 -21 -4 5 -3 -34 -3
-4 -5 17 10 -1 6 0 1
4 -1 8 10 -3 5 7 -2
9 4 3 2 5 -2 -3 -2
-25 -4 1 -7 9 12 0 0
4 3 2 -3 -3 -4 9 -4
4 -1 -1 -1 2 2 -2 2
-3 -2 2 0 10 -12 -2 11
-4 -5 5 -2 -3 -2 1 8
24 6 3 -2 -16 0 -1 8
10 -5 -9 -2 15 3 -1 0
-2 7 2 2 0 -1 4 0
10 0 7 3 -1 3 -3 1
4 0 22 -9 7 -7 -14 10
1 56 -1 -16 -16 2 -2 -9
-28 1 6 9 -8 13 8 -10
00000000: 0dfb ff00 ecfa 08ff 0801 fe07 0104 00fe
00000010: 00ff 00fd 02fe fdff fd00 fffa 0702 fe02
00000020: 02f4 0203 ffff 04fe fafe fe0a 0203 fcfa
00000030: f9fe 00fe 0101 fefe ef00 0102 06fc ff06
00000040: 04ff fb00 02ff 03ff ff03 fd00 feff 08f6
00000050: 0dfe f808 0401 0503 030b 02fc fa00 1211
00000060: 0106 05fb 0006 f900 221f fafc 7fff 0af4
00000070: cdf4 f7fe f700 0602 fb15 0c12 2aff fa0d
00000080: ee08 ebfc 05fd defd fcfb 110a ff06 0001
00000090: 04ff 080a fd05 07fe 0904 0302 05fe fdfe
000000a0: e7fc 01f9 090c 0000 0403 02fd fdfc 09fc
000000b0: 04ff ffff 0202 fe02 fdfe 0200 0af4 fe0b
000000c0: fcfb 05fe fdfe 0108 1806 03fe f000 ff08
000000d0: 0afb f7fe 0f03 ff00 fe07 0202 00ff 0400
000000e0: 0a00 0703 ff03 fd01 0400 16f7 07f9 f20a
000000f0: 0138 fff0 f002 fef7 e401 0609 f80d 08f6

tfl.pseudo_qconst16 i1 [26, 3, 3, 26]
-7 -8 -8 -16 0 9 2 2
-5 -9 8 2 31 -11 9 -40
18 55 1 -9 6 -4 9 -2
18 1 -6 24 54 -12 36 -5
1 -6 -4 -17 -17 12 16 11
-7 -50 -11 -6 -1 -15 1 -23
-94 3 42 0 0 6 -9 -7
11 12 3 1 1 7 15 -3
22 -2 0 -29 -15 4 4 -3
-2 -3 5 2 -6 2 -9 -3
27 -22 30 -34 -17 3 -4 -56
34 37 -127 -9 -25 56 25 -15
4 -17 -3 -3 44 0 82 17
-20 -10 -83 -28 -27 -41 -23 4
48 -29 26 13 120 -4 2 6
50 8 -3 -13 6 32 -2 -3
-87 -17 -6 4 18 -6 -16 -20
-5 -1 13 -4 7 -2 -3 0
13 66 35 -25 7 -3 -15 1
-6 -3 2 1 -5 6 -8 -8
21 -44 -4 -4 2 -9 55 -1
-8 -1 10 -36 13 21 3 -8
-10 -8 -1 1 0 12 -12 20
45 -9 -7 -41 -11 3 5 34
18 -3 -13 -5 0 69 -13 53
4 -5 -3 -1 30 -1 -11 4
-9 9 -17 -5 -3 -7 -2 2
4 -28 42 3 -2 2 12 -40
6 -3 8 -5 -6 -12 -77 2
-7 10 1 1 26 2 21 -13
4 0 -2 0 -1 6 -12 13
-10 -30 6 15 -5 1 -1 -7
00000000: f9f8 f8f0 0009 0202 fbf7 0802 1ff5 09d8
00000010: 1237 01f7 06fc 09fe 1201 fa18 36f4 24fb
00000020: 01fa fcef ef0c 100b f9ce f5fa fff1 01e9
00000030: a203 2a00 0006 f7f9 0b0c 0301 0107 0ffd
00000040: 16fe 00e3 f104 04fd fefd 0502 fa02 f7fd
00000050: 1bea 1ede ef03 fcc8 2225 81f7 e738 19f1
00000060: 04ef fdfd 2c00 5211 ecf6 ade4 e5d7 e904
00000070: 30e3 1a0d 78fc 0206 3208 fdf3 0620 fefd
00000080: a9ef fa04 12fa f0ec fbff 0dfc 07fe fd00
00000090: 0d42 23e7 07fd f101 fafd 0201 fb06 f8f8
000000a0: 15d4 fcfc 02f7 37ff f8ff 0adc 0d15 03f8
000000b0: f6f8 ff01 000c f414 2df7 f9d7 f503 0522
000000c0: 12fd f3fb 0045 f335 04fb fdff 1eff f504
000000d0: f709 effb fdf9 fe02 04e4 2a03 fe02 0cd8
000000e0: 06fd 08fb faf4 b302 f90a 0101 1a02 15f3
000000f0: 0400 fe00 ff06 f40d f6e2 060f fb01 fff9

tfl.pseudo_qconst17 i1 [26, 3, 3, 26]
-1 -1 1 6 5 -1 -4 0
-7 -2 -3 11 14 6 0 -1
3 1 -2 6 -20 6 -2 -8
8 1 -3 1 -1 -3 -2 0
4 1 4 -2 3 3 15 8
0 -1 0 2 -1 -1 14 4
2 10 -13 -1 -1 2 1 2
-1 -2 0 0 6 -4 -2 4
5 1 2 2 -1 3 -8 -7
1 0 -1 -3 -1 -2 -15 2
2 -11 -34 -8 5 6 27 17
-30 -127 18 45 -6 1 -2 2
-16 103 44 49 4 12 3 7
12 2 -4 5 22 12 10 1
-14 -22 31 3 -127 -36 -1 1
6 -7 -1 -37 -53 -96 -2 -14
-9 5 4 -1 -2 -8 5 1
0 0 -1 -6 5 -2 -62 -9
-3 -2 0 -1 -2 4 8 -14
1 2 -8 4 -2 1 3 -5
-9 -3 2 -6 -4 8 -5 3
4 -3 -4 2 4 3 -12 3
26 8 -4 22 -1 4 4 1
-3 -3 3 1 -2 1 0 -7
5 0 4 7 -1 -1 1 -3
-4 -3 -29 10 1 -25 5 2
-1 2 1 0 9 -2 0 -1
2 -3 -3 3 -2 0 -1 0
1 4 0 -8 3 6 0 1
5 3 -2 0 0 5 9 1
1 -3 -3 -10 -1 1 -3 -8
0 0 -1 2 -1 17 3 -5
00000000: ffff 0106 05ff fc00 f9fe fd0b 0e06 00ff
00000010: 0301 fe06 ec06 fef8 0801 fd01 fffd fe00
00000020: 0401 04fe 0303 0f08 00ff 0002 ffff 0e04
00000030: 020a f3ff ff02 0102 fffe 0000 06fc fe04
00000040: 0501 0202 ff03 f8f9 0100 fffd fffe f102
00000050: 02f5 def8 0506 1b11 e281 122d fa01 fe02
00000060: f067 2c31 040c 0307 0c02 fc05 160c 0a01
00000070: f2ea 1f03 81dc ff01 06f9 ffdb cba0 fef2
00000080: f705 04ff fef8 0501 0000 fffa 05fe c2f7
00000090: fdfe 00ff fe04 08f2 0102 f804 fe01 03fb
000000a0: f7fd 02fa fc08 fb03 04fd fc02 0403 f403
000000b0: 1a08 fc16 ff04 0401 fdfd 0301 fe01 00f9
000000c0: 0500 0407 ffff 01fd fcfd e30a 01e7 0502
000000d0: ff02 0100 09fe 00ff 02fd fd03 fe00 ff00
000000e0: 0104 00f8 0306 0001 0503 fe00 0005 0901
000000f0: 01fd fdf6 ff01 fdf8 0000 ff02 ff11 03fb

tfl.pseudo_qconst18 i1 [26, 3, 3, 26]
0 0 0 -1 1 -2 1 0
0 0 17 -1 0 0 3 0
0 1 2 -3 0 0 0 1
-3 -5 0 -1 -9 1 0 -1
-1 6 0 -1 13 -1 0 -7
0 0 0 -1 0 3 0 0
1 -6 -3 -5 0 0 -3 1
0 1 0 5 0 0 4 1
-1 -1 1 0 -1 0 0 -5
0 0 0 10 -7 -6 1 0
-15 1 0 -1 3 5 0 1
7 1 0 -11 1 0 0 -1
-4 -1 0 0 0 4 -1 9
0 1 -8 -19 1 10 -18 127
-1 1 9 0 -2 -34 0 3
-1 1 18 -2 0 0 -2 -10
-12 -10 1 0 -9 1 0 0
-2 3 0 1 7 1 0 12
-1 -1 0 0 -6 3 0 0
0 -4 -1 -1 0 0 7 -1
1 1 -1 -2 0 0 -3 0
0 -6 0 0 0 0 1 -1
0 0 0 -1 2 2 1 -1
2 1 0 1 0 5 0 -1
0 -3 -3 15 0 -1 1 0
0 4 0 0 0 -3 0 4
0 0 -5 0 -1 -1 -1 -3
0 0 -5 0 -1 3 0 0
0 0 -10 3 0 0 0 0
-1 -2 1 2 -23 -2 0 0
4 4 0 0 2 -3 -1 1
-2 2 2 3 -10 2 0 -2
00000000: 0000 00ff 01fe 0100 0000 11ff 0000 0300
00000010: 0001 02fd 0000 0001 fdfb 00ff f701 00ff
00000020: ff06 00ff 0dff 00f9 0000 00ff 0003 0000
00000030: 01fa fdfb 0000 fd01 0001 0005 0000 0401
00000040: ffff 0100 ff00 00fb 0000 000a f9fa 0100
00000050: f101 00ff 0305 0001 0701 00f5 0100 00ff
00000060: fcff 0000 0004 ff09 0001 f8ed 010a ee7f
00000070: ff01 0900 fede 0003 ff01 12fe 0000 fef6
00000080: f4f6 0100 f701 0000 fe03 0001 0701 000c
00000090: ffff 0000 fa03 0000 00fc ffff 0000 07ff
000000a0: 0101 fffe 0000 fd00 00fa 0000 0000 01ff
000000b0: 0000 00ff 0202 01ff 0201 0001 0005 00ff
000000c0: 00fd fd0f 00ff 0100 0004 0000 00fd 0004
000000d0: 0000 fb00 ffff fffd 0000 fb00 ff03 0000
000000e0: 0000 f603 0000 0000 fffe 0102 e9fe 0000
000000f0: 0404 0000 02fd ff01 fe02 0203 f602 00fe
