app/src/main/assets/models/DSCF_384x384x1_int8.tflite (tflite, 167728 bytes, 22 tensors)

tfl.pseudo_qconst1 i1 [48, 3, 3, 26]
000000 13 12 f6 0d 04 f5 da 06 fe e1 03 fb ed 12 12 05
       19 18 -10 13 4 -11 -38 6 -2 -31 3 -5 -19 18 18 5
000010 16 2b 02 f1 16 fd f1 f1 05 eb 05 e8 fe f7 01 f1
       22 43 2 -15 22 -3 -15 -15 5 -21 5 -24 -2 -9 1 -15
000020 cc e8 06 ec 14 0d fa 1f 2e ee e4 27 12 1c f8 19
       -52 -24 6 -20 20 13 -6 31 46 -18 -28 39 18 28 -8 25
000030 16 fd 09 0b 10 03 fb 06 fc 01 00 07 fb fc fc f9
       22 -3 9 11 16 3 -5 6 -4 1 0 7 -5 -4 -4 -7
000040 02 00 fd 03 09 09 fe f7 04 02 f5 00 fd fc fb 0f
       2 0 -3 3 9 9 -2 -9 4 2 -11 0 -3 -4 -5 15
000050 0e fe 09 f2 cf 1b 1e 11 f3 0c f8 0f e3 eb 1e 2b
       14 -2 9 -14 -49 27 30 17 -13 12 -8 15 -29 -21 30 43
000060 f2 1d 08 19 10 0d f4 ff f9 e4 28 33 e4 d8 b0 36
       -14 29 8 25 16 13 -12 -1 -7 -28 40 51 -28 -40 -80 54
000070 ec ed f6 1d 11 05 cc f7 be 7f 0c c3 fa 03 1c 07
       -20 -19 -10 29 17 5 -52 -9 -66 127 12 -61 -6 3 28 7
000080 52 0e 04 0b e1 f4 04 0f f0 fe 0c 03 01 fb 08 0f
       82 14 4 11 -31 -12 4 15 -16 -2 12 3 1 -5 8 15
000090 fb e9 14 fb 03 0a 03 fa f0 fe f1 ff 05 fc f9 00
       -5 -23 20 -5 3 10 3 -6 -16 -2 -15 -1 5 -4 -7 0
0000a0 fa 01 fc fa fe ff 00 fb 01 03 05 03 ff fc 01 fd
       -6 1 -4 -6 -2 -1 0 -5 1 3 5 3 -1 -4 1 -3
0000b0 05 fe f8 fa ff ff f5 07 e1 f4 ff 08 f1 fc 08 fc
       5 -2 -8 -6 -1 -1 -11 7 -31 -12 -1 8 -15 -4 8 -4
0000c0 fe f2 09 0b 11 fc fe f4 fb 03 fc fe f3 06 f8 03
       -2 -14 9 11 17 -4 -2 -12 -5 3 -4 -2 -13 6 -8 3
0000d0 01 fd 05 00 02 ff 05 ff ff 00 01 01 fe fe 00 05
       1 -3 5 0 2 -1 5 -1 -1 0 1 1 -2 -2 0 5
0000e0 01 fc 00 00 03 ff 02 00 ff fe 04 00 ea 01 04 02
       1 -4 0 0 3 -1 2 0 -1 -2 4 0 -22 1 4 2
0000f0 eb fd 00 f9 fd 02 02 03 fe ff fe 19 fb f7 04 03
       -21 -3 0 -7 -3 2 2 3 -2 -1 -2 25 -5 -9 4 3

tfl.pseudo_qconst3 i1 [26, 1, 1, 104]
000000 00 05 01 04 0b 00 fe 0a fb fd 00 01 fe 01 f2 00
       0 5 1 4 11 0 -2 10 -5 -3 0 1 -2 1 -14 0
000010 ff 01 02 02 00 ff 02 fb 03 04 e5 ed ed 15 f4 fe
       -1 1 2 2 0 -1 2 -5 3 4 -27 -19 -19 21 -12 -2
000020 fb 00 cc fa 18 26 20 f7 06 f7 f1 13 f8 23 c2 0c
       -5 0 -52 -6 24 38 32 -9 6 -9 -15 19 -8 35 -62 12
000030 c3 15 2b 01 02 19 01 ff 04 06 ff 01 01 fe 00 00
       -61 21 43 1 2 25 1 -1 4 6 -1 1 1 -2 0 0
000040 f9 fc 81 01 fc b5 00 18 05 fe ff 1d e6 eb 01 f6
       -7 -4 -127 1 -4 -75 0 24 5 -2 -1 29 -26 -21 1 -10
000050 06 e6 05 ee 0e 04 03 02 f4 c2 07 07 03 ff 2f fa
       6 -26 5 -18 14 4 3 2 -12 -62 7 7 3 -1 47 -6
000060 4b f9 09 f8 f8 a5 08 0b 00 03 ff ff ff ff 01 04
       75 -7 9 -8 -8 -91 8 11 0 3 -1 -1 -1 -1 1 4
000070 fb 00 00 ff 02 02 fb ff 02 fe 03 00 ff 02 02 04
       -5 0 0 -1 2 2 -5 -1 2 -2 3 0 -1 2 2 4
000080 fc 05 16 00 f4 f9 0b f8 12 ff 18 03 00 ff 0b e8
       -4 5 22 0 -12 -7 11 -8 18 -1 24 3 0 -1 11 -24
000090 02 06 d2 e5 06 20 e3 1b f4 d6 1a 1c 01 08 00 ff
       2 6 -46 -27 6 32 -29 27 -12 -42 26 28 1 8 0 -1
0000a0 01 02 01 00 01 fd 00 00 00 03 d4 00 09 42 07 e5
       1 2 1 0 1 -3 0 0 0 3 -44 0 9 66 7 -27
0000b0 fc 24 ff b8 24 d6 fa e9 3f 08 1b fb 04 00 ca 05
       -4 36 -1 -72 36 -42 -6 -23 63 8 27 -5 4 0 -54 5
0000c0 02 38 03 f6 fa 04 25 07 81 43 18 ee 00 03 f8 f7
       2 56 3 -10 -6 4 37 7 -127 67 24 -18 0 3 -8 -9
0000d0 00 df 19 fc 01 01 fe 19 02 ff fc fe 02 01 fc 01
       0 -33 25 -4 1 1 -2 25 2 -1 -4 -2 2 1 -4 1
0000e0 fc ff 00 ff fb 02 fc 01 02 04 fc 12 fe dc 08 fc
       -4 -1 0 -1 -5 2 -4 1 2 4 -4 18 -2 -36 8 -4
0000f0 cd ef 14 f2 04 f6 17 ec e3 fc b4 f2 d4 2c 01 a4
       -51 -17 20 -14 4 -10 23 -20 -29 -4 -76 -14 -44 44 1 -92

tfl.pseudo_qconst5 i1 [26, 3, 3, 26]
000000 00 00 01 f4 00 12 04 08 fd fe 00 ff 00 f4 04 ef
       0 0 1 -12 0 18 4 8 -3 -2 0 -1 0 -12 4 -17
000010 fe 05 ff 00 01 ff 02 01 06 fa 02 13 1a 0b 02 fb
       -2 5 -1 0 1 -1 2 1 6 -6 2 19 26 11 2 -5
000020 ed bf 04 35 fc fc 0b 14 1b 10 06 f2 e1 f2 00 04
       -19 -65 4 53 -4 -4 11 20 27 16 6 -14 -31 -14 0 4
000030 fb f7 f1 08 fa 05 07 00 fc fa f3 fa 02 02 fe 04
       -5 -9 -15 8 -6 5 7 0 -4 -6 -13 -6 2 2 -2 4
000040 ff 04 ff 02 07 04 ff 02 01 0a ff fc fb 09 04 fd
       -1 4 -1 2 7 4 -1 2 1 10 -1 -4 -5 9 4 -3
000050 ec fe fe 1b 05 0d ff fe 02 0f 03 e9 01 c9 fe fb
       -20 -2 -2 27 5 13 -1 -2 2 15 3 -23 1 -55 -2 -5
000060 00 06 05 eb 1c 12 02 e7 2f 31 e7 45 ee d2 aa e6
       0 6 5 -21 28 18 2 -25 47 49 -25 69 -18 -46 -86 -26
000070 1c 15 0b 18 0a 35 52 0a 19 ec 81 fb ef ed 07 03
       28 21 11 24 10 53 82 10 25 -20 -127 -5 -17 -19 7 3
000080 de 17 13 ef fb 19 01 f5 0d fa ee 0b 00 0c 07 04
       -34 23 19 -17 -5 25 1 -11 13 -6 -18 11 0 12 7 4
000090 df 07 f7 ff 3c f7 00 ec f1 05 f1 08 03 04 fe 01
       -33 7 -9 -1 60 -9 0 -20 -15 5 -15 8 3 4 -2 1
0000a0 01 17 fe 01 05 01 ff f6 fd 03 f6 03 01 fb 06 01
       1 23 -2 1 5 1 -1 -10 -3 3 -10 3 1 -5 6 1
0000b0 01 fa f7 03 ff 05 f2 d9 00 00 ff ec fb 01 13 ff
       1 -6 -9 3 -1 5 -14 -39 0 0 -1 -20 -5 1 19 -1
0000c0 f7 19 01 09 fa f6 0c f6 f1 07 01 ff 0d 10 01 0d
       -9 25 1 9 -6 -10 12 -10 -15 7 1 -1 13 16 1 13
0000d0 05 06 00 00 fe fe 05 fe 01 02 ff 00 03 fe fd fe
       5 6 0 0 -2 -2 5 -2 1 2 -1 0 3 -2 -3 -2
0000e0 00 02 00 01 00 02 04 fa 01 f5 fe fc 03 00 00 fe
       0 2 0 1 0 2 4 -6 1 -11 -2 -4 3 0 0 -2
0000f0 fc fc fd 05 fe 0c 05 06 01 ec 01 f3 ff 02 00 07
       -4 -4 -3 5 -2 12 5 6 1 -20 1 -13 -1 2 0 7

tfl.pseudo_qconst7 i1 [26, 3, 3, 26]
000000 fb 05 0b 09 03 fb fa 04 04 ff ff 02 06 06 07 07
       -5 5 11 9 3 -5 -6 4 4 -1 -1 2 6 6 7 7
000010 00 01 fb 08 ff fd 05 f7 f4 03 fa 04 3e fe 02 00
       0 1 -5 8 -1 -3 5 -9 -12 3 -6 4 62 -2 2 0
000020 f9 02 05 eb 02 ee 0b 12 2a fb 08 00 f3 f5 08 04
       -7 2 5 -21 2 -18 11 18 42 -5 8 0 -13 -11 8 4
000030 0b eb d3 08 fe 02 05 ff fe fd f7 02 01 01 fc 09
       11 -21 -45 8 -2 2 5 -1 -2 -3 -9 2 1 1 -4 9
000040 04 04 09 fb fc 0a fd f3 02 03 05 06 ff 00 eb fc
       4 4 9 -5 -4 10 -3 -13 2 3 5 6 -1 0 -21 -4
000050 e9 fa 02 08 04 f6 02 00 01 02 15 10 e1 04 02 f1
       -23 -6 2 8 4 -10 2 0 1 2 21 16 -31 4 2 -15
000060 f9 03 fc fd fb ec 07 06 0d fe 82 fa ee 12 ed 12
       -7 3 -4 -3 -5 -20 7 6 13 -2 -126 -6 -18 18 -19 18
000070 e5 08 31 f0 40 0e 81 18 f9 f0 74 00 ec de 09 b6
       -27 8 49 -16 64 14 -127 24 -7 -16 116 0 -20 -34 9 -74
000080 27 02 06 06 fb fd fe 02 11 f5 04 e8 f9 00 0c 05
       39 2 6 6 -5 -3 -2 2 17 -11 4 -24 -7 0 12 5
000090 ff 0b fb f4 1a 0b 10 f0 f2 08 05 fe 07 ff e6 fe
       -1 11 -5 -12 26 11 16 -16 -14 8 5 -2 7 -1 -26 -2
0000a0 03 f9 fe 02 0b f2 ff 01 02 03 22 f9 05 fe 00 08
       3 -7 -2 2 11 -14 -1 1 2 3 34 -7 5 -2 0 8
0000b0 03 fd fa 03 05 ff fb f2 fb ff 10 f8 ff ee 0e 08
       3 -3 -6 3 5 -1 -5 -14 -5 -1 16 -8 -1 -18 14 8
0000c0 07 02 01 ff 1b f3 07 fb 12 06 fe 00 00 02 09 f2
       7 2 1 -1 27 -13 7 -5 18 6 -2 0 0 2 9 -14
0000d0 fc ff ed 03 fb ff 00 02 04 03 fa 00 fd 02 05 f4
       -4 -1 -19 3 -5 -1 0 2 4 3 -6 0 -3 2 5 -12
0000e0 08 fc 00 03 fe 0f 00 f8 02 ff 03 fe 02 16 fe f6
       8 -4 0 3 -2 15 0 -8 2 -1 3 -2 2 22 -2 -10
0000f0 05 04 fe fd 02 fc fe 04 02 fc fd ed f9 f6 fa 06
       5 4 -2 -3 2 -4 -2 4 2 -4 -3 -19 -7 -10 -6 6

tfl.pseudo_qconst9 i1 [26, 3, 3, 26]
000000 fe 03 00 02 ff 00 01 ff ff ff 00 fc fb 02 01 00
       -2 3 0 2 -1 0 1 -1 -1 -1 0 -4 -5 2 1 0
000010 02 03 ff 02 fc 00 04 15 00 fc 15 f7 03 fd fe 00
       2 3 -1 2 -4 0 4 21 0 -4 21 -9 3 -3 -2 0
000020 ee fd 00 06 06 fd 05 03 fd 0d fc 0a 00 08 f7 ff
       -18 -3 0 6 6 -3 5 3 -3 13 -4 10 0 8 -9 -1
000030 f4 fd fe 1f 05 00 03 ff 00 ff 01 fd 00 fd ff 05
       -12 -3 -2 31 5 0 3 -1 0 -1 1 -3 0 -3 -1 5
000040 05 fe 02 f5 00 00 00 01 01 fd fe f0 02 08 f7 fa
       5 -2 2 -11 0 0 0 1 1 -3 -2 -16 2 8 -9 -6
000050 02 00 fe ff fd 05 ff fc 01 03 03 03 05 00 02 04
       2 0 -2 -1 -3 5 -1 -4 1 3 3 3 5 0 2 4
000060 ff fd 04 0b 00 f3 02 f7 06 f5 f9 f8 ff fc e8 03
       -1 -3 4 11 0 -13 2 -9 6 -11 -7 -8 -1 -4 -24 3
000070 03 10 f8 17 09 13 ce 04 ff 07 00 ed f9 0e f9 15
       3 16 -8 23 9 19 -50 4 -1 7 0 -19 -7 14 -7 21
000080 04 7f 0a fe ff 02 02 02 fe fb fd ff 05 ff fc fd
       4 127 10 -2 -1 2 2 2 -2 -5 -3 -1 5 -1 -4 -3
000090 f2 ef 06 09 00 fe ff 00 00 0d fc e8 02 01 00 00
       -14 -17 6 9 0 -2 -1 0 0 13 -4 -24 2 1 0 0
0000a0 01 00 02 01 01 00 02 fd 00 01 ff 02 02 ff 00 00
       1 0 2 1 1 0 2 -3 0 1 -1 2 2 -1 0 0
0000b0 fd fe 00 fa fd 0a 01 00 02 05 00 01 00 fb ff fc
       -3 -2 0 -6 -3 10 1 0 2 5 0 1 0 -5 -1 -4
0000c0 00 ff fc f9 06 05 01 02 00 05 01 00 03 e5 00 14
       0 -1 -4 -7 6 5 1 2 0 5 1 0 3 -27 0 20
0000d0 00 02 03 02 00 02 00 02 00 fa 02 fb 01 fd 06 fe
       0 2 3 2 0 2 0 2 0 -6 2 -5 1 -3 6 -2
0000e0 01 05 fd 07 ff fe 03 fd 00 0b f2 02 09 ed 01 fb
       1 5 -3 7 -1 -2 3 -3 0 11 -14 2 9 -19 1 -5
0000f0 f5 03 02 05 02 07 12 fb fe fd fd fa 06 01 03 ee
       -11 3 2 5 2 7 18 -5 -2 -3 -3 -6 6 1 3 -18

tfl.pseudo_qconst11 i1 [26, 3, 3, 26]
000000 fa fb fc 14 17 fa 07 0f 00 fc 04 0b fc 09 03 06
       -6 -5 -4 20 23 -6 7 15 0 -4 4 11 -4 9 3 6
000010 f4 0b 00 f8 00 05 13 fb fe df fc 40 e7 f6 f8 f3
       -12 11 0 -8 0 5 19 -5 -2 -33 -4 64 -25 -10 -8 -13
000020 f5 2c 04 ee 13 fe 34 2d 00 19 e4 fe 08 e5 0c af
       -11 44 4 -18 19 -2 52 45 0 25 -28 -2 8 -27 12 -81
000030 7f f0 eb e7 fb fb f5 08 07 08 00 1b 0b 0d 02 0e
       127 -16 -21 -25 -5 -5 -11 8 7 8 0 27 11 13 2 14
000040 03 11 f0 13 f7 0a ec f4 00 d9 f0 f8 1a 23 04 59
       3 17 -16 19 -9 10 -20 -12 0 -39 -16 -8 26 35 4 89
000050 ec fb 03 10 f3 d4 fa 07 2e ea 0b f3 f3 ef ec 12
       -20 -5 3 16 -13 -44 -6 7 46 -22 11 -13 -13 -17 -20 18
000060 0e f6 04 eb 03 25 ea fa cd 84 a9 29 ef 3c b8 9f
       14 -10 4 -21 3 37 -22 -6 -51 -124 -87 41 -17 60 -72 -97
000070 fb ee 33 eb 3d 14 e2 f5 0f 3c 27 2e 0d 27 01 57
       -5 -18 51 -21 61 20 -30 -11 15 60 39 46 13 39 1 87
000080 fa 19 eb d9 04 fb 12 e6 00 d0 13 fb 0d 09 02 fb
       -6 25 -21 -39 4 -5 18 -26 0 -48 19 -5 13 9 2 -5
000090 05 db f3 0e 25 0a 01 de d2 0f f2 16 05 fe 03 04
       5 -37 -13 14 37 10 1 -34 -46 15 -14 22 5 -2 3 4
0000a0 ff fc 07 0d 07 fb 02 f3 f9 ff 00 f9 f3 fe f7 01
       -1 -4 7 13 7 -5 2 -13 -7 -1 0 -7 -13 -2 -9 1
0000b0 fd ef 25 12 fa f4 f1 03 19 f0 f8 f6 0a 0b fb 03
       -3 -17 37 18 -6 -12 -15 3 25 -16 -8 -10 10 11 -5 3
0000c0 ee fa f1 fc 03 f5 0d 00 fb fd fb f2 f3 09 f9 0a
       -18 -6 -15 -4 3 -11 13 0 -5 -3 -5 -14 -13 9 -7 10
0000d0 01 0d fe fb 03 f9 09 0e fb fb ea fb f8 05 03 f9
       1 13 -2 -5 3 -7 9 14 -5 -5 -22 -5 -8 5 3 -7
0000e0 05 fe f9 07 f9 01 20 05 03 f0 02 03 03 02 06 00
       5 -2 -7 7 -7 1 32 5 3 -16 2 3 3 2 6 0
0000f0 ff 05 03 0b fd 0b 03 0c ff 09 f9 04 fe 01 fb fc
       -1 5 3 11 -3 11 3 12 -1 9 -7 4 -2 1 -5 -4

tfl.pseudo_qconst13 i1 [26, 3, 3, 26]
000000 35 f1 1a 13 f3 03 0a 03 0c ff fe ef 0e e5 fb 01
       53 -15 26 19 -13 3 10 3 12 -1 -2 -17 14 -27 -5 1
000010 09 32 ff be f8 f0 04 06 e5 fa 2f 22 09 e3 fc 0a
       9 50 -1 -66 -8 -16 4 6 -27 -6 47 34 9 -29 -4 10
000020 15 03 f4 11 0a b0 3c cc 02 fb b5 32 41 e4 02 e3
       21 3 -12 17 10 -80 60 -52 2 -5 -75 50 65 -28 2 -29
000030 e5 10 0d d1 fd 18 ff fa fc fa e9 fd fa 05 e8 e0
       -27 16 13 -47 -3 24 -1 -6 -4 -6 -23 -3 -6 5 -24 -32
000040 fa 02 0b 05 0e ef 12 1a f9 ff 0a 0a 00 0b 0d 26
       -6 2 11 5 14 -17 18 26 -7 -1 10 10 0 11 13 38
000050 cf 12 0b f6 dd 0f e6 13 ea ef 1a 6d 02 0e d1 f6
       -49 18 11 -10 -35 15 -26 19 -22 -17 26 109 2 14 -47 -10
000060 1c fa 08 f1 fc 0e 16 f8 25 9f de 04 ef 22 c1 e7
       28 -6 8 -15 -4 14 22 -8 37 -97 -34 4 -17 34 -63 -25
000070 18 11 0e f7 d6 7f fa 14 41 f9 49 0c 18 bc de 32
       24 17 14 -9 -42 127 -6 20 65 -7 73 12 24 -68 -34 50
000080 eb 17 e7 1d 0e ce f4 f7 02 f7 f7 05 ee 07 e2 d7
       -21 23 -25 29 14 -50 -12 -9 2 -9 -9 5 -18 7 -30 -41
000090 10 f9 1e 0a 0c e4 05 e0 0a 0b f6 db f8 08 e4 e8
       16 -7 30 10 12 -28 5 -32 10 11 -10 -37 -8 8 -28 -24
0000a0 f3 02 ea fb 00 ff 06 00 f4 f2 fe 0a 16 13 04 ea
       -13 2 -22 -5 0 -1 6 0 -12 -14 -2 10 22 19 4 -22
0000b0 f9 f8 0f 05 fb e2 15 15 f6 f6 f0 fe c1 ff f2 fa
       -7 -8 15 5 -5 -30 21 21 -10 -10 -16 -2 -63 -1 -14 -6
0000c0 07 10 fe fe 00 04 17 18 e9 d7 e4 ff 40 14 e5 f9
       7 16 -2 -2 0 4 23 24 -23 -41 -28 -1 64 20 -27 -7
0000d0 0d fd fd 19 fa 04 02 fe ff 09 06 08 08 0f fd 05
       13 -3 -3 25 -6 4 2 -2 -1 9 6 8 8 15 -3 5
0000e0 00 01 fc e6 fc 03 0a 06 0d f4 d3 01 01 fb f1 f1
       0 1 -4 -26 -4 3 10 6 13 -12 -45 1 1 -5 -15 -15
0000f0 f4 08 0c 04 ed f9 07 28 0c 0b 08 f1 f4 0d 0c 06
       -12 8 12 4 -19 -7 7 40 12 11 8 -15 -12 13 12 6

tfl.pseudo_qconst15 i1 [26, 3, 3, 26]
000000 00 fb 0d fa f4 06 02 ea fc 09 fe f5 02 ff 06 fc
       0 -5 13 -6 -12 6 2 -22 -4 9 -2 -11 2 -1 6 -4
000010 f6 f2 f2 f3 f5 21 05 14 0a ff f9 e9 07 ef 24 e3
       -10 -14 -14 -13 -11 33 5 20 10 -1 -7 -23 7 -17 36 -29
000020 fd c6 0c ed 0d 1f 12 0b 07 0f 30 12 3e 13 2e b7
       -3 -58 12 -19 13 31 18 11 7 15 48 18 62 19 46 -73
000030 ee db ee f7 fb 06 00 f4 07 07 01 e4 f8 00 fd f2
       -18 -37 -18 -9 -5 6 0 -12 7 7 1 -28 -8 0 -3 -14
000040 fa 03 05 ff f6 04 f8 08 fb 08 01 f7 07 f9 00 fc
       -6 3 5 -1 -10 4 -8 8 -5 8 1 -9 7 -7 0 -4
000050 05 02 ef f6 00 e5 05 fc 03 f6 f4 07 f3 fe 00 0a
       5 2 -17 -10 0 -27 5 -4 3 -10 -12 7 -13 -2 0 10
000060 08 fc 12 e4 0b fb 03 f7 00 3f 0a 2a 1a 1d 23 40
       8 -4 18 -28 11 -5 3 -9 0 63 10 42 26 29 35 64
000070 e5 f3 0f f1 01 e0 0b ef eb 21 90 d3 e3 7f 2c d3
       -27 -13 15 -15 1 -32 11 -17 -21 33 -112 -45 -29 127 44 -45
000080 ed 15 fa f6 fe 1d 00 fe 08 29 fc f4 fd fa fc fb
       -19 21 -6 -10 -2 29 0 -2 8 41 -4 -12 -3 -6 -4 -5
000090 01 00 0a 02 0b 07 19 f4 05 03 e9 0b fe f7 f7 0a
       1 0 10 2 11 7 25 -12 5 3 -23 11 -2 -9 -9 10
0000a0 15 fe fc 07 f5 ec fc 0b 08 eb 10 02 1c 0b 0b 11
       21 -2 -4 7 -11 -20 -4 11 8 -21 16 2 28 11 11 17
0000b0 f1 fd 09 f5 f6 fa 03 f7 01 2a e0 fe f7 dd 01 04
       -15 -3 9 -11 -10 -6 3 -9 1 42 -32 -2 -9 -35 1 4
0000c0 07 fe f6 e7 f5 f5 e9 15 33 ea fe 95 0e e1 03 ee
       7 -2 -10 -25 -11 -11 -23 21 51 -22 -2 -107 14 -31 3 -18
0000d0 fd 09 00 0c f5 e7 05 df f7 d5 07 14 05 06 09 f5
       -3 9 0 12 -11 -25 5 -33 -9 -43 7 20 5 6 9 -11
0000e0 1b ec 03 19 ef f9 fa 16 08 e4 00 fc 13 f7 e0 f4
       27 -20 3 25 -17 -7 -6 22 8 -28 0 -4 19 -9 -32 -12
0000f0 f8 03 02 05 18 03 f8 21 04 fe e6 ed 10 0a 11 e3
       -8 3 2 5 24 3 -8 33 4 -2 -26 -19 16 10 17 -29

tfl.pseudo_qconst17 i1 [26, 3, 3, 26]
000000 ef f5 06 13 ee f5 09 ee eb e2 04 0a e3 e7 df c6
       -17 -11 6 19 -18 -11 9 -18 -21 -30 4 10 -29 -25 -33 -58
000010 dc cc fd d3 00 f1 32 08 f0 11 02 14 0a 0a e4 00
       -36 -52 -3 -45 0 -15 50 8 -16 17 2 20 10 10 -28 0
000020 10 01 ed fb e3 c1 d9 e4 df 02 ff dc 37 de 0c 10
       16 1 -19 -5 -29 -63 -39 -28 -33 2 -1 -36 55 -34 12 16
000030 e3 fc 07 08 f8 23 10 c5 d3 fb fa 1d e5 bb e7 d5
       -29 -4 7 8 -8 35 16 -59 -45 -5 -6 29 -27 -69 -25 -43
000040 f4 05 08 00 dc e1 f9 f5 0a fc e3 fc f4 12 f7 fa
       -12 5 8 0 -36 -31 -7 -11 10 -4 -29 -4 -12 18 -9 -6
000050 07 0f eb 01 eb 00 e4 c7 c5 30 04 18 c8 34 08 e9
       7 15 -21 1 -21 0 -28 -57 -59 48 4 24 -56 52 8 -23
000060 0a f7 16 d6 fc fa 0a f5 f5 04 f3 15 eb 20 06 81
       10 -9 22 -42 -4 -6 10 -11 -11 4 -13 21 -21 32 6 -127
000070 d9 ea 4e 21 f4 f2 ef 04 08 f1 1e ed 26 f3 35 ca
       -39 -22 78 33 -12 -14 -17 4 8 -15 30 -19 38 -13 53 -54
000080 d0 c3 e2 d4 01 c0 dd 1a 08 f8 e3 eb e6 2e 05 fc
       -48 -61 -30 -44 1 -64 -35 26 8 -8 -29 -21 -26 46 5 -4
000090 c6 4e e9 f1 1f dc 17 f2 b8 00 f9 e0 06 1a 09 00
       -58 78 -23 -15 31 -36 23 -14 -72 0 -7 -32 6 26 9 0
0000a0 e1 02 00 e5 df 1f e4 11 ee 00 e9 da c1 da f6 e2
       -31 2 0 -27 -33 31 -28 17 -18 0 -23 -38 -63 -38 -10 -30
0000b0 fe cd 14 0a f5 f1 13 19 04 fc f9 f6 01 1f fc f4
       -2 -51 20 10 -11 -15 19 25 4 -4 -7 -10 1 31 -4 -12
0000c0 ef d4 02 e3 12 d3 d7 e7 3c ec f9 e9 ff 13 08 e0
       -17 -44 2 -29 18 -45 -41 -25 60 -20 -7 -23 -1 19 8 -32
0000d0 e2 e9 0f d5 fb fc 1d 0a ed 15 06 07 dc de c8 ec
       -30 -23 15 -43 -5 -4 29 10 -19 21 6 7 -36 -34 -56 -20
0000e0 e4 f2 e7 b9 00 d6 2f fe ec 04 e9 ed 07 fb ef f4
       -28 -14 -25 -71 0 -42 47 -2 -20 4 -23 -19 7 -5 -17 -12
0000f0 09 01 03 03 f7 fd ef ed f4 0f f9 06 0f ec ed 00
       9 1 3 3 -9 -3 -17 -19 -12 15 -7 6 15 -20 -19 0

tfl.pseudo_qconst19 i1 [26, 3, 3, 26]
000000 0f 09 39 1f e6 1d 0a f9 c4 57 06 eb 21 39 fb 05
       15 9 57 31 -26 29 10 -7 -60 87 6 -21 33 57 -5 5
000010 2a 1f fc fd f3 f0 a9 eb 02 e4 dc 0b 30 28 cb 39
       42 31 -4 -3 -13 -16 -87 -21 2 -28 -36 11 48 40 -53 57
000020 f7 42 1d 0c f2 48 03 1d e4 02 1d 12 0a f9 e9 f9
       -9 66 29 12 -14 72 3 29 -28 2 29 18 10 -7 -23 -7
000030 f1 32 d7 cb d4 19 92 f9 cb e6 e5 3e 0c ec fc 00
       -15 50 -41 -53 -44 25 -110 -7 -53 -26 -27 62 12 -20 -4 0
000040 f5 0e c0 26 c0 09 02 14 ef e4 e7 f6 1e 09 9c 01
       -11 14 -64 38 -64 9 2 20 -17 -28 -25 -10 30 9 -100 1
000050 e5 3e 15 eb 08 0c 60 f4 e1 f7 21 ed df ca f4 fa
       -27 62 21 -21 8 12 96 -12 -31 -9 33 -19 -33 -54 -12 -6
000060 f3 21 18 05 e7 f9 35 34 ce 30 87 30 de e7 34 d0
       -13 33 24 5 -25 -7 53 52 -50 48 -121 48 -34 -25 52 -48
000070 54 dc 04 d6 da fa 8e c0 61 cf f2 0a 76 06 19 ef
       84 -36 4 -42 -38 -6 -114 -64 97 -49 -14 10 118 6 25 -17
000080 5e 11 e5 03 50 07 08 17 33 5b 0c 30 81 eb f7 ea
       94 17 -27 3 80 7 8 23 51 91 12 48 -127 -21 -9 -22
000090 18 f4 42 e8 f3 f0 ea 1b c5 0d 48 8a ee 15 15 e3
       24 -12 66 -24 -13 -16 -22 27 -59 13 72 -118 -18 21 21 -29
0000a0 16 1f 09 5a 0f 0f e5 ed de f6 01 ff 34 e4 1a ce
       22 31 9 90 15 15 -27 -19 -34 -10 1 -1 52 -28 26 -50
0000b0 fa fb 0d 03 ff e0 1f 2b 11 c2 11 1e 1a 21 2a 65
       -6 -5 13 3 -1 -32 31 43 17 -62 17 30 26 33 42 101
0000c0 f6 c1 f2 e5 04 17 a8 3b 0c e6 f9 e5 b7 e9 09 dc
       -10 -63 -14 -27 4 23 -88 59 12 -26 -7 -27 -73 -23 9 -36
0000d0 ef ed ac 21 06 07 03 18 0e 2c ae 0a 34 eb 9d 0b
       -17 -19 -84 33 6 7 3 24 14 44 -82 10 52 -21 -99 11
0000e0 f5 1e fe 16 fe f9 b5 f7 11 0d 09 2a e1 ff 07 14
       -11 30 -2 22 -2 -7 -75 -9 17 13 9 42 -31 -1 7 20
0000f0 fb fc fc 1a e9 fc 1b f2 ed f6 1b e0 f1 02 1c fc
       -5 -4 -4 26 -23 -4 27 -14 -19 -10 27 -32 -15 2 28 -4

tfl.pseudo_qconst21 i1 [26, 3, 3, 26]
000000 f3 da eb fa 0e 02 09 f6 fc 19 fb f3 0a fb f6 fa
       -13 -38 -21 -6 14 2 9 -10 -4 25 -5 -13 10 -5 -10 -6
000010 0e 21 fb fb 03 03 1d 05 00 05 03 20 0b 0b 22 05
       14 33 -5 -5 3 3 29 5 0 5 3 32 11 11 34 5
000020 0a f7 1c 02 ef e8 10 07 ee fc 0b 1c f3 fa f3 00
       10 -9 28 2 -17 -24 16 7 -18 -4 11 28 -13 -6 -13 0
000030 36 ac 00 e5 fd 20 f8 f5 05 f9 f8 f4 08 07 fe d6
       54 -84 0 -27 -3 32 -8 -11 5 -7 -8 -12 8 7 -2 -42
000040 06 ff ff ec 04 01 04 03 ee 10 ff fb 06 fb 08 a4
       6 -1 -1 -20 4 1 4 3 -18 16 -1 -5 6 -5 8 -92
000050 44 f1 fe f8 0d e5 f6 1b f7 fc f1 07 14 14 f9 ee
       68 -15 -2 -8 13 -27 -10 27 -9 -4 -15 7 20 20 -7 -18
000060 e4 08 06 04 2f 21 f9 e6 03 f6 12 07 dc d9 e0 bf
       -28 8 6 4 47 33 -7 -26 3 -10 18 7 -36 -39 -32 -65
000070 fb 0b 05 26 ee 05 f2 f2 e5 0a c7 0a 00 fd a5 fe
       -5 11 5 38 -18 5 -14 -14 -27 10 -57 10 0 -3 -91 -2
000080 fc 0d 03 fb e9 1d d6 da 11 1b 0e dc f1 06 34 f2
       -4 13 3 -5 -23 29 -42 -38 17 27 14 -36 -15 6 52 -14
000090 e5 e6 bc 03 e6 cb 0f 09 29 e5 17 24 fc 30 ee f3
       -27 -26 -68 3 -26 -53 15 9 41 -27 23 36 -4 48 -18 -13
0000a0 0d fc f5 fc 07 ef 07 ec 09 f4 ee f8 02 fa fb f2
       13 -4 -11 -4 7 -17 7 -20 9 -12 -18 -8 2 -6 -5 -14
0000b0 05 ff 7f fc 09 09 e6 e8 f8 10 fb 04 e5 01 ea fc
       5 -1 127 -4 9 9 -26 -24 -8 16 -5 4 -27 1 -22 -4
0000c0 fa f1 0e f2 fd e3 26 f0 0a ef 09 eb 9c 3d 08 fd
       -6 -15 14 -14 -3 -29 38 -16 10 -17 9 -21 -100 61 8 -3
0000d0 f8 14 fa f1 14 0d ed f0 0b fd f6 eb e0 11 23 ed
       -8 20 -6 -15 20 13 -19 -16 11 -3 -10 -21 -32 17 35 -19
0000e0 25 f3 f9 21 02 f1 a9 00 e7 07 06 01 04 f2 13 fa
       37 -13 -7 33 2 -15 -87 0 -25 7 6 1 4 -14 19 -6
0000f0 f7 fe 10 fd ec fb fe 17 03 06 01 f7 e5 03 03 01
       -9 -2 16 -3 -20 -5 -2 23 3 6 1 -9 -27 3 3 1

tfl.pseudo_qconst23 i1 [26, 3, 3, 26]
000000 41 0e 03 20 f9 0d 0f db fe 01 fd 10 0a fa 0e f5
       65 14 3 32 -7 13 15 -37 -2 1 -3 16 10 -6 14 -11
000010 e3 0c 11 40 f0 2d f8 f9 10 e9 81 f8 fb eb e6 f5
       -29 12 17 64 -16 45 -8 -7 16 -23 -127 -8 -5 -21 -26 -11
000020 f2 0e 25 f1 f1 05 2f fc 03 1e cf 07 df b9 1d d1
       -14 14 37 -15 -15 5 47 -4 3 30 -49 7 -33 -71 29 -47
000030 fe fb f7 f8 5d 17 fc fd 13 f8 f3 0a f4 fe 08 08
       -2 -5 -9 -8 93 23 -4 -3 19 -8 -13 10 -12 -2 8 8
000040 d4 1e fb fb 20 ee fe 14 f8 04 01 ff 06 24 ca f1
       -44 30 -5 -5 32 -18 -2 20 -8 4 1 -1 6 36 -54 -15
000050 11 df 0f f9 fc 2b 2b cd d5 de fd 1c 01 f7 29 db
       17 -33 15 -7 -4 43 43 -51 -43 -34 -3 28 1 -9 41 -37
000060 0a e1 f8 ff 05 04 0c 10 2a fd fc 54 f6 10 20 d0
       10 -31 -8 -1 5 4 12 16 42 -3 -4 84 -10 16 32 -48
000070 13 15 35 0e ff f7 e5 94 f0 f7 0b 1c 02 45 02 f7
       19 21 53 14 -1 -9 -27 -108 -16 -9 11 28 2 69 2 -9
000080 04 04 d5 14 f5 ff e3 09 f4 00 10 fe fb f5 14 02
       4 4 -43 20 -11 -1 -29 9 -12 0 16 -2 -5 -11 20 2
000090 13 36 d1 22 ea 04 01 13 f6 ee 04 02 f1 fe 00 1a
       19 54 -47 34 -22 4 1 19 -10 -18 4 2 -15 -2 0 26
0000a0 04 ff 04 11 1e 0c fb f4 e6 0a f6 1f fa 11 d7 ea
       4 -1 4 17 30 12 -5 -12 -26 10 -10 31 -6 17 -41 -22
0000b0 f4 e3 06 f2 02 0b fd f6 0f e1 d2 ff fc ec 11 f1
       -12 -29 6 -14 2 11 -3 -10 15 -31 -46 -1 -4 -20 17 -15
0000c0 ee 08 41 03 f6 0c df 07 f9 09 fd 0f 02 05 ef 0e
       -18 8 65 3 -10 12 -33 7 -7 9 -3 15 2 5 -17 14
0000d0 0c 16 05 e4 08 01 f1 0d 16 d3 fe ec 01 0c 19 ef
       12 22 5 -28 8 1 -15 13 22 -45 -2 -20 1 12 25 -17
0000e0 03 0d fe fd fe fd 07 01 03 f3 fe 00 05 f3 03 fc
       3 13 -2 -3 -2 -3 7 1 3 -13 -2 0 5 -13 3 -4
0000f0 03 f0 fc 01 03 ff fb f8 fe f8 0c f6 f3 0d fa fd
       3 -16 -4 1 3 -1 -5 -8 -2 -8 12 -10 -13 13 -6 -3

tfl.pseudo_qconst25 i1 [26, 3, 3, 26]
000000 02 fc 0f ff fc f8 06 da 0f fa f8 f9 ef 21 e1 e8
       2 -4 15 -1 -4 -8 6 -38 15 -6 -8 -7 -17 33 -31 -24
000010 02 12 e3 05 2e 05 f7 17 03 f9 24 0b 1e 0f 19 dd
       2 18 -29 5 46 5 -9 23 3 -7 36 11 30 15 25 -35
000020 26 e1 0e 0a f6 ff fb ea ee ff 0f 1a c9 12 09 05
       38 -31 14 10 -10 -1 -5 -22 -18 -1 15 26 -55 18 9 5
000030 01 02 f9 eb f9 03 0a fd 1a f8 02 ea 0d fa e2 0d
       1 2 -7 -21 -7 3 10 -3 26 -8 2 -22 13 -6 -30 13
000040 01 f8 11 f5 fe f8 df e0 08 fd 03 03 18 e6 0f 0f
       1 -8 17 -11 -2 -8 -33 -32 8 -3 3 3 24 -26 15 15
000050 06 1d 05 f8 fb f3 1c ef 08 08 ed 09 11 ee 26 1f
       6 29 5 -8 -5 -13 28 -17 8 8 -19 9 17 -18 38 31
000060 c4 12 37 d1 f3 0b f8 fc 04 1d d5 43 35 e3 7f 12
       -60 18 55 -47 -13 11 -8 -4 4 29 -43 67 53 -29 127 18
000070 32 f3 14 e8 06 0f d8 e5 18 28 bb d1 15 b3 00 ca
       50 -13 20 -24 6 15 -40 -27 24 40 -69 -47 21 -77 0 -54
000080 38 ef 1a 00 01 29 09 e1 22 29 1a 06 f8 0d 21 18
       56 -17 26 0 1 41 9 -31 34 41 26 6 -8 13 33 24
000090 29 00 fd 0f c5 14 ec 09 f7 f0 f6 e3 f9 06 f3 17
       41 0 -3 15 -59 20 -20 9 -9 -16 -10 -29 -7 6 -13 23
0000a0 fe f1 ea fc 0d 05 f4 02 f5 24 fb 01 02 09 cf 01
       -2 -15 -22 -4 13 5 -12 2 -11 36 -5 1 2 9 -49 1
0000b0 0b ff ff ff ff e1 f4 04 31 2e 14 f7 c7 eb 16 fc
       11 -1 -1 -1 -1 -31 -12 4 49 46 20 -9 -57 -21 22 -4
0000c0 11 1e de 09 0c ec f6 f9 b6 fb 09 23 fe de 1b ee
       17 30 -34 9 12 -20 -10 -7 -74 -5 9 35 -2 -34 27 -18
0000d0 ff fd 11 2b fa eb e4 0a 02 eb f9 01 ee 1b 08 e7
       -1 -3 17 43 -6 -21 -28 10 2 -21 -7 1 -18 27 8 -25
0000e0 dc 21 e1 ea f4 21 fd d6 25 cd 0f 07 f6 fe dc ff
       -36 33 -31 -22 -12 33 -3 -42 37 -51 15 7 -10 -2 -36 -1
0000f0 f4 11 ff fb fb 18 ed f2 fe 01 0d ff ff ea 05 f2
       -12 17 -1 -5 -5 24 -19 -14 -2 1 13 -1 -1 -22 5 -14

tfl.pseudo_qconst27 i1 [26, 3, 3, 26]
000000 02 f1 f9 15 01 02 fa 0a 06 ca 0b f8 07 05 ff 01
       2 -15 -7 21 1 2 -6 10 6 -54 11 -8 7 5 -1 1
000010 05 fd 05 0e fd fa 03 fa 10 01 0b 09 fc 03 ff 02
       5 -3 5 14 -3 -6 3 -6 16 1 11 9 -4 3 -1 2
000020 0a 01 12 81 00 fe fe 01 f6 f1 ff 01 04 fb 02 13
       10 1 18 -127 0 -2 -2 1 -10 -15 -1 1 4 -5 2 19
000030 fa 0f f8 fa fd 0c f6 f2 fa 02 05 ff f4 2f f2 fa
       -6 15 -8 -6 -3 12 -10 -14 -6 2 5 -1 -12 47 -14 -6
000040 04 02 03 fa f7 05 fd 07 fb 01 fe 0a 00 06 df 0e
       4 2 3 -6 -9 5 -3 7 -5 1 -2 10 0 6 -33 14
000050 f3 04 f2 f3 0c f8 04 48 07 fd 11 01 04 ff 06 fe
       -13 4 -14 -13 12 -8 4 72 7 -3 17 1 4 -1 6 -2
000060 02 f5 ee f9 fd 07 00 1d f0 0b c5 e4 e9 e4 17 d7
       2 -11 -18 -7 -3 7 0 29 -16 11 -59 -28 -23 -28 23 -41
000070 d5 37 f7 ff 03 fa 0b d0 d4 09 f7 ef f4 04 07 1a
       -43 55 -9 -1 3 -6 11 -48 -44 9 -9 -17 -12 4 7 26
000080 0d 10 19 f9 ef f7 02 f0 08 ea e7 d3 f2 03 02 fc
       13 16 25 -7 -17 -9 2 -16 8 -22 -25 -45 -14 3 2 -4
000090 fd dd db 01 fb ff 11 05 fb 1e f4 16 04 f8 f4 03
       -3 -35 -37 1 -5 -1 17 5 -5 30 -12 22 4 -8 -12 3
0000a0 fd f6 02 f3 05 2f f7 ed ff fc 01 f9 f6 0a ff 02
       -3 -10 2 -13 5 47 -9 -19 -1 -4 1 -7 -10 10 -1 2
0000b0 fc f9 fb 05 13 12 fa 02 f0 0a f1 e1 11 e0 05 46
       -4 -7 -5 5 19 18 -6 2 -16 10 -15 -31 17 -32 5 70
0000c0 f3 f5 13 01 0a f0 f1 fd 06 07 0a 00 f9 0f 12 06
       -13 -11 19 1 10 -16 -15 -3 6 7 10 0 -7 15 18 6
0000d0 10 02 05 03 06 f8 fb 06 12 c6 00 00 fd f9 06 f9
       16 2 5 3 6 -8 -5 6 18 -58 0 0 -3 -7 6 -7
0000e0 02 fd fe e3 03 0a 08 05 f7 f0 d1 04 02 f5 02 fc
       2 -3 -2 -29 3 10 8 5 -9 -16 -47 4 2 -11 2 -4
0000f0 05 05 f1 f4 01 02 ff fa 00 07 05 05 f5 05 fa fe
       5 5 -15 -12 1 2 -1 -6 0 7 5 5 -11 5 -6 -2

tfl.pseudo_qconst29 i1 [26, 3, 3, 26]
000000 04 df 0b f2 32 05 0d f9 f5 ff 04 05 21 0e e0 e0
       4 -33 11 -14 50 5 13 -7 -11 -1 4 5 33 14 -32 -32
000010 f4 02 d0 28 07 00 fa f6 06 03 13 e4 05 ea 31 31
       -12 2 -48 40 7 0 -6 -10 6 3 19 -28 5 -22 49 49
000020 b9 fb e1 0e 0d 18 12 fd 10 55 f6 fb 06 55 e9 10
       -71 -5 -31 14 13 24 18 -3 16 85 -10 -5 6 85 -23 16
000030 ee de 09 07 ed 01 06 e4 4e 0c 1d fe f0 20 17 19
       -18 -34 9 7 -19 1 6 -28 78 12 29 -2 -16 32 23 25
000040 20 02 05 e7 23 e7 23 62 e0 e9 f5 f8 f3 07 09 17
       32 2 5 -25 35 -25 35 98 -32 -23 -11 -8 -13 7 9 23
000050 08 ff 02 01 de fe 02 10 15 f7 dd fc 01 00 ed 08
       8 -1 2 1 -34 -2 2 16 21 -9 -35 -4 1 0 -19 8
000060 15 1a fc f9 0a 00 f0 f2 5d 0c f3 e3 55 09 7f 04
       21 26 -4 -7 10 0 -16 -14 93 12 -13 -29 85 9 127 4
000070 df 1f c9 e4 14 01 fc a2 e9 bf 5c f6 42 d9 12 53
       -33 31 -55 -28 20 1 -4 -94 -23 -65 92 -10 66 -39 18 83
000080 e3 db 10 ea fe f7 d7 f4 ea 09 da 16 12 ee 16 0c
       -29 -37 16 -22 -2 -9 -41 -12 -22 9 -38 22 18 -18 22 12
000090 2c 60 25 0a 98 16 d3 e4 0c 3c ee 11 10 1c 01 df
       44 96 37 10 -104 22 -45 -28 12 60 -18 17 16 28 1 -33
0000a0 dd 0f 3a 16 eb 26 10 1c 26 f6 00 12 08 f7 d3 16
       -35 15 58 22 -21 38 16 28 38 -10 0 18 8 -9 -45 22
0000b0 e5 e2 fb 00 ee 1b 03 04 f5 f7 0c 03 dc 06 05 1c
       -27 -30 -5 0 -18 27 3 4 -11 -9 12 3 -36 6 5 28
0000c0 f3 f4 07 0b 1c 2e 24 02 27 23 03 00 0a 13 09 04
       -13 -12 7 11 28 46 36 2 39 35 3 0 10 19 9 4
0000d0 f7 ec 03 f2 4c 07 f5 f0 09 f1 11 0a 0c f6 f5 fd
       -9 -20 3 -14 76 7 -11 -16 9 -15 17 10 12 -10 -11 -3
0000e0 f4 e8 30 4d fb e6 01 f3 ff 08 03 fd fc 10 2e f9
       -12 -24 48 77 -5 -26 1 -13 -1 8 3 -3 -4 16 46 -7
0000f0 f0 f5 0b 06 f5 e4 f3 01 04 14 f9 04 f3 0a 0c 13
       -16 -11 11 6 -11 -28 -13 1 4 20 -7 4 -13 10 12 19

tfl.pseudo_qconst31 i1 [26, 3, 3, 26]
000000 0d fb ff 00 ec fa 08 ff 08 01 fe 07 01 04 00 fe
       13 -5 -1 0 -20 -6 8 -1 8 1 -2 7 1 4 0 -2
000010 00 ff 00 fd 02 fe fd ff fd 00 ff fa 07 02 fe 02
       0 -1 0 -3 2 -2 -3 -1 -3 0 -1 -6 7 2 -2 2
000020 02 f4 02 03 ff ff 04 fe fa fe fe 0a 02 03 fc fa
       2 -12 2 3 -1 -1 4 -2 -6 -2 -2 10 2 3 -4 -6
000030 f9 fe 00 fe 01 01 fe fe ef 00 01 02 06 fc ff 06
       -7 -2 0 -2 1 1 -2 -2 -17 0 1 2 6 -4 -1 6
000040 04 ff fb 00 02 ff 03 ff ff 03 fd 00 fe ff 08 f6
       4 -1 -5 0 2 -1 3 -1 -1 3 -3 0 -2 -1 8 -10
000050 0d fe f8 08 04 01 05 03 03 0b 02 fc fa 00 12 11
       13 -2 -8 8 4 1 5 3 3 11 2 -4 -6 0 18 17
000060 01 06 05 fb 00 06 f9 00 22 1f fa fc 7f ff 0a f4
       1 6 5 -5 0 6 -7 0 34 31 -6 -4 127 -1 10 -12
000070 cd f4 f7 fe f7 00 06 02 fb 15 0c 12 2a ff fa 0d
       -51 -12 -9 -2 -9 0 6 2 -5 21 12 18 42 -1 -6 13
000080 ee 08 eb fc 05 fd de fd fc fb 11 0a ff 06 00 01
       -18 8 -21 -4 5 -3 -34 -3 -4 -5 17 10 -1 6 0 1
000090 04 ff 08 0a fd 05 07 fe 09 04 03 02 05 fe fd fe
       4 -1 8 10 -3 5 7 -2 9 4 3 2 5 -2 -3 -2
0000a0 e7 fc 01 f9 09 0c 00 00 04 03 02 fd fd fc 09 fc
       -25 -4 1 -7 9 12 0 0 4 3 2 -3 -3 -4 9 -4
0000b0 04 ff ff ff 02 02 fe 02 fd fe 02 00 0a f4 fe 0b
       4 -1 -1 -1 2 2 -2 2 -3 -2 2 0 10 -12 -2 11
0000c0 fc fb 05 fe fd fe 01 08 18 06 03 fe f0 00 ff 08
       -4 -5 5 -2 -3 -2 1 8 24 6 3 -2 -16 0 -1 8
0000d0 0a fb f7 fe 0f 03 ff 00 fe 07 02 02 00 ff 04 00
       10 -5 -9 -2 15 3 -1 0 -2 7 2 2 0 -1 4 0
0000e0 0a 00 07 03 ff 03 fd 01 04 00 16 f7 07 f9 f2 0a
       10 0 7 3 -1 3 -3 1 4 0 22 -9 7 -7 -14 10
0000f0 01 38 ff f0 f0 02 fe f7 e4 01 06 09 f8 0d 08 f6
       1 56 -1 -16 -16 2 -2 -9 -28 1 6 9 -8 13 8 -10

tfl.pseudo_qconst33 i1 [26, 3, 3, 26]
000000 f9 f8 f8 f0 00 09 02 02 fb f7 08 02 1f f5 09 d8
       -7 -8 -8 -16 0 9 2 2 -5 -9 8 2 31 -11 9 -40
000010 12 37 01 f7 06 fc 09 fe 12 01 fa 18 36 f4 24 fb
       18 55 1 -9 6 -4 9 -2 18 1 -6 24 54 -12 36 -5
000020 01 fa fc ef ef 0c 10 0b f9 ce f5 fa ff f1 01 e9
       1 -6 -4 -17 -17 12 16 11 -7 -50 -11 -6 -1 -15 1 -23
000030 a2 03 2a 00 00 06 f7 f9 0b 0c 03 01 01 07 0f fd
       -94 3 42 0 0 6 -9 -7 11 12 3 1 1 7 15 -3
000040 16 fe 00 e3 f1 04 04 fd fe fd 05 02 fa 02 f7 fd
       22 -2 0 -29 -15 4 4 -3 -2 -3 5 2 -6 2 -9 -3
000050 1b ea 1e de ef 03 fc c8 22 25 81 f7 e7 38 19 f1
       27 -22 30 -34 -17 3 -4 -56 34 37 -127 -9 -25 56 25 -15
000060 04 ef fd fd 2c 00 52 11 ec f6 ad e4 e5 d7 e9 04
       4 -17 -3 -3 44 0 82 17 -20 -10 -83 -28 -27 -41 -23 4
000070 30 e3 1a 0d 78 fc 02 06 32 08 fd f3 06 20 fe fd
       48 -29 26 13 120 -4 2 6 50 8 -3 -13 6 32 -2 -3
000080 a9 ef fa 04 12 fa f0 ec fb ff 0d fc 07 fe fd 00
       -87 -17 -6 4 18 -6 -16 -20 -5 -1 13 -4 7 -2 -3 0
000090 0d 42 23 e7 07 fd f1 01 fa fd 02 01 fb 06 f8 f8
       13 66 35 -25 7 -3 -15 1 -6 -3 2 1 -5 6 -8 -8
0000a0 15 d4 fc fc 02 f7 37 ff f8 ff 0a dc 0d 15 03 f8
       21 -44 -4 -4 2 -9 55 -1 -8 -1 10 -36 13 21 3 -8
0000b0 f6 f8 ff 01 00 0c f4 14 2d f7 f9 d7 f5 03 05 22
       -10 -8 -1 1 0 12 -12 20 45 -9 -7 -41 -11 3 5 34
0000c0 12 fd f3 fb 00 45 f3 35 04 fb fd ff 1e ff f5 04
       18 -3 -13 -5 0 69 -13 53 4 -5 -3 -1 30 -1 -11 4
0000d0 f7 09 ef fb fd f9 fe 02 04 e4 2a 03 fe 02 0c d8
       -9 9 -17 -5 -3 -7 -2 2 4 -28 42 3 -2 2 12 -40
0000e0 06 fd 08 fb fa f4 b3 02 f9 0a 01 01 1a 02 15 f3
       6 -3 8 -5 -6 -12 -77 2 -7 10 1 1 26 2 21 -13
0000f0 04 00 fe 00 ff 06 f4 0d f6 e2 06 0f fb 01 ff f9
       4 0 -2 0 -1 6 -12 13 -10 -30 6 15 -5 1 -1 -7

tfl.pseudo_qconst35 i1 [26, 3, 3, 26]
000000 ff ff 01 06 05 ff fc 00 f9 fe fd 0b 0e 06 00 ff
       -1 -1 1 6 5 -1 -4 0 -7 -2 -3 11 14 6 0 -1
000010 03 01 fe 06 ec 06 fe f8 08 01 fd 01 ff fd fe 00
       3 1 -2 6 -20 6 -2 -8 8 1 -3 1 -1 -3 -2 0
000020 04 01 04 fe 03 03 0f 08 00 ff 00 02 ff ff 0e 04
       4 1 4 -2 3 3 15 8 0 -1 0 2 -1 -1 14 4
000030 02 0a f3 ff ff 02 01 02 ff fe 00 00 06 fc fe 04
       2 10 -13 -1 -1 2 1 2 -1 -2 0 0 6 -4 -2 4
000040 05 01 02 02 ff 03 f8 f9 01 00 ff fd ff fe f1 02
       5 1 2 2 -1 3 -8 -7 1 0 -1 -3 -1 -2 -15 2
000050 02 f5 de f8 05 06 1b 11 e2 81 12 2d fa 01 fe 02
       2 -11 -34 -8 5 6 27 17 -30 -127 18 45 -6 1 -2 2
000060 f0 67 2c 31 04 0c 03 07 0c 02 fc 05 16 0c 0a 01
       -16 103 44 49 4 12 3 7 12 2 -4 5 22 12 10 1
000070 f2 ea 1f 03 81 dc ff 01 06 f9 ff db cb a0 fe f2
       -14 -22 31 3 -127 -36 -1 1 6 -7 -1 -37 -53 -96 -2 -14
000080 f7 05 04 ff fe f8 05 01 00 00 ff fa 05 fe c2 f7
       -9 5 4 -1 -2 -8 5 1 0 0 -1 -6 5 -2 -62 -9
000090 fd fe 00 ff fe 04 08 f2 01 02 f8 04 fe 01 03 fb
       -3 -2 0 -1 -2 4 8 -14 1 2 -8 4 -2 1 3 -5
0000a0 f7 fd 02 fa fc 08 fb 03 04 fd fc 02 04 03 f4 03
       -9 -3 2 -6 -4 8 -5 3 4 -3 -4 2 4 3 -12 3
0000b0 1a 08 fc 16 ff 04 04 01 fd fd 03 01 fe 01 00 f9
       26 8 -4 22 -1 4 4 1 -3 -3 3 1 -2 1 0 -7
0000c0 05 00 04 07 ff ff 01 fd fc fd e3 0a 01 e7 05 02
       5 0 4 7 -1 -1 1 -3 -4 -3 -29 10 1 -25 5 2
0000d0 ff 02 01 00 09 fe 00 ff 02 fd fd 03 fe 00 ff 00
       -1 2 1 0 9 -2 0 -1 2 -3 -3 3 -2 0 -1 0
0000e0 01 04 00 f8 03 06 00 01 05 03 fe 00 00 05 09 01
       1 4 0 -8 3 6 0 1 5 3 -2 0 0 5 9 1
0000f0 01 fd fd f6 ff 01 fd f8 00 00 ff 02 ff 11 03 fb
       1 -3 -3 -10 -1 1 -3 -8 0 0 -1 2 -1 17 3 -5

tfl.pseudo_qconst38 i1 [26, 3, 3, 26]
000000 00 00 00 ff 01 fe 01 00 00 00 11 ff 00 00 03 00
       0 0 0 -1 1 -2 1 0 0 0 17 -1 0 0 3 0
000010 00 01 02 fd 00 00 00 01 fd fb 00 ff f7 01 00 ff
       0 1 2 -3 0 0 0 1 -3 -5 0 -1 -9 1 0 -1
000020 ff 06 00 ff 0d ff 00 f9 00 00 00 ff 00 03 00 00
       -1 6 0 -1 13 -1 0 -7 0 0 0 -1 0 3 0 0
000030 01 fa fd fb 00 00 fd 01 00 01 00 05 00 00 04 01
       1 -6 -3 -5 0 0 -3 1 0 1 0 5 0 0 4 1
000040 ff ff 01 00 ff 00 00 fb 00 00 00 0a f9 fa 01 00
       -1 -1 1 0 -1 0 0 -5 0 0 0 10 -7 -6 1 0
000050 f1 01 00 ff 03 05 00 01 07 01 00 f5 01 00 00 ff
       -15 1 0 -1 3 5 0 1 7 1 0 -11 1 0 0 -1
000060 fc ff 00 00 00 04 ff 09 00 01 f8 ed 01 0a ee 7f
       -4 -1 0 0 0 4 -1 9 0 1 -8 -19 1 10 -18 127
000070 ff 01 09 00 fe de 00 03 ff 01 12 fe 00 00 fe f6
       -1 1 9 0 -2 -34 0 3 -1 1 18 -2 0 0 -2 -10
000080 f4 f6 01 00 f7 01 00 00 fe 03 00 01 07 01 00 0c
       -12 -10 1 0 -9 1 0 0 -2 3 0 1 7 1 0 12
000090 ff ff 00 00 fa 03 00 00 00 fc ff ff 00 00 07 ff
       -1 -1 0 0 -6 3 0 0 0 -4 -1 -1 0 0 7 -1
0000a0 01 01 ff fe 00 00 fd 00 00 fa 00 00 00 00 01 ff
       1 1 -1 -2 0 0 -3 0 0 -6 0 0 0 0 1 -1
0000b0 00 00 00 ff 02 02 01 ff 02 01 00 01 00 05 00 ff
       0 0 0 -1 2 2 1 -1 2 1 0 1 0 5 0 -1
0000c0 00 fd fd 0f 00 ff 01 00 00 04 00 00 00 fd 00 04
       0 -3 -3 15 0 -1 1 0 0 4 0 0 0 -3 0 4
0000d0 00 00 fb 00 ff ff ff fd 00 00 fb 00 ff 03 00 00
       0 0 -5 0 -1 -1 -1 -3 0 0 -5 0 -1 3 0 0
0000e0 00 00 f6 03 00 00 00 00 ff fe 01 02 e9 fe 00 00
       0 0 -10 3 0 0 0 0 -1 -2 1 2 -23 -2 0 0
0000f0 04 04 00 00 02 fd ff 01 fe 02 02 03 f6 02 00 fe
       4 4 0 0 2 -3 -1 1 -2 2 2 3 -10 2 0 -2

tfl.pseudo_qconst40 i1 [26, 3, 3, 26]
000000 03 04 00 fa 04 0b 00 fc 01 f9 00 02 fa cd fe ff
       3 4 0 -6 4 11 0 -4 1 -7 0 2 -6 -51 -2 -1
000010 d7 fe fc 07 ed fc 04 01 00 00 09 01 01 fc 02 0a
       -41 -2 -4 7 -19 -4 4 1 0 0 9 1 1 -4 2 10
000020 ff fc ff 03 fe 00 09 da 00 ff ca ff fb 09 e6 00
       -1 -4 -1 3 -2 0 9 -38 0 -1 -54 -1 -5 9 -26 0
000030 04 02 f2 00 03 ff 00 fa 03 fd ff ff ff ff 00 03
       4 2 -14 0 3 -1 0 -6 3 -3 -1 -1 -1 -1 0 3
000040 ff dc 03 00 ee fe 00 00 f4 00 05 00 ed 01 02 07
       -1 -36 3 0 -18 -2 0 0 -12 0 5 0 -19 1 2 7
000050 00 fc 09 05 01 01 04 f9 f9 0e f9 12 04 fc c0 00
       0 -4 9 5 1 1 4 -7 -7 14 -7 18 4 -4 -64 0
000060 ff 01 e9 f7 01 fc 01 fe e7 07 00 01 05 f8 f9 0d
       -1 1 -23 -9 1 -4 1 -2 -25 7 0 1 5 -8 -7 13
000070 00 18 f9 0e 13 66 f0 f6 7f 00 00 fe 42 fc fc fe
       0 24 -7 14 19 102 -16 -10 127 0 0 -2 66 -4 -4 -2
000080 07 fd fc fe 00 fd 05 00 00 fe ff 01 01 00 00 f4
       7 -3 -4 -2 0 -3 5 0 0 -2 -1 1 1 0 0 -12
000090 08 fa da ff 01 02 f4 01 04 00 04 00 05 03 00 01
       8 -6 -38 -1 1 2 -12 1 4 0 4 0 5 3 0 1
0000a0 ff 08 00 fe 01 fc 02 04 f9 f8 fd 00 02 ff ff fd
       -1 8 0 -2 1 -4 2 4 -7 -8 -3 0 2 -1 -1 -3
0000b0 0d fe fa 00 05 fe 06 f6 ff f8 ff f9 01 ff fe fc
       13 -2 -6 0 5 -2 6 -10 -1 -8 -1 -7 1 -1 -2 -4
0000c0 00 f7 fc 13 06 02 cc 02 03 fa e4 01 0c ff f3 04
       0 -9 -4 19 6 2 -52 2 3 -6 -28 1 12 -1 -13 4
0000d0 00 04 00 ff 04 f9 01 fe 00 fc 00 fd fc ed 00 00
       0 4 0 -1 4 -7 1 -2 0 -4 0 -3 -4 -19 0 0
0000e0 22 ff 05 f6 01 00 00 01 02 fe 01 04 00 00 03 05
       34 -1 5 -10 1 0 0 1 2 -2 1 4 0 0 3 5
0000f0 00 fd 00 ff 00 02 03 13 01 ff ff 00 ff 02 f8 ff
       0 -3 0 -1 0 2 3 19 1 -1 -1 0 -1 2 -8 -1

tfl.pseudo_qconst42 i1 [26, 3, 3, 26]
000000 f9 e9 f9 fd 06 fb 0c 01 16 f4 00 00 05 01 02 fd
       -7 -23 -7 -3 6 -5 12 1 22 -12 0 0 5 1 2 -3
000010 0a 07 01 00 00 0b f9 fd 0e ff ee 0d f8 0e e9 f3
       10 7 1 0 0 11 -7 -3 14 -1 -18 13 -8 14 -23 -13
000020 fa 10 fc f0 00 fd 05 03 17 03 fd 06 01 fc fd 0a
       -6 16 -4 -16 0 -3 5 3 23 3 -3 6 1 -4 -3 10
000030 07 02 08 fe f7 ee f7 00 08 fd f7 03 0c 0a ff 01
       7 2 8 -2 -9 -18 -9 0 8 -3 -9 3 12 10 -1 1
000040 09 05 f3 f5 ec 10 f4 04 f9 00 12 fb 05 00 02 f6
       9 5 -13 -11 -20 16 -12 4 -7 0 18 -5 5 0 2 -10
000050 0c fc ee 07 05 07 e9 12 00 02 f8 01 f0 e0 0b f7
       12 -4 -18 7 5 7 -23 18 0 2 -8 1 -16 -32 11 -9
000060 01 f3 08 f7 fa 02 09 08 81 cb 01 f2 21 cb 06 14
       1 -13 8 -9 -6 2 9 8 -127 -53 1 -14 33 -53 6 20
000070 e8 f4 02 04 06 05 eb 17 e2 ee 06 02 07 0e 17 ff
       -24 -12 2 4 6 5 -21 23 -30 -18 6 2 7 14 23 -1
000080 0c 2a 0a f5 01 0f f7 0b 01 28 e5 f2 ff 00 00 04
       12 42 10 -11 1 15 -9 11 1 40 -27 -14 -1 0 0 4
000090 2d fc f1 fd 0d 0a 01 fb 08 fe ff 1d f7 d8 05 07
       45 -4 -15 -3 13 10 1 -5 8 -2 -1 29 -9 -40 5 7
0000a0 1a 00 dc ff 07 0c ff 00 f9 02 00 fa 02 02 06 05
       26 0 -36 -1 7 12 -1 0 -7 2 0 -6 2 2 6 5
0000b0 00 01 14 0b ff fd fd 26 ff f8 ec f6 10 f9 fb 04
       0 1 20 11 -1 -3 -3 38 -1 -8 -20 -10 16 -7 -5 4
0000c0 01 ff 03 ff 29 da 01 00 05 f3 fd fc ff 1a fa 04
       1 -1 3 -1 41 -38 1 0 5 -13 -3 -4 -1 26 -6 4
0000d0 fd e7 08 08 11 0f 11 30 eb f4 00 01 fb ff dd ed
       -3 -25 8 8 17 15 17 48 -21 -12 0 1 -5 -1 -35 -19
0000e0 ee 0c 0d 08 01 fd 04 05 f9 fa bb e7 f8 f4 fd fb
       -18 12 13 8 1 -3 4 5 -7 -6 -69 -25 -8 -12 -3 -5
0000f0 c5 e8 24 ea 00 00 ff 06 ef f9 00 09 0c 04 fd 0f
       -59 -24 36 -22 0 0 -1 6 -17 -7 0 9 12 4 -3 15

tfl.pseudo_qconst44 i1 [26, 3, 3, 3]
000000 fe ff 01 04 ff 01 00 fe 02 05 ff 01 4e 29 81 fe
       -2 -1 1 4 -1 1 0 -2 2 5 -1 1 78 41 -127 -2
000010 06 fe fd 00 03 02 ff fd fe 01 02 25 e7 1b e5 ec
       6 -2 -3 0 3 2 -1 -3 -2 1 2 37 -25 27 -27 -20
000020 24 f2 29 f8 57 81 e1 03 1f 03 d7 20 f3 17 bf 56
       36 -14 41 -8 87 -127 -31 3 31 3 -41 32 -13 23 -65 86
000030 c8 50 d6 ee 23 e4 ff ff 01 e7 e2 ea 01 f8 ff e3
       -56 80 -42 -18 35 -28 -1 -1 1 -25 -30 -22 1 -8 -1 -29
000040 e0 ed 64 7f 5d e8 e6 ef ff 01 00 ee eb e8 00 00
       -32 -19 100 127 93 -24 -26 -17 -1 1 0 -18 -21 -24 0 0
000050 ff f3 17 fe 13 f7 08 14 d4 11 0c 08 e0 81 25 51
       -1 -13 23 -2 19 -9 8 20 -44 17 12 8 -32 -127 37 81
000060 f9 1b e1 0f f2 04 12 00 f5 ed 1a ff 00 0b 08 38
       -7 27 -31 15 -14 4 18 0 -11 -19 26 -1 0 11 8 56
000070 d3 16 b1 2c 28 ae ed 3b 30 25 81 2b d4 f7 03 1f
       -45 22 -79 44 40 -82 -19 59 48 37 -127 43 -44 -9 3 31
000080 06 f3 f5 0d 0e f3 0d 00 02 ff f6 09 fe 00 03 fe
       6 -13 -11 13 14 -13 13 0 2 -1 -10 9 -2 0 3 -2
000090 fa 00 05 5e 81 25 fa fe 07 ff 03 fe ff fe 03 fe
       -6 0 5 94 -127 37 -6 -2 7 -1 3 -2 -1 -2 3 -2
0000a0 04 fd 1b ea 07 f5 fc 1d eb 23 db e6 e2 33 d7 7f
       4 -3 27 -22 7 -11 -4 29 -21 35 -37 -26 -30 51 -41 127
0000b0 84 36 f6 15 2a 95 28 ca 6d e3 f9 c8 17 11 be 15
       -124 54 -10 21 42 -107 40 -54 109 -29 -7 -56 23 17 -66 21
0000c0 2a 2a e7 c0 0e 1e 54 ce 1d 81 3c dc 1a 1e fd ff
       42 42 -25 -64 14 30 84 -50 29 -127 60 -36 26 30 -3 -1
0000d0 8e 55 50 29 c6 ec f9 24 ca 46 dc e2 c8 3a f8 0f
       -114 85 80 41 -58 -20 -7 36 -54 70 -36 -30 -56 58 -8 15
0000e0 1b 08 cb 0d 3a 4f d3 19 c4 07 b8 07 2e 6b df 81
       27 8 -53 13 58 79 -45 25 -60 7 -72 7 46 107 -33 -127
0000f0 c5 26 32 00 ff 00 10 0a e8 fc 03 03 20 05 de 97
       -59 38 50 0 -1 0 16 10 -24 -4 3 3 32 5 -34 -105
