app/src/main/assets/models/DSCF_float16.tflite (tflite, 284276 bytes, 44 tensors)

arith.constant5 f2 [26, 3, 3, 26]
0	0xa80c	-0.03162
1	0xaeb6	-0.10486
2	0xa80e	-0.03168
3	0xa1fb	-0.01168
4	0x277c	0.02924
5	0xa56e	-0.02121
6	0x2b55	0.05728
7	0x1a95	0.003214
8	0x2e9f	0.10345
9	0xab5d	-0.05753
10	0x15e0	0.001434
11	0x04fd	7.61e-05
12	0x25c4	0.02252
13	0x1996	0.002728
14	0x21da	0.01143
15	0xa406	-0.01572
16	0x29fb	0.04672
17	0x282b	0.03256
18	0x1c8b	0.004436
19	0x97d5	-0.001912
20	0x9563	-0.001315
21	0x2a3f	0.0488
22	0xa7b8	-0.03015
23	0xa26e	-0.01256
24	0x2c49	0.06696
25	0x9efd	-0.006824
26	0xad32	-0.0812
27	0x2b69	0.0579
28	0xa8eb	-0.03842
29	0x2c02	0.0626
30	0xaef5	-0.1087
31	0xab7d	-0.0585
32	0xa791	-0.02956
33	0x2c98	0.0718
34	0xa504	-0.01959
35	0xaccf	-0.07513
36	0x9880	-0.002197
37	0xa2f1	-0.01356
38	0x2629	0.02406
39	0x2259	0.0124
40	0x2eba	0.1051
41	0x22f6	0.013596
42	0xa25d	-0.01243
43	0x27a2	0.02982
44	0x1cfe	0.004875
45	0xa4cf	-0.01878
46	0xa3e7	-0.015434
47	0x2a1a	0.04767
48	0x27ff	0.03123
49	0x218b	0.010826
50	0x28d6	0.03778
51	0xa08c	-0.00888
52	0xa966	-0.04218
53	0xad67	-0.0844
54	0xa92d	-0.04044
55	0x146e	0.001081
56	0x28b0	0.03662
57	0xa381	-0.014656
58	0xa986	-0.04315
59	0x22ed	0.01353
60	0x2b4a	0.05695
61	0x29ba	0.04474
62	0x9e1f	-0.005978
63	0x18d2	0.002354
64	0x294c	0.04138
65	0x2594	0.02179
66	0xabc2	-0.0606
67	0xaa6f	-0.05026
68	0xaddc	-0.09155
69	0x2c99	0.07184
70	0xab17	-0.0554
71	0x24c6	0.01865
72	0xa82c	-0.0326
73	0x1045	0.000521
74	0x2d51	0.08307
75	0xa60e	-0.02365
76	0x2619	0.02382
77	0x088f	0.0001391
78	0x1f8b	0.007366
79	0xaa33	-0.04843
80	0x2b1c	0.05554
81	0xa529	-0.02016
82	0xad62	-0.0841
83	0x282c	0.0326
84	0x2661	0.02492
85	0x27b9	0.03017
86	0xaee0	-0.1074
87	0x2d55	0.0833
88	0x980e	-0.00198
89	0x2030	0.00818
90	0xa877	-0.03488
91	0x1a05	0.00294
92	0xacc4	-0.07446
93	0xb0bb	-0.1478
94	0x2ac6	0.05292
95	0xa928	-0.04028
96	0x1e23	0.005993
97	0xabec	-0.0619
98	0x28b0	0.03662
99	0xa99e	-0.04388
100	0xa6d0	-0.02661
101	0x1f41	0.007084
102	0x2984	0.0431
103	0x28dd	0.038
104	0xb8b3	-0.5874
105	0xb3d7	-0.245
106	0x1a66	0.003124
107	0xac28	-0.06494
108	0x30f6	0.155
109	0xb3d7	-0.245
110	0x2724	0.0279
111	0x2ddc	0.09155
112	0xaf32	-0.1124
113	0xab46	-0.05682
114	0x2100	0.009766
115	0x250c	0.01971
116	0x274e	0.02853
117	0x255a	0.0209
118	0xae43	-0.09784
119	0x2ecc	0.1062
120	0xb076	-0.1394
121	0xad38	-0.08154
122	0x26ac	0.02606
123	0x2138	0.01019
124	0x2828	0.03247
125	0x2c3c	0.06616
126	0x2eb3	0.1047
127	0x9ea3	-0.00648
128	0x2ad2	0.05328
129	0x323b	0.1947
130	0x2a31	0.04837
131	0xaa57	-0.04953
132	0x1e61	0.00623
133	0x2c68	0.06885
134	0xa986	-0.04315
135	0x2a50	0.04932
136	0x1ce4	0.004776
137	0x31f6	0.1863
138	0xb002	-0.1252
139	0xac48	-0.0669
140	0x98dd	-0.002375
141	0x9760	-0.001801
142	0x1744	0.001774
143	0x2432	0.01639
144	0x32b2	0.2092
145	0xa4ba	-0.01846
146	0xac4f	-0.0673
147	0xa24a	-0.01228
148	0x2b88	0.05884
149	0x2a1f	0.04782
150	0x1d9e	0.005486
151	0xa63a	-0.02432
152	0x28f0	0.03857
153	0xa045	-0.00834
154	0x9a6c	-0.003136
155	0x304f	0.1346
156	0xa936	-0.0407
157	0xb1ee	-0.1853
158	0x2580	0.02148
159	0x2857	0.0339
160	0x2fa2	0.11926
161	0x9798	-0.001854
162	0xb15e	-0.1677
163	0x990d	-0.002466
164	0x285f	0.03415
165	0x2b0b	0.05502
166	0x9eb0	-0.00653
167	0x93fc	-0.0009747
168	0xa814	-0.03186
169	0x2063	0.00857
170	0x9418	-0.000999
171	0xa74a	-0.02847
172	0x20ed	0.00962
173	0x21aa	0.01106
174	0x268d	0.02559
175	0x263e	0.02438
176	0x16c9	0.001657
177	0x1eea	0.006752
178	0x2e0f	0.09467
179	0x2a48	0.04907
180	0x9c24	-0.004044
181	0xa2ce	-0.01329
182	0xa29a	-0.01289
183	0x31ac	0.1772
184	0x99a8	-0.002762
185	0xa8a8	-0.03638
186	0xae0f	-0.09467
187	0xa9a9	-0.04422
188	0x2ccc	0.07495
189	0xa82c	-0.0326
190	0xa5bb	-0.02238
191	0x249c	0.018
192	0x1bdc	0.003838
193	0x9e0a	-0.005898
194	0x22ac	0.01303
195	0x9a06	-0.002941
196	0x3209	0.1886
197	0xb191	-0.174
198	0x1c42	0.004158
199	0x971b	-0.001735
200	0x25e6	0.02304
201	0xab79	-0.05838
202	0xa21f	-0.011955
203	0xa520	-0.02002
204	0x9975	-0.002665
205	0x2fad	0.11993
206	0xa7b0	-0.03003
207	0x251e	0.01999
208	0xa352	-0.0143
209	0xaf84	-0.11743
210	0x289e	0.03607
211	0x28a9	0.0364
212	0x2d19	0.07965
213	0x2c7d	0.0701
214	0x2d04	0.07837
215	0x3311	0.2208
216	0xae44	-0.0979
217	0xab34	-0.05627
218	0x1834	0.002052
219	0x193e	0.00256
220	0xa576	-0.02133
221	0x9eaa	-0.006508
222	0xb12d	-0.1617
223	0xadbf	-0.0898
224	0xad31	-0.0811
225	0x2aed	0.0541
226	0x2b85	0.05875
227	0x2887	0.03537
228	0x1f10	0.006897
229	0xa23a	-0.01216
230	0x2460	0.01709
231	0x2642	0.02444
232	0xa864	-0.0343
233	0xa686	-0.02548
234	0xb3eb	-0.2474
235	0xadbf	-0.0898
236	0xa70b	-0.02751
237	0xa95f	-0.04196
238	0xa160	-0.0105
239	0xa452	-0.01688
240	0xb2b3	-0.2094
241	0xad93	-0.0871
242	0x3013	0.1273
243	0xace7	-0.0766
244	0x8f23	-0.0004356
245	0x1114	0.00062
246	0x98dc	-0.002373
247	0x2578	0.02136
248	0xabc9	-0.06082
249	0xa639	-0.0243
250	0x12c5	0.0008264
251	0x27c0	0.03027
252	0x294f	0.04147
253	0x22f2	0.013565
254	0xa25e	-0.012436
255	0x2aa2	0.05182

arith.constant6 f2 [26, 3, 3, 26]
0	0x24d8	0.01892
1	0x2630	0.02417
2	0x191e	0.002499
3	0xa849	-0.03348
4	0x263e	0.02438
5	0x2c21	0.0645
6	0x19cd	0.002832
7	0xa52c	-0.0202
8	0x2012	0.00795
9	0xa912	-0.0396
10	0x164a	0.001535
11	0x22e9	0.0135
12	0xa849	-0.03348
13	0xb4ae	-0.2925
14	0xa0b7	-0.00921
15	0x9b27	-0.003492
16	0xb398	-0.2373
17	0xa1d2	-0.01137
18	0xa627	-0.02403
19	0x297a	0.0428
20	0xaf20	-0.1113
21	0xa6a1	-0.0259
22	0x2634	0.02423
23	0x1df3	0.00581
24	0x0c98	0.0002804
25	0x986c	-0.00216
26	0x2af1	0.05423
27	0x1e18	0.00595
28	0x1ea6	0.006493
29	0xa5e0	-0.02295
30	0x2268	0.01251
31	0x2b0a	0.055
32	0x9f90	-0.007385
33	0xa625	-0.024
34	0x9d63	-0.00526
35	0x24a4	0.01813
36	0xa0f5	-0.00968
37	0x91c2	-0.000703
38	0x2b01	0.05472
39	0xb30e	-0.2205
40	0x144f	0.001052
41	0x9e7d	-0.006336
42	0xb4f2	-0.309
43	0x9fee	-0.007744
44	0xa744	-0.02838
45	0x2ad7	0.05344
46	0xb0e4	-0.1528
47	0x18f6	0.002422
48	0x2561	0.02101
49	0x225f	0.01244
50	0xad0d	-0.0789
51	0x0d82	0.0003362
52	0x24c5	0.01863
53	0x9ac5	-0.003305
54	0x8ecc	-0.0004148
55	0xa84e	-0.03363
56	0x2371	0.014534
57	0xa3cf	-0.01525
58	0x9c8e	-0.004448
59	0x9aa0	-0.003235
60	0x9e79	-0.00632
61	0x9f1b	-0.00694
62	0x9936	-0.002544
63	0x23a8	0.01495
64	0x9dec	-0.005783
65	0xb2a6	-0.2078
66	0x245a	0.017
67	0x965a	-0.001551
68	0xae8b	-0.10223
69	0xa1c5	-0.01127
70	0x1743	0.001773
71	0x94c3	-0.001163
72	0xac86	-0.0707
73	0x80ca	-1.204e-05
74	0x26d2	0.02664
75	0x96a1	-0.001618
76	0xaf22	-0.11145
77	0x1e1f	0.005978
78	0x20db	0.00948
79	0x2902	0.03912
80	0x158f	0.001357
81	0xa5ed	-0.02315
82	0x2ae7	0.05392
83	0x26c6	0.02646
84	0x1bea	0.003864
85	0x2024	0.00809
86	0x25b2	0.02225
87	0xa986	-0.04315
88	0xa98a	-0.04327
89	0x2d20	0.0801
90	0xa8d0	-0.0376
91	0x2ecf	0.1064
92	0x25c4	0.02252
93	0xa610	-0.02368
94	0xb5df	-0.367
95	0x17d4	0.001911
96	0x9a16	-0.002972
97	0x1fcc	0.007614
98	0xb02e	-0.1306
99	0xaac5	-0.0529
100	0x1d6a	0.005287
101	0xa54a	-0.02066
102	0x2046	0.00835
103	0xa268	-0.01251
104	0xb0ab	-0.1459
105	0x292a	0.04034
106	0x94e0	-0.00119
107	0x2050	0.00842
108	0x2722	0.02786
109	0xaa1a	-0.04767
110	0xa90c	-0.03943
111	0x2cdf	0.0761
112	0x947c	-0.001095
113	0x307e	0.1404
114	0xa8ec	-0.03845
115	0x2d5b	0.0837
116	0x2ee4	0.10767
117	0x38b3	0.5874
118	0xadd6	-0.0912
119	0xabb3	-0.06015
120	0x39de	0.7334
121	0x9634	-0.001514
122	0x194a	0.002583
123	0xa258	-0.01239
124	0x3610	0.379
125	0xa559	-0.02089
126	0xa5f8	-0.02332
127	0xa314	-0.013824
128	0x290a	0.03937
129	0xa46f	-0.01732
130	0xa670	-0.02515
131	0xa143	-0.01028
132	0x196d	0.00265
133	0xa47f	-0.01756
134	0x2766	0.0289
135	0x000c	7e-07
136	0x1493	0.001117
137	0xa2fa	-0.013626
138	0x9d93	-0.005444
139	0x2027	0.00811
140	0x1e37	0.00607
141	0x119b	0.0006843
142	0x97ba	-0.001886
143	0xac4d	-0.0672
144	0x2a21	0.04788
145	0xa850	-0.0337
146	0xb2f7	-0.2177
147	0x9b85	-0.003672
148	0x1e44	0.00612
149	0x21e8	0.011536
150	0xac51	-0.06744
151	0x1cae	0.00457
152	0x257e	0.02145
153	0x1748	0.001778
154	0x2561	0.02101
155	0x96c8	-0.001656
156	0x271a	0.02774
157	0x2494	0.01788
158	0x106c	0.00054
159	0x1f32	0.007027
160	0x9e2f	-0.00604
161	0x2a17	0.04758
162	0x9469	-0.001077
163	0xa325	-0.013954
164	0x1e29	0.006016
165	0xa685	-0.02547
166	0x2193	0.01089
167	0x260b	0.0236
168	0xa908	-0.0393
169	0xaa1b	-0.0477
170	0xa3ad	-0.01499
171	0x93a9	-0.000935
172	0x21ba	0.011185
173	0x9ae9	-0.003374
174	0x9bb4	-0.003761
175	0xa44f	-0.01683
176	0x2ce7	0.0766
177	0xa359	-0.01435
178	0xa86d	-0.03458
179	0x999a	-0.002735
180	0x27f7	0.03111
181	0xa14a	-0.01033
182	0x2864	0.0343
183	0xab0b	-0.05502
184	0x9c30	-0.00409
185	0xaa34	-0.04846
186	0x9d4b	-0.00517
187	0xa8e5	-0.03824
188	0x1d02	0.00489
189	0x9c9c	-0.0045
190	0xa0db	-0.00948
191	0xa534	-0.02032
192	0x1125	0.000628
193	0xaac3	-0.05283
194	0xa626	-0.02402
195	0x2f12	0.1105
196	0x281c	0.0321
197	0x21c6	0.01128
198	0xb4cd	-0.3
199	0x227e	0.01268
200	0x238f	0.01476
201	0xa8b8	-0.03687
202	0xb137	-0.163
203	0x1e1f	0.005978
204	0x2c83	0.0705
205	0x9d22	-0.005013
206	0xacb1	-0.0733
207	0x262a	0.02408
208	0x84af	-7.147e-05
209	0x2558	0.02087
210	0x0739	0.0001102
211	0x9c86	-0.004417
212	0x2670	0.02515
213	0xa945	-0.04117
214	0x1e3b	0.006084
215	0xa1e7	-0.01153
216	0x9118	-0.000622
217	0xa56f	-0.02122
218	0x0f22	0.0004354
219	0xa4e9	-0.01918
220	0xa603	-0.02348
221	0xaf30	-0.1123
222	0x980a	-0.001972
223	0x952b	-0.001262
224	0x3254	0.1978
225	0x9d9e	-0.005486
226	0x273f	0.0283
227	0xab71	-0.05814
228	0x1e5d	0.006214
229	0x09f2	0.0001814
230	0x0c12	0.0002484
231	0x1baa	0.003742
232	0x22ca	0.01326
233	0xa11f	-0.01
234	0x2180	0.01074
235	0x29c8	0.04517
236	0x9c91	-0.00446
237	0x126d	0.0007844
238	0x275a	0.02872
239	0x2a42	0.0489
240	0x12f1	0.0008473
241	0xa6a7	-0.02599
242	0x982d	-0.002039
243	0xa344	-0.01419
244	0x9c86	-0.004417
245	0x24b7	0.01842
246	0x268b	0.02556
247	0x3233	0.1937
248	0x239f	0.014885
249	0xa3b9	-0.01508
250	0x9e6c	-0.00627
251	0x9ae9	-0.003374
252	0xa1fe	-0.0117
253	0x2458	0.01697
254	0xaceb	-0.07684
255	0xa25b	-0.01241

arith.constant7 f2 [26, 3, 3, 26]
0	0x14cf	0.001174
1	0x98e7	-0.002394
2	0x9078	-0.0005455
3	0x9c43	-0.00416
4	0x20a6	0.00908
5	0xa1b6	-0.011154
6	0x1b17	0.003462
7	0x119d	0.000685
8	0x120b	0.0007377
9	0x932b	-0.000875
10	0x2ea3	0.1037
11	0x9ea5	-0.00649
12	0x9906	-0.002453
13	0x18c6	0.00233
14	0x243c	0.01654
15	0x95a4	-0.001377
16	0x9267	-0.0007815
17	0x1b73	0.003637
18	0x20d0	0.0094
19	0xa4e5	-0.01912
20	0x8cad	-0.0002854
21	0x9855	-0.002115
22	0x1527	0.001258
23	0x20a6	0.00908
24	0xa465	-0.01717
25	0xa801	-0.03128
26	0x1614	0.001484
27	0x9dcc	-0.00566
28	0xaada	-0.05353
29	0x1aa2	0.003239
30	0x18d9	0.002367
31	0x9fad	-0.007496
32	0x9dce	-0.00567
33	0x28fb	0.0389
34	0x08db	0.0001482
35	0x9cb8	-0.00461
36	0x2d1f	0.08
37	0x9ba4	-0.00373
38	0x0f89	0.00046
39	0xa93b	-0.04086
40	0x9a14	-0.002968
41	0x9892	-0.002232
42	0x9459	-0.001061
43	0xa069	-0.00861
44	0x16b2	0.001635
45	0x2525	0.0201
46	0x0ebe	0.0004115
47	0x94be	-0.001158
48	0x1c29	0.004063
49	0xa86c	-0.03455
50	0xa565	-0.02107
51	0xa794	-0.0296
52	0x107f	0.000549
53	0x9605	-0.00147
54	0xa560	-0.021
55	0x1f47	0.007107
56	0x919b	-0.0006843
57	0x1cb2	0.004585
58	0x9980	-0.002686
59	0x273d	0.02827
60	0x91dd	-0.0007157
61	0x9632	-0.001513
62	0x26de	0.02682
63	0x1ac8	0.003311
64	0x9a67	-0.003126
65	0xa054	-0.00845
66	0x1c72	0.00434
67	0x13ef	0.0009685
68	0x9c0e	-0.00396
69	0x9625	-0.0015
70	0x98f6	-0.002422
71	0xa797	-0.02965
72	0x8840	-0.0001297
73	0x98c0	-0.00232
74	0x1845	0.002085
75	0x2bad	0.05997
76	0xa9d6	-0.0456
77	0xa891	-0.03568
78	0x1cdd	0.00475
79	0x90a3	-0.000566
80	0xae22	-0.0958
81	0x1dcc	0.00566
82	0x194b	0.002584
83	0x9e62	-0.006233
84	0x250f	0.01976
85	0x27c5	0.03035
86	0x9a09	-0.002947
87	0x1a75	0.003153
88	0x2953	0.0416
89	0x1c6d	0.004322
90	0x94a0	-0.001129
91	0xac7b	-0.07
92	0x1e19	0.005955
93	0x905c	-0.000532
94	0x9573	-0.00133
95	0x9d26	-0.005028
96	0xa5a8	-0.0221
97	0x9e0b	-0.0059
98	0x9316	-0.000865
99	0x9984	-0.002693
100	0x17a5	0.001866
101	0x25be	0.02243
102	0x9ee9	-0.00675
103	0x2ad2	0.05328
104	0x8713	-0.00010794
105	0x1ae9	0.003374
106	0xaa50	-0.04932
107	0xafae	-0.12
108	0x1e12	0.005928
109	0x2bc2	0.0606
110	0xaf06	-0.10974
111	0x3a4b	0.7866
112	0x9b77	-0.003645
113	0x2008	0.00787
114	0x2b80	0.0586
115	0x90d4	-0.0005894
116	0xa3a1	-0.0149
117	0xb2d7	-0.2137
118	0x9944	-0.002571
119	0x243d	0.01656
120	0x9e5d	-0.006214
121	0x1d9c	0.005478
122	0x2f30	0.1123
123	0xa2c3	-0.01321
124	0x0236	3.374e-05
125	0x98f0	-0.00241
126	0xa1b2	-0.01112
127	0xab9a	-0.0594
128	0xacc1	-0.0743
129	0xabbe	-0.0605
130	0x1d0d	0.004932
131	0x14f6	0.001211
132	0xaadc	-0.0536
133	0x2018	0.007996
134	0x1600	0.001465
135	0x11d5	0.000712
136	0xa298	-0.01288
137	0x23f0	0.0155
138	0x1916	0.002483
139	0x1b38	0.003525
140	0x29f2	0.04645
141	0x1f5b	0.007183
142	0x1276	0.0007887
143	0x2cbb	0.0739
144	0x9c55	-0.00423
145	0x9d63	-0.00526
146	0x884a	-0.0001309
147	0x8ecd	-0.000415
148	0xa8e4	-0.0382
149	0x2575	0.02132
150	0x9237	-0.0007586
151	0x18c8	0.002335
152	0x1931	0.002535
153	0xa6b8	-0.02625
154	0xa03a	-0.008255
155	0x9d8b	-0.005413
156	0x1879	0.002184
157	0x176a	0.00181
158	0x29a6	0.04413
159	0xa094	-0.00894
160	0x1f7d	0.007313
161	0x1bd7	0.003828
162	0x9e8c	-0.006393
163	0xa14e	-0.01036
164	0x9551	-0.001298
165	0x162a	0.001505
166	0xa464	-0.01715
167	0x99c5	-0.002817
168	0x98b6	-0.0023
169	0xa8b4	-0.03674
170	0x95f0	-0.00145
171	0x1876	0.002178
172	0x17d9	0.001916
173	0x932e	-0.0008764
174	0x1f82	0.00733
175	0x9ed6	-0.006676
176	0x8c5e	-0.0002666
177	0x9987	-0.002699
178	0x0504	7.653e-05
179	0x9e0c	-0.005905
180	0x2141	0.01026
181	0x22e8	0.01349
182	0x1c0d	0.003956
183	0x9d4e	-0.00518
184	0x2297	0.01287
185	0x1d1a	0.004982
186	0x18f3	0.002417
187	0x1f86	0.007347
188	0x1324	0.0008717
189	0x27de	0.03073
190	0x18f8	0.002426
191	0x9b84	-0.00367
192	0x9930	-0.002533
193	0xa420	-0.01611
194	0xa563	-0.02104
195	0x2dd8	0.0913
196	0x185a	0.002125
197	0x9e18	-0.00595
198	0x1f7a	0.0073
199	0x14b3	0.001147
200	0x1604	0.001469
201	0x2700	0.02734
202	0x8864	-0.000134
203	0x184b	0.002096
204	0x9926	-0.002514
205	0xa523	-0.02007
206	0x8da0	-0.0003433
207	0x2651	0.02467
208	0x975b	-0.001796
209	0x97b1	-0.001878
210	0xa840	-0.0332
211	0x9497	-0.001121
212	0x9f21	-0.00696
213	0x9d3f	-0.005123
214	0x9d8b	-0.005413
215	0xa580	-0.02148
216	0x1061	0.0005345
217	0x90e2	-0.000596
218	0xa782	-0.02933
219	0x8bba	-0.0002358
220	0x9ff3	-0.007763
221	0x24f8	0.01941
222	0x17c0	0.001892
223	0x97b0	-0.001877
224	0x1761	0.0018015
225	0x89f9	-0.0001823
226	0xac1f	-0.0644
227	0x2510	0.01978
228	0x13ca	0.000951
229	0x9373	-0.0009093
230	0x1524	0.001255
231	0x1247	0.0007663
232	0xa09a	-0.00899
233	0xa1cb	-0.011314
234	0x2db9	0.0894
235	0x30c7	0.1493
236	0xbeba	-1.682
237	0xb016	-0.1277
238	0x24d0	0.0188
239	0x268a	0.02554
240	0x347a	0.2798
241	0x3404	0.251
242	0x1e24	0.005997
243	0xa0f2	-0.00966
244	0x30c3	0.1488
245	0xb3ba	-0.2415
246	0xaa08	-0.04712
247	0x2cfc	0.0779
248	0xb196	-0.1746
249	0x2eec	0.10815
250	0x318f	0.1737
251	0x31d2	0.1819
252	0xb9dd	-0.733
253	0x3127	0.161
254	0x20b3	0.00918
255	0xaf8c	-0.1179

arith.constant8 f2 [26, 3, 3, 26]
0	0xad52	-0.0831
1	0xac58	-0.0679
2	0x3081	0.1407
3	0x395c	0.67
4	0x3890	0.5703
5	0xb08f	-0.1425
6	0xb703	-0.4382
7	0x2988	0.0432
8	0xb9fd	-0.7485
9	0xb2ed	-0.2164
10	0xb55b	-0.3347
11	0x3c9d	1.153
12	0x3e1e	1.529
13	0x3922	0.6416
14	0x2393	0.01479
15	0xaced	-0.07697
16	0x3507	0.3142
17	0x30e6	0.1531
18	0xb15f	-0.1678
19	0x391f	0.64
20	0xc03d	-2.12
21	0x38fc	0.623
22	0xb430	-0.2617
23	0xba7e	-0.8115
24	0x3b0c	0.881
25	0x2e75	0.1009
26	0xb45a	-0.272
27	0x3112	0.1584
28	0xb105	-0.1569
29	0xb5cd	-0.3625
30	0xb409	-0.2522
31	0x287a	0.03497
32	0x365d	0.3977
33	0x2f0c	0.1101
34	0x36a2	0.4146
35	0xb433	-0.2625
36	0x3475	0.2786
37	0x34ff	0.3123
38	0x3e7d	1.622
39	0x3b24	0.8926
40	0xaa4d	-0.04922
41	0xab7a	-0.0584
42	0xa8c9	-0.03738
43	0x32d9	0.214
44	0xad1d	-0.0799
45	0xaffe	-0.1249
46	0x3dff	1.499
47	0x361d	0.382
48	0x318a	0.1731
49	0x3c5e	1.092
50	0xbd79	-1.368
51	0xac79	-0.0699
52	0xacc9	-0.07477
53	0x3246	0.196
54	0x2e64	0.09985
55	0x3133	0.1625
56	0xac4a	-0.067
57	0xb38e	-0.2361
58	0x29ac	0.0443
59	0xa629	-0.02406
60	0x38e9	0.614
61	0xb678	-0.4043
62	0xb299	-0.2062
63	0x3612	0.3794
64	0x3896	0.573
65	0x3030	0.1309
66	0x33bc	0.2417
67	0x32d8	0.2139
68	0xaf28	-0.1118
69	0x35e1	0.3674
70	0xbabb	-0.8413
71	0xb9b8	-0.715
72	0x2cb7	0.07367
73	0xa503	-0.01958
74	0xacb0	-0.07324
75	0xb4b0	-0.293
76	0xae16	-0.0951
77	0xb3d5	-0.2448
78	0xbe6e	-1.607
79	0x326d	0.2008
80	0x3379	0.2335
81	0xbcb2	-1.174
82	0xc337	-3.607
83	0xbac6	-0.8467
84	0x37fe	0.4995
85	0x394d	0.6626
86	0x41af	2.842
87	0x3f25	1.786
88	0xc27e	-3.246
89	0xcac7	-13.555
90	0x3fce	1.951
91	0x44cb	4.793
92	0xb8f9	-0.6216
93	0x2d81	0.086
94	0xb122	-0.1604
95	0x3442	0.266
96	0xbefe	-1.748
97	0x497c	10.97
98	0x44ab	4.668
99	0x4534	5.203
100	0x36d9	0.428
101	0x3d14	1.27
102	0x3461	0.2737
103	0x39a2	0.704
104	0x3d0c	1.262
105	0x3160	0.168
106	0xb760	-0.461
107	0x3838	0.5273
108	0x40c7	2.389
109	0x3cf5	1.239
110	0x3c3c	1.059
111	0x2c3f	0.06635
112	0xbe28	-1.539
113	0xc09c	-2.305
114	0x42b7	3.357
115	0x344a	0.268
116	0xcac9	-13.57
117	0xc3c6	-3.887
118	0xad33	-0.08124
119	0x2d78	0.08545
120	0x3946	0.659
121	0xb9de	-0.7334
122	0xb080	-0.1406
123	0xc3ce	-3.902
124	0xc5b5	-5.707
125	0xc91c	-10.22
126	0xb2a4	-0.2075
127	0xbdd7	-1.46
128	0xbb6e	-0.9287
129	0x383d	0.53
130	0x362d	0.386
131	0xb07c	-0.1401
132	0xb3f5	-0.2487
133	0xbb17	-0.886
134	0x381a	0.5127
135	0x30db	0.1517
136	0xa264	-0.01248
137	0xa60e	-0.02365
138	0xaff7	-0.12445
139	0xb8f6	-0.62
140	0x3812	0.509
141	0xb1ca	-0.1809
142	0xc692	-6.57
143	0xbbc5	-0.971
144	0xb531	-0.3245
145	0xb41b	-0.2566
146	0x0ea0	0.0004044
147	0xada9	-0.08844
148	0xb398	-0.2373
149	0x3641	0.3909
150	0x3a8c	0.8184
151	0xbe2f	-1.546
152	0x2c17	0.0639
153	0x3192	0.1741
154	0xba84	-0.8145
155	0x36b7	0.4197
156	0xb423	-0.2585
157	0x2e38	0.09717
158	0x358d	0.347
159	0xb85c	-0.545
160	0xbb58	-0.918
161	0xb46b	-0.2761
162	0x3405	0.2512
163	0xb979	-0.684
164	0xb694	-0.4111
165	0x3a76	0.8076
166	0xb89a	-0.575
167	0x35d7	0.365
168	0x370e	0.441
169	0xb52e	-0.3237
170	0xb752	-0.4575
171	0x31b6	0.1785
172	0x3686	0.4077
173	0x35a1	0.3518
174	0xbd50	-1.328
175	0x355a	0.3345
176	0x4181	2.752
177	0x3a78	0.8086
178	0xb6dd	-0.429
179	0x40c3	2.38
180	0xb0e1	-0.1525
181	0x3684	0.4072
182	0x3705	0.4387
183	0x3062	0.137
184	0xb5a4	-0.3525
185	0xb5e8	-0.3691
186	0x3495	0.2864
187	0x2e7e	0.10144
188	0xb43f	-0.2654
189	0x311c	0.1597
190	0x299d	0.04385
191	0xb9cf	-0.726
192	0x386f	0.554
193	0x2a2a	0.04816
194	0x3772	0.4653
195	0x39e3	0.736
196	0xaf12	-0.1105
197	0xab0e	-0.0551
198	0x2f99	0.1187
199	0xb586	-0.3452
200	0xb61f	-0.3826
201	0xb490	-0.2852
202	0xc24d	-3.15
203	0x3c16	1.021
204	0x2de3	0.092
205	0xc158	-2.672
206	0x38a1	0.5786
207	0x3410	0.254
208	0xadb6	-0.08923
209	0x335c	0.23
210	0x2f6a	0.11584
211	0xa15e	-0.01048
212	0x3b5e	0.921
213	0xb2ab	-0.2084
214	0x2404	0.01569
215	0xb07a	-0.1399
216	0x3226	0.1921
217	0xb57e	-0.3433
218	0xb47e	-0.2808
219	0x344e	0.269
220	0xb2ae	-0.2087
221	0xa6ad	-0.02608
222	0xacbc	-0.074
223	0x25af	0.0222
224	0x2ce2	0.0763
225	0x377a	0.4673
226	0x2ad6	0.0534
227	0xbacd	-0.85
228	0x359d	0.3508
229	0x3962	0.673
230	0x29cf	0.04538
231	0x2afa	0.0545
232	0x3811	0.5083
233	0x35f9	0.3733
234	0xaeab	-0.1042
235	0x20df	0.009514
236	0x2535	0.02034
237	0x3443	0.2664
238	0x37e7	0.494
239	0x273f	0.0283
240	0x2859	0.03397
241	0xb100	-0.1562
242	0xb248	-0.1963
243	0xb859	-0.5435
244	0xa8d4	-0.03772
245	0x2b07	0.0549
246	0xb0ee	-0.154
247	0xb6e5	-0.431
248	0xa0a0	-0.00903
249	0xa02c	-0.00815
250	0xac39	-0.066
251	0x3028	0.1299
252	0xac29	-0.065
253	0x3bc4	0.9707
254	0x3102	0.1565
255	0xb411	-0.2542

arith.constant9 f2 [26, 3, 3, 26]
0	0xa5c2	-0.02249
1	0xa667	-0.02501
2	0xa711	-0.0276
3	0xaa8d	-0.05118
4	0x95b8	-0.001396
5	0x2797	0.02965
6	0x1ece	0.006645
7	0x1ead	0.00652
8	0xa473	-0.01738
9	0xa7ed	-0.03096
10	0x26dd	0.02681
11	0x1e40	0.006104
12	0x2e6c	0.10034
13	0xa8c2	-0.03717
14	0x2746	0.02841
15	0xb034	-0.1313
16	0x2b9b	0.05942
17	0x31c3	0.18
18	0x1cc8	0.00467
19	0xa7f2	-0.03104
20	0x24f3	0.01933
21	0xa230	-0.012085
22	0x2766	0.0289
23	0x9d98	-0.005463
24	0x2b78	0.05835
25	0x1817	0.001997
26	0xa4ec	-0.01923
27	0x2d05	0.0784
28	0x31b3	0.1781
29	0xa8db	-0.03793
30	0x2f8c	0.1179
31	0xa43a	-0.01651
32	0x1b4d	0.003565
33	0xa50f	-0.01976
34	0xa295	-0.012856
35	0xab0a	-0.055
36	0xaaf8	-0.05444
37	0x2918	0.0398
38	0x2a9e	0.0517
39	0x286b	0.03452
40	0xa601	-0.02345
41	0xb14f	-0.1659
42	0xa898	-0.0359
43	0xa55c	-0.02094
44	0x9c65	-0.00429
45	0xaa73	-0.05038
46	0x1b06	0.00343
47	0xacd8	-0.0757
48	0xb4f0	-0.3086
49	0x2153	0.0104
50	0x306c	0.1382
51	0x8d88	-0.0003376
52	0x0e09	0.0003684
53	0x2558	0.02087
54	0xa798	-0.02966
55	0xa62e	-0.02414
56	0x28a0	0.03613
57	0x290d	0.03946
58	0x2181	0.01075
59	0x17a1	0.001863
60	0x1adb	0.003347
61	0x25e2	0.02298
62	0x2a6d	0.0502
63	0xa0b0	-0.009155
64	0x2cb6	0.0736
65	0x9f4a	-0.00712
66	0x8e05	-0.0003674
67	0xae05	-0.09406
68	0xaa55	-0.04947
69	0x238f	0.01476
70	0x231c	0.013885
71	0xa125	-0.01005
72	0x9ff9	-0.007786
73	0xa14e	-0.01036
74	0x23a7	0.014946
75	0x1e6b	0.006268
76	0xa570	-0.02124
77	0x200d	0.00791
78	0xa7cd	-0.03047
79	0xa09c	-0.009
80	0x2da2	0.088
81	0xac90	-0.0713
82	0x2e50	0.09863
83	0xaf18	-0.11084
84	0xab1d	-0.05557
85	0x21ce	0.01134
86	0xa2c3	-0.01321
87	0xb1e8	-0.1846
88	0x2f21	0.1114
89	0x2fd1	0.12213
90	0xb6ad	-0.4172
91	0xa766	-0.0289
92	0xad32	-0.0812
93	0x31e2	0.1838
94	0x2d3a	0.08167
95	0xaa77	-0.0505
96	0x22d3	0.01333
97	0xab30	-0.05615
98	0xa1e0	-0.011475
99	0xa0ca	-0.00935
100	0x309d	0.1442
101	0x1618	0.001488
102	0x344c	0.2686
103	0x2b22	0.05573
104	0xac30	-0.0654
105	0xa841	-0.03323
106	0xb45b	-0.2722
107	0xadd7	-0.09125
108	0xadba	-0.0895
109	0xb04f	-0.1346
110	0xace2	-0.0763
111	0x2205	0.01176
112	0x3111	0.1583
113	0xae2f	-0.0966
114	0x2d6f	0.0849
115	0x2978	0.04272
116	0x364c	0.3936
117	0xa2b2	-0.01308
118	0x1dfb	0.00584
119	0x24ff	0.01952
120	0x313e	0.1638
121	0x26cb	0.02654
122	0xa088	-0.00885
123	0xa95f	-0.04196
124	0x24a4	0.01813
125	0x2ec3	0.10565
126	0x9d26	-0.005028
127	0xa0f9	-0.00971
128	0xb494	-0.2861
129	0xab35	-0.0563
130	0xa4b2	-0.01834
131	0x223d	0.012184
132	0x2b7b	0.05844
133	0xa4e2	-0.01907
134	0xaa87	-0.051
135	0xac44	-0.06665
136	0xa42c	-0.0163
137	0x971c	-0.001736
138	0x295a	0.0418
139	0xa238	-0.012146
140	0x258e	0.0217
141	0xa01d	-0.00803
142	0xa06d	-0.008644
143	0x15b5	0.001393
144	0x298a	0.04327
145	0x32e9	0.216
146	0x2f52	0.1144
147	0xad3b	-0.0817
148	0x25dc	0.02289
149	0xa10f	-0.00988
150	0xaa49	-0.0491
151	0x1c6b	0.004314
152	0xa568	-0.02112
153	0xa09a	-0.00899
154	0x1fda	0.007668
155	0x1ba0	0.003723
156	0xa3c1	-0.015144
157	0x24cc	0.01874
158	0xa721	-0.02785
159	0xa67e	-0.02536
160	0x2c62	0.0685
161	0xb09f	-0.1444
162	0xa38a	-0.014725
163	0xa26e	-0.01256
164	0x1d5b	0.00523
165	0xa771	-0.02907
166	0x31d5	0.1823
167	0x96ea	-0.001688
168	0xa66a	-0.02505
169	0x99aa	-0.002766
170	0x2836	0.0329
171	0xaf92	-0.1183
172	0x2985	0.04312
173	0x2c78	0.0698
174	0x213b	0.010216
175	0xa714	-0.02765
176	0xa838	-0.03296
177	0xa675	-0.02522
178	0x97d1	-0.001908
179	0x1b74	0.00364
180	0x969e	-0.001616
181	0x2917	0.03976
182	0xa90d	-0.03946
183	0x2c36	0.0658
184	0x30bf	0.1483
185	0xa7bf	-0.03026
186	0xa5cf	-0.02269
187	0xb053	-0.1351
188	0xa86b	-0.03452
189	0x2074	0.0087
190	0x249b	0.01799
191	0x2f14	0.1106
192	0x2b8c	0.05896
193	0xa167	-0.01055
194	0xa944	-0.04114
195	0xa45b	-0.01701
196	0x15a4	0.001377
197	0x333b	0.226
198	0xa960	-0.042
199	0x3196	0.1746
200	0x2223	0.011986
201	0xa447	-0.01671
202	0xa177	-0.01067
203	0x9c49	-0.004185
204	0x2e65	0.0999
205	0x9c3a	-0.004128
206	0xa873	-0.03476
207	0x228b	0.01278
208	0xa73c	-0.02826
209	0x27bf	0.03026
210	0xaafd	-0.0546
211	0xa397	-0.014824
212	0xa074	-0.0087
213	0xa618	-0.0238
214	0xa034	-0.00821
215	0x1e4f	0.00616
216	0x2322	0.01393
217	0xaded	-0.0926
218	0x3068	0.1377
219	0x2161	0.010506
220	0x9da8	-0.005524
221	0x1de4	0.005753
222	0x28f6	0.03876
223	0xb038	-0.1318
224	0x24e7	0.01915
225	0xa181	-0.01075
226	0x271e	0.0278
227	0xa464	-0.01715
228	0xa4e3	-0.01909
229	0xa8ef	-0.03854
230	0xb408	-0.252
231	0x1d38	0.005096
232	0xa57e	-0.02145
233	0x281b	0.03207
234	0x1a2e	0.003017
235	0x1b04	0.003426
236	0x2c95	0.0716
237	0x1da9	0.005527
238	0x2ba3	0.05966
239	0xa895	-0.0358
240	0x2145	0.01029
241	0x11ea	0.000722
242	0x9e81	-0.00635
243	0x108c	0.000555
244	0x9b74	-0.00364
245	0x23fc	0.015594
246	0xa843	-0.0333
247	0x2894	0.03577
248	0xa75d	-0.02876
249	0xad4e	-0.0829
250	0x2499	0.01796
251	0x2968	0.04224
252	0xa324	-0.01395
253	0x1c12	0.003975
254	0x98c1	-0.002321
255	0xa515	-0.01985

arith.constant10 f2 [26, 3, 3, 26]
0	0x3344	0.227
1	0xacf9	-0.0777
2	0xa358	-0.01434
3	0x1d46	0.00515
4	0xb56b	-0.3386
5	0xae50	-0.09863
6	0x3032	0.1311
7	0xa654	-0.02472
8	0x3089	0.1417
9	0x21d7	0.011406
10	0xa7b4	-0.03009
11	0x2f93	0.11835
12	0x2554	0.02081
13	0x2c5e	0.06824
14	0x0d9e	0.0003428
15	0xa852	-0.03375
16	0x1878	0.002182
17	0xa4b6	-0.0184
18	0x1708	0.001717
19	0xab52	-0.0572
20	0x2821	0.03226
21	0xa6cf	-0.0266
22	0xaa97	-0.05148
23	0xa5d0	-0.0227
24	0xaa80	-0.05078
25	0x9eb2	-0.00654
26	0xa407	-0.01573
27	0xaec3	-0.10565
28	0x3010	0.127
29	0x27ad	0.02998
30	0xa7b3	-0.03008
31	0x270e	0.02756
32	0x2891	0.03568
33	0xb2a2	-0.2073
34	0x2909	0.03934
35	0x2a12	0.04742
36	0xa5eb	-0.02312
37	0xa2ba	-0.01314
38	0x2c26	0.0648
39	0xa708	-0.02747
40	0xae62	-0.09973
41	0xa7a7	-0.02989
42	0xa90b	-0.0394
43	0x31bc	0.1792
44	0x290f	0.03952
45	0x2a3c	0.0487
46	0xabab	-0.0599
47	0xaec0	-0.10547
48	0xaf7e	-0.11707
49	0xa804	-0.03137
50	0x9d25	-0.005024
51	0xa7d8	-0.03064
52	0x2654	0.02472
53	0x262e	0.02414
54	0xa82a	-0.03253
55	0xa83b	-0.03305
56	0xb494	-0.2861
57	0x986c	-0.00216
58	0x257f	0.02147
59	0x2818	0.03198
60	0x2f12	0.1105
61	0xac71	-0.0694
62	0xa62c	-0.02411
63	0x2e24	0.09595
64	0x2c48	0.0669
65	0xa0e4	-0.00955
66	0xad7c	-0.0857
67	0x9c0f	-0.003963
68	0x28ff	0.03903
69	0xa27d	-0.01267
70	0x2ae9	0.054
71	0xa61f	-0.02391
72	0xa40b	-0.0158
73	0x2a68	0.05005
74	0xab0e	-0.0551
75	0x122f	0.000755
76	0xa925	-0.0402
77	0xa0c2	-0.00929
78	0x30a1	0.1447
79	0xb13e	-0.1638
80	0x32eb	0.2162
81	0xa853	-0.03378
82	0xb05c	-0.1362
83	0x3050	0.1348
84	0x2c85	0.0706
85	0x2352	0.0143
86	0x2d48	0.0825
87	0x2b09	0.05496
88	0x29b9	0.0447
89	0x3228	0.1924
90	0x26ed	0.02705
91	0xacc1	-0.0743
92	0xae9d	-0.10333
93	0x1fcc	0.007614
94	0x34d7	0.3025
95	0x349b	0.2878
96	0x20d6	0.009445
97	0x2e2c	0.09644
98	0x2d68	0.0845
99	0xad15	-0.0794
100	0x1eea	0.006752
101	0x2e94	0.1028
102	0xafa1	-0.1192
103	0x9288	-0.0007973
104	0x38ad	0.5845
105	0x3841	0.5317
106	0xae59	-0.0992
107	0xabd1	-0.06107
108	0x4058	2.172
109	0xa47e	-0.01755
110	0x31a8	0.1768
111	0xb2a7	-0.2079
112	0xbb0a	-0.88
113	0xb261	-0.1993
114	0xb12b	-0.1615
115	0xa817	-0.03195
116	0xb0ff	-0.1561
117	0x9d92	-0.00544
118	0x2e76	0.10095
119	0x2827	0.03244
120	0xad2d	-0.0809
121	0x35e2	0.3677
122	0x325d	0.1989
123	0x34fb	0.3113
124	0x39b8	0.715
125	0xa155	-0.010414
126	0xaea0	-0.1035
127	0x334b	0.2279
128	0xb4eb	-0.3074
129	0x3057	0.1356
130	0xb5bc	-0.3584
131	0xabb9	-0.06033
132	0x2da8	0.0884
133	0xaaf5	-0.05435
134	0xb897	-0.5737
135	0xaa5c	-0.04968
136	0xabeb	-0.06186
137	0xada5	-0.0882
138	0x34ab	0.2917
139	0x314e	0.1658
140	0xa2e0	-0.01343
141	0x2f17	0.1108
142	0x1b2b	0.0035
143	0x25f7	0.0233
144	0x2c1c	0.0642
145	0xa186	-0.01079
146	0x307a	0.1399
147	0x3159	0.1671
148	0xaa6d	-0.0502
149	0x2da4	0.08813
150	0x2ffc	0.12476
151	0xa710	-0.02759
152	0x30dc	0.1519
153	0x2c27	0.0649
154	0x2b04	0.0548
155	0x295f	0.04196
156	0x2dee	0.09265
157	0xa7f1	-0.03102
158	0xa9d8	-0.04565
159	0xa87f	-0.03513
160	0xb6c2	-0.4224
161	0xac8b	-0.071
162	0x213f	0.01025
163	0xafaa	-0.11975
164	0x3102	0.1565
165	0x32a6	0.2078
166	0x190c	0.002464
167	0x9616	-0.001486
168	0x2cb8	0.0737
169	0x2a06	0.04706
170	0x26b3	0.02617
171	0xaab8	-0.0525
172	0xaa25	-0.048
173	0xacac	-0.073
174	0x30ef	0.1542
175	0xac09	-0.06305
176	0x2c24	0.0647
177	0xa062	-0.00856
178	0xa0e9	-0.00959
179	0xa3db	-0.01534
180	0x271a	0.02774
181	0x2718	0.02771
182	0xa8bc	-0.037
183	0x28c1	0.03714
184	0xab0d	-0.05508
185	0xa903	-0.03915
186	0x27d1	0.03053
187	0x1946	0.002575
188	0x315d	0.1676
189	0xb2c1	-0.211
190	0xa921	-0.04007
191	0x31f1	0.1857
192	0xac21	-0.0645
193	0xad94	-0.08716
194	0x2d23	0.08026
195	0xa8c5	-0.03726
196	0xa9d2	-0.04547
197	0xa942	-0.04108
198	0x2535	0.02034
199	0x3083	0.141
200	0x3688	0.4082
201	0x2eb0	0.1045
202	0x2b15	0.05533
203	0xa70a	-0.0275
204	0xb44c	-0.2686
205	0x1bf6	0.003887
206	0xa589	-0.02162
207	0x3026	0.1296
208	0x31a7	0.1766
209	0xad60	-0.084
210	0xb11f	-0.16
211	0xa961	-0.04202
212	0x3415	0.2551
213	0x299a	0.04376
214	0xa1b1	-0.011116
215	0x185d	0.00213
216	0xa8d3	-0.0377
217	0x2f96	0.1185
218	0x27c3	0.03032
219	0x288b	0.0355
220	0x1c80	0.004395
221	0xa25f	-0.01244
222	0x2c9e	0.07214
223	0x1ae5	0.003366
224	0x31a9	0.1769
225	0x07ae	0.0001172
226	0x2fae	0.12
227	0x2aea	0.05402
228	0xa505	-0.0196
229	0x2a0f	0.04733
230	0xa99b	-0.0438
231	0x25b9	0.02235
232	0x2c53	0.06757
233	0x9c3e	-0.004143
234	0x2d6b	0.08466
235	0xa890	-0.03564
236	0x26b3	0.02617
237	0xa673	-0.02519
238	0xaacb	-0.05307
239	0x28a1	0.03616
240	0x1be8	0.00386
241	0x32c5	0.2115
242	0x9dc1	-0.00562
243	0xab86	-0.05878
244	0xabe4	-0.06165
245	0x20ce	0.009384
246	0x9e2b	-0.006023
247	0xa879	-0.03494
248	0xaeab	-0.1042
249	0x1c07	0.003933
250	0x2593	0.02177
251	0x287d	0.03506
252	0xa73d	-0.02827
253	0x2a29	0.04813
254	0x278c	0.02948
255	0xa8cf	-0.03757

arith.constant11 f2 [26, 3, 3, 26]
0	0x266e	0.02512
1	0xb2a8	-0.208
2	0x2c3c	0.06616
3	0xadc3	-0.09
4	0x34ff	0.3123
5	0x2848	0.03345
6	0x2d1f	0.08
7	0xa953	-0.0416
8	0xac3e	-0.0663
9	0x9f32	-0.007027
10	0x2632	0.0242
11	0x2842	0.03326
12	0x3290	0.2051
13	0x2db6	0.08923
14	0xb257	-0.1981
15	0xb261	-0.1993
16	0xacc9	-0.07477
17	0x229a	0.01289
18	0xb4cf	-0.3005
19	0x33f1	0.2482
20	0x29a7	0.04416
21	0x95f8	-0.001457
22	0xa892	-0.0357
23	0xac2b	-0.0651
24	0x2877	0.03488
25	0x250e	0.01974
26	0x2f7a	0.1168
27	0xb18b	-0.1732
28	0x2781	0.02931
29	0xb065	-0.1373
30	0x34e0	0.3047
31	0x34e7	0.3064
32	0xb726	-0.4468
33	0xa7ae	-0.03
34	0xb23c	-0.1948
35	0x2db2	0.089
36	0x2d31	0.0811
37	0x30bc	0.148
38	0x2f24	0.1116
39	0xa548	-0.02063
40	0x2e3c	0.0974
41	0x383c	0.5293
42	0xac10	-0.0635
43	0xa833	-0.0328
44	0x2908	0.0393
45	0x383b	0.529
46	0xb09b	-0.1439
47	0x2e60	0.0996
48	0xaf47	-0.1137
49	0xb2de	-0.2146
50	0x2b51	0.05716
51	0x296e	0.04242
52	0xafb8	-0.1206
53	0x20a2	0.00905
54	0x2912	0.0396
55	0xb192	-0.1741
56	0x37cb	0.487
57	0x2c9d	0.0721
58	0x31d1	0.1818
59	0xa173	-0.01064
60	0xae36	-0.09705
61	0x3276	0.2019
62	0x3084	0.1411
63	0x30ec	0.1538
64	0x3259	0.1984
65	0x23d9	0.01533
66	0x2792	0.02957
67	0xb0f3	-0.1547
68	0x3303	0.2191
69	0xb104	-0.1567
70	0x32eb	0.2162
71	0x38e7	0.613
72	0xb26c	-0.2007
73	0xb09a	-0.1438
74	0xac3d	-0.0662
75	0xaa4a	-0.04913
76	0xad37	-0.0815
77	0x296b	0.04233
78	0x2b08	0.05493
79	0x308f	0.1425
80	0x2a83	0.05087
81	0x9c3d	-0.00414
82	0x21b5	0.01115
83	0x1baa	0.003742
84	0xb2ce	-0.2126
85	0xa157	-0.01043
86	0x23f1	0.01551
87	0x2e7e	0.10144
88	0x303f	0.1327
89	0xab8e	-0.05902
90	0xb30a	-0.22
91	0xa6a1	-0.0259
92	0x2012	0.00795
93	0x1495	0.001119
94	0xaf7d	-0.117
95	0x2a66	0.05
96	0x3027	0.1298
97	0x3131	0.1622
98	0xa65a	-0.02481
99	0xa943	-0.0411
100	0x2c27	0.0649
101	0x97ae	-0.001875
102	0xae79	-0.10114
103	0xad76	-0.0853
104	0x38aa	0.583
105	0x2cc3	0.0744
106	0xad16	-0.07947
107	0xb1e4	-0.1841
108	0x383f	0.531
109	0x2b7e	0.05853
110	0x3a5c	0.795
111	0x25e9	0.02309
112	0xb285	-0.2037
113	0x322b	0.1927
114	0xb57e	-0.3433
115	0xb18e	-0.1736
116	0x2fe3	0.1232
117	0x1aa3	0.00324
118	0xa5f9	-0.02333
119	0xb8b4	-0.588
120	0xb0a8	-0.1455
121	0xb67a	-0.4048
122	0x38a0	0.578
123	0xabd7	-0.06125
124	0x3691	0.4104
125	0xb3e8	-0.2471
126	0x2f19	0.1109
127	0x3823	0.517
128	0xb1df	-0.1835
129	0xb366	-0.2312
130	0x2e45	0.09796
131	0xb04f	-0.1346
132	0xa239	-0.01215
133	0xab83	-0.0587
134	0xb424	-0.2588
135	0xacd3	-0.0754
136	0xb070	-0.1387
137	0x2b37	0.05637
138	0xb39b	-0.2377
139	0x3052	0.135
140	0x2f49	0.11383
141	0xaf16	-0.1107
142	0x306c	0.1382
143	0x2ca1	0.0723
144	0x345c	0.2725
145	0x38ca	0.5986
146	0x3377	0.2333
147	0x2be9	0.0618
148	0xb930	-0.6484
149	0x305c	0.1362
150	0xb47f	-0.281
151	0xb192	-0.1741
152	0x2cb5	0.07355
153	0x3607	0.3767
154	0xaf3c	-0.11304
155	0x2ef3	0.1086
156	0x2e94	0.1028
157	0x31a1	0.1759
158	0x1f08	0.006866
159	0xb28f	-0.205
160	0xb2f9	-0.2179
161	0x2e0b	0.0944
162	0x35d0	0.3633
163	0x3066	0.1375
164	0xb046	-0.1335
165	0x33b6	0.241
166	0x2e9a	0.10315
167	0x3188	0.1729
168	0x33b1	0.2404
169	0xabe9	-0.0618
170	0x9544	-0.001286
171	0x2f48	0.1138
172	0x2a6b	0.05014
173	0xab7b	-0.05844
174	0xb481	-0.2815
175	0x3062	0.137
176	0xb15c	-0.1675
177	0xb1ff	-0.1874
178	0xa81e	-0.03217
179	0x1a5a	0.003101
180	0xaf10	-0.11035
181	0x315f	0.1678
182	0x2552	0.02078
183	0x26c0	0.02637
184	0xac54	-0.0676
185	0xab08	-0.05493
186	0x2cec	0.0769
187	0x244e	0.01682
188	0xb323	-0.223
189	0x2903	0.03915
190	0x2754	0.02863
191	0x31b0	0.1777
192	0xad2b	-0.08075
193	0xacc4	-0.07446
194	0x2936	0.0407
195	0x2c8f	0.0712
196	0x319b	0.1752
197	0x349c	0.288
198	0x3324	0.2231
199	0x2139	0.0102
200	0x33cb	0.2435
201	0x32ed	0.2164
202	0x2508	0.01965
203	0x9992	-0.00272
204	0x2c0f	0.0634
205	0x2fb7	0.12054
206	0x2aea	0.05402
207	0x25e4	0.02301
208	0xab6b	-0.05795
209	0xb00a	-0.1262
210	0x24b2	0.01834
211	0xad9f	-0.0878
212	0x37a0	0.4766
213	0x29c8	0.04517
214	0xac4b	-0.0671
215	0xae81	-0.1016
216	0x2b69	0.0579
217	0xae18	-0.0952
218	0x2ee4	0.10767
219	0x2ba0	0.05957
220	0x2ca5	0.0726
221	0xabaa	-0.05988
222	0xac39	-0.066
223	0xa586	-0.02158
224	0xaceb	-0.07684
225	0xb0e6	-0.1531
226	0x34cd	0.3
227	0x37a9	0.4788
228	0xa828	-0.03247
229	0xb12f	-0.162
230	0x1f4a	0.00712
231	0xad20	-0.0801
232	0xa015	-0.00797
233	0x2a82	0.05084
234	0x27b0	0.03003
235	0xa78a	-0.02945
236	0xa85f	-0.03415
237	0x30fd	0.1559
238	0x3702	0.438
239	0xac02	-0.0626
240	0xb0c3	-0.1488
241	0xaee4	-0.10767
242	0x2e96	0.1029
243	0x2b99	0.05936
244	0xaec3	-0.10565
245	0xb437	-0.2634
246	0xaff8	-0.1245
247	0x22cc	0.013275
248	0x286b	0.03452
249	0x3205	0.1881
250	0xac88	-0.0708
251	0x28ea	0.0384
252	0xaff3	-0.1242
253	0x2de5	0.0921
254	0x2f54	0.1145
255	0x31ac	0.1772

arith.constant12 f2 [26, 3, 3, 26]
0	0x2820	0.03223
1	0xb32f	-0.2245
2	0xaf5b	-0.1149
3	0x351d	0.3196
4	0x2476	0.01743
5	0x285f	0.03415
6	0xada2	-0.088
7	0x30f6	0.155
8	0x2dcd	0.09064
9	0xba99	-0.8247
10	0x3154	0.1665
11	0xafb7	-0.12054
12	0x2ea5	0.1038
13	0x2d40	0.08203
14	0xa1f7	-0.01165
15	0x2447	0.01671
16	0x2d49	0.0826
17	0xa8ef	-0.03854
18	0x2d2a	0.0807
19	0x32f5	0.2174
20	0xaab0	-0.05225
21	0xad86	-0.0863
22	0x29b8	0.04468
23	0xade8	-0.0923
24	0x340a	0.2524
25	0x25a8	0.0221
26	0x317f	0.1718
27	0x30aa	0.1458
28	0xac1b	-0.06415
29	0x2aa7	0.05197
30	0xa2c2	-0.0132
31	0x27dd	0.03072
32	0x30f1	0.1544
33	0x242d	0.01631
34	0x345b	0.2722
35	0xbfd3	-1.956
36	0x1ba3	0.003729
37	0xa76f	-0.02904
38	0xa7a6	-0.02988
39	0x2237	0.01214
40	0xb0d7	-0.1512
41	0xb341	-0.2267
42	0xa500	-0.01953
43	0x2491	0.01784
44	0x2c02	0.0626
45	0xac8f	-0.0712
46	0x28e0	0.0381
47	0x34ae	0.2925
48	0xad6f	-0.0849
49	0x334b	0.2279
50	0xb025	-0.1295
51	0xadd8	-0.0913
52	0xaab2	-0.0523
53	0x31ef	0.1854
54	0xb0d0	-0.1504
55	0xb2b1	-0.2091
56	0xae4d	-0.09845
57	0x2625	0.024
58	0x2cc2	0.07434
59	0xa49d	-0.01802
60	0xb1e4	-0.1841
61	0x39bd	0.7173
62	0xb2ac	-0.2085
63	0xadc9	-0.0904
64	0x2b77	0.05832
65	0x26e0	0.02686
66	0x2928	0.04028
67	0xae62	-0.09973
68	0xb076	-0.1394
69	0x2d14	0.07935
70	0xaa10	-0.04736
71	0x2f52	0.1144
72	0xad30	-0.08105
73	0x20b9	0.009224
74	0xa833	-0.0328
75	0x30c5	0.149
76	0x1ec1	0.006596
77	0x2e67	0.10004
78	0xb814	-0.51
79	0x330c	0.2202
80	0xb27b	-0.2025
81	0x2c2d	0.06525
82	0xb2f9	-0.2179
83	0xb27f	-0.203
84	0x31c5	0.1803
85	0xaf8b	-0.11786
86	0x2bd7	0.06125
87	0x3c74	1.113
88	0x2ecf	0.1064
89	0xaab1	-0.05228
90	0x3416	0.2554
91	0x2031	0.00819
92	0x2c6c	0.0691
93	0xa4ef	-0.01927
94	0x2dd3	0.091
95	0xa82e	-0.03265
96	0x272e	0.02805
97	0xb1a0	-0.1758
98	0xb455	-0.2708
99	0xaee1	-0.1075
100	0xaa1e	-0.0478
101	0x2ed9	0.107
102	0x15db	0.00143
103	0x3740	0.4531
104	0xb3f6	-0.2488
105	0x3177	0.1708
106	0xbb4e	-0.913
107	0xb6ca	-0.4243
108	0xb5b7	-0.3572
109	0xb6f1	-0.4338
110	0x35b5	0.3567
111	0xb90a	-0.63
112	0xb94b	-0.6616
113	0x3ad1	0.852
114	0xb07d	-0.1403
115	0xa10c	-0.00986
116	0x2aae	0.0522
117	0xadba	-0.0895
118	0x3166	0.1687
119	0xb9f8	-0.746
120	0xb961	-0.6724
121	0x3038	0.1318
122	0xb043	-0.1332
123	0xb42e	-0.2612
124	0xb205	-0.1881
125	0x2c64	0.0686
126	0x2f40	0.1133
127	0x367d	0.4055
128	0x323f	0.1952
129	0x33f4	0.2485
130	0x363a	0.3892
131	0xae72	-0.1007
132	0xb43f	-0.2654
133	0xb05c	-0.1362
134	0x289f	0.0361
135	0xb3f9	-0.2491
136	0x3024	0.1294
137	0xb555	-0.3333
138	0xb625	-0.384
139	0xb98c	-0.6934
140	0xb30b	-0.2201
141	0x2993	0.04355
142	0x2860	0.03418
143	0xab80	-0.0586
144	0xaad3	-0.0533
145	0xb857	-0.5425
146	0xb88f	-0.57
147	0x23a8	0.01495
148	0xacb4	-0.0735
149	0xa494	-0.01788
150	0x3439	0.264
151	0x2cf1	0.0772
152	0xac90	-0.0713
153	0x3750	0.457
154	0xb21a	-0.1907
155	0x3581	0.344
156	0x2bde	0.06146
157	0xaf9c	-0.1189
158	0xb1e7	-0.1844
159	0x29ad	0.04434
160	0xaa9d	-0.05167
161	0xb0d3	-0.1508
162	0x287d	0.03506
163	0xb22d	-0.193
164	0x2cdf	0.0761
165	0x39d6	0.7295
166	0xb053	-0.1351
167	0xb4ad	-0.2922
168	0xa2da	-0.01338
169	0xac11	-0.06354
170	0x22e0	0.01343
171	0xaf47	-0.1137
172	0xb0fe	-0.156
173	0x3123	0.1605
174	0xa46d	-0.01729
175	0x2856	0.03387
176	0xabde	-0.06146
177	0xaeba	-0.1051
178	0xacb4	-0.0735
179	0x2cc3	0.0744
180	0x34ad	0.2922
181	0x3453	0.2703
182	0xadaf	-0.0888
183	0x26f7	0.0272
184	0xb3a8	-0.2393
185	0x30c4	0.1489
186	0xb383	-0.2347
187	0xb7b4	-0.4814
188	0x3427	0.2595
189	0xb7d3	-0.489
190	0x2d33	0.08124
191	0x3c4d	1.075
192	0xb279	-0.2023
193	0xb178	-0.1709
194	0x34b7	0.2947
195	0x249c	0.018
196	0x310b	0.1576
197	0xb3e5	-0.2467
198	0xb355	-0.2291
199	0xaa40	-0.04883
200	0x2d95	0.0872
201	0x2edf	0.10736
202	0x3126	0.1609
203	0x8b55	-0.0002238
204	0xaec9	-0.106
205	0x3361	0.2306
206	0x348e	0.2847
207	0x2d75	0.08527
208	0x33b5	0.2408
209	0x2679	0.02528
210	0x2ccc	0.07495
211	0x29a1	0.04398
212	0x2df0	0.0928
213	0xb021	-0.129
214	0xac82	-0.07043
215	0x2df8	0.09326
216	0x3469	0.2756
217	0xbb1d	-0.889
218	0x9d58	-0.00522
219	0x9b1a	-0.003468
220	0xa8fa	-0.03888
221	0xaf1f	-0.11127
222	0x2e2c	0.09644
223	0xaef9	-0.10895
224	0x28a8	0.03638
225	0xaa3c	-0.0487
226	0xa5f9	-0.02333
227	0xb714	-0.4424
228	0x292a	0.04034
229	0x30d2	0.1506
230	0x3006	0.1257
231	0x2cb8	0.0737
232	0xb09a	-0.1438
233	0xb40b	-0.2527
234	0xb9ba	-0.716
235	0x2b5c	0.0575
236	0x274c	0.0285
237	0xb18c	-0.1733
238	0x2899	0.03592
239	0xabc3	-0.06064
240	0x2cd3	0.0754
241	0x2d3c	0.0818
242	0xb38c	-0.2358
243	0xb1f9	-0.1866
244	0x249f	0.01805
245	0x275b	0.02873
246	0xa0f3	-0.00967
247	0xae41	-0.0977
248	0x9de7	-0.005764
249	0x2f3b	0.113
250	0x2c95	0.0716
251	0x2c7c	0.07007
252	0xb138	-0.1631
253	0x2d23	0.08026
254	0xadec	-0.0925
255	0xa7e3	-0.0308

arith.constant13 f2 [26, 3, 3, 26]
0	0x1cf4	0.004837
1	0xa066	-0.00859
2	0x2818	0.03198
3	0x95f0	-0.00145
4	0xa03c	-0.00827
5	0xa46f	-0.01732
6	0x22e1	0.013435
7	0xad27	-0.0805
8	0x2806	0.03143
9	0xa25c	-0.01242
10	0xa420	-0.01611
11	0xa3b6	-0.01506
12	0xa878	-0.0349
13	0x2c82	0.07043
14	0xac3b	-0.0661
15	0xaa7e	-0.05072
16	0x1c58	0.004242
17	0x28ed	0.03848
18	0xabf1	-0.06204
19	0x21d9	0.01142
20	0x2e3e	0.09753
21	0x217d	0.01072
22	0xa49a	-0.01797
23	0x2a40	0.04883
24	0x1da4	0.00551
25	0xa336	-0.014084
26	0x2cd0	0.0752
27	0x2634	0.02423
28	0x2c13	0.06366
29	0x281d	0.03214
30	0x2aa4	0.05188
31	0xacca	-0.0748
32	0x2d31	0.0811
33	0xac1f	-0.0644
34	0x27cc	0.03046
35	0x2591	0.02174
36	0xa58d	-0.02168
37	0x94e3	-0.001193
38	0xa14a	-0.01033
39	0xa9fd	-0.04678
40	0xa8da	-0.0379
41	0x9a40	-0.003052
42	0x280a	0.03156
43	0x2b19	0.05545
44	0xaf64	-0.1155
45	0x28ef	0.03854
46	0x2514	0.01984
47	0x21bd	0.01121
48	0x1610	0.00148
49	0x1c80	0.004395
50	0xa32c	-0.01401
51	0xa9b3	-0.04453
52	0xa3f7	-0.01556
53	0x1f3a	0.007057
54	0x2527	0.02013
55	0x9da2	-0.0055
56	0x2b08	0.05493
57	0xa450	-0.01685
58	0x1ccf	0.004696
59	0xa9e5	-0.04605
60	0x2705	0.02742
61	0xa29e	-0.012924
62	0xac17	-0.0639
63	0x26ec	0.02704
64	0x18fc	0.002434
65	0xa477	-0.01744
66	0x287b	0.035
67	0xa613	-0.02373
68	0x9cf4	-0.004837
69	0xa45c	-0.01703
70	0xac80	-0.0703
71	0xac45	-0.0667
72	0x241c	0.01605
73	0x9f28	-0.00699
74	0x1d91	0.005436
75	0x1f07	0.006863
76	0x2a77	0.0505
77	0xab16	-0.05536
78	0x2812	0.0318
79	0x27fc	0.03119
80	0x2291	0.012825
81	0x2bc5	0.0607
82	0x216e	0.010605
83	0xa46e	-0.0173
84	0xa13a	-0.01021
85	0xa6d4	-0.02667
86	0x2b72	0.05817
87	0xa889	-0.03543
88	0x2468	0.01721
89	0x241d	0.01607
90	0xa903	-0.03915
91	0x24f6	0.01938
92	0x28ab	0.03647
93	0xa8dc	-0.03796
94	0x2d2e	0.08093
95	0x2c22	0.0646
96	0xb004	-0.1255
97	0x28e1	0.03812
98	0x2f7b	0.1169
99	0xae5e	-0.0995
100	0xa6da	-0.02676
101	0x2607	0.02354
102	0xa46c	-0.01727
103	0xa038	-0.00824
104	0x2081	0.0088
105	0x2bc9	0.06082
106	0xadce	-0.0907
107	0x308d	0.1422
108	0x2f34	0.11255
109	0xabd2	-0.0611
110	0x3449	0.2678
111	0x28f9	0.03885
112	0x2ebe	0.10535
113	0xa6f7	-0.0272
114	0x295c	0.04187
115	0xaa8a	-0.0511
116	0x22e7	0.01348
117	0x27db	0.03069
118	0xad57	-0.08344
119	0xab4f	-0.0571
120	0x2a64	0.04993
121	0x2d59	0.08356
122	0xb0ac	-0.146
123	0xae67	-0.10004
124	0x29b7	0.04465
125	0xb130	-0.1621
126	0x0e6d	0.0003922
127	0xaf55	-0.11456
128	0x2f88	0.1177
129	0xa89d	-0.03604
130	0x2b05	0.05484
131	0x0f56	0.0004478
132	0x19f5	0.002909
133	0x2d7e	0.0858
134	0x24b8	0.01843
135	0xac26	-0.0648
136	0x2ca3	0.07245
137	0x2d90	0.0869
138	0x2b17	0.0554
139	0x22c1	0.01319
140	0xa41d	-0.01607
141	0x2729	0.02797
142	0x2c66	0.0687
143	0x2a7f	0.05075
144	0x2d8d	0.08673
145	0x9179	-0.000668
146	0x9f5a	-0.00718
147	0x2818	0.03198
148	0xb002	-0.1252
149	0x294b	0.04135
150	0xa97d	-0.04288
151	0x24a8	0.01819
152	0xa4d1	-0.01881
153	0xa85f	-0.03415
154	0xa554	-0.02081
155	0xabbb	-0.0604
156	0xa341	-0.01417
157	0x224e	0.012314
158	0xa6e4	-0.02692
159	0x2a1a	0.04767
160	0x9ba2	-0.003727
161	0xa82c	-0.0326
162	0xaa0a	-0.04718
163	0xa04a	-0.00838
164	0x26c3	0.02641
165	0x2139	0.0102
166	0xa6af	-0.02611
167	0x1c82	0.004402
168	0xa5c1	-0.02248
169	0x2ce1	0.07623
170	0xa14d	-0.01035
171	0x16ea	0.001688
172	0x1d31	0.00507
173	0x24a0	0.01807
174	0xaead	-0.1043
175	0x14f5	0.00121
176	0x25de	0.02292
177	0x94a9	-0.001138
178	0x9840	-0.002075
179	0x9987	-0.002699
180	0x98f7	-0.002424
181	0xac3f	-0.06635
182	0xa6a5	-0.02596
183	0x20af	0.00915
184	0x2eae	0.1044
185	0x2e38	0.09717
186	0x294d	0.0414
187	0xa4dc	-0.01898
188	0xafac	-0.1199
189	0xa98c	-0.04333
190	0x29f7	0.0466
191	0xa004	-0.00784
192	0x2874	0.0348
193	0x2c0c	0.06323
194	0xac9f	-0.0722
195	0x24e5	0.01912
196	0x2651	0.02467
197	0xa97f	-0.04294
198	0xa5a7	-0.02208
199	0xa3a9	-0.01496
200	0xb0f7	-0.1552
201	0xa136	-0.01018
202	0x24fc	0.01947
203	0x2cc8	0.0747
204	0x9aa8	-0.00325
205	0xac9f	-0.0722
206	0x2b5a	0.05743
207	0xa8d1	-0.03763
208	0x97cd	-0.0019045
209	0x9e51	-0.00617
210	0x2899	0.03592
211	0x2ddd	0.0916
212	0xa25a	-0.012405
213	0xa9a0	-0.04395
214	0xabae	-0.06
215	0x2536	0.02036
216	0x1c4d	0.0042
217	0xa998	-0.0437
218	0xa3fb	-0.01559
219	0x19ca	0.002827
220	0xa8cd	-0.0375
221	0x2b63	0.0577
222	0x2482	0.01761
223	0xaad6	-0.0534
224	0xacd1	-0.07526
225	0x2c63	0.06854
226	0xac22	-0.0646
227	0xaa08	-0.04712
228	0xa641	-0.02443
229	0x2c73	0.0695
230	0x9e76	-0.00631
231	0xadb1	-0.0889
232	0x2d0a	0.07874
233	0xaee7	-0.10785
234	0x2cc6	0.0746
235	0x28ce	0.03754
236	0xaa46	-0.049
237	0xa25f	-0.01244
238	0xb1e1	-0.1837
239	0x9de3	-0.00575
240	0xabd0	-0.06104
241	0x2d90	0.0869
242	0x9d98	-0.005463
243	0xa694	-0.0257
244	0xa611	-0.0237
245	0x2faa	0.11975
246	0xae10	-0.0947
247	0xac65	-0.06866
248	0xa03d	-0.00828
249	0x1c30	0.00409
250	0x2c43	0.0666
251	0x994b	-0.002584
252	0x9973	-0.00266
253	0xaf35	-0.1126
254	0x2627	0.02403
255	0xac77	-0.06976

arith.constant14 f2 [26, 3, 3, 26]
0	0x3acb	0.849
1	0x31a9	0.1769
2	0x2920	0.04004
3	0x369b	0.4128
4	0xae22	-0.0958
5	0x3193	0.1742
6	0x322d	0.193
7	0xb7c5	-0.4856
8	0xa818	-0.03198
9	0x244a	0.01675
10	0xa9ca	-0.04523
11	0x327f	0.203
12	0x2fe7	0.1235
13	0xad61	-0.08405
14	0x31d1	0.1818
15	0xb0b7	-0.1473
16	0xb60e	-0.3784
17	0x312f	0.162
18	0x332f	0.2245
19	0x3aa3	0.8296
20	0xb287	-0.204
21	0x38a4	0.58
22	0xae72	-0.1007
23	0xad8a	-0.08655
24	0x32c3	0.2113
25	0xb4cb	-0.2996
26	0xbe96	-1.646
27	0xae90	-0.10254
28	0xac3f	-0.06635
29	0xb44d	-0.2688
30	0xb577	-0.3416
31	0xb091	-0.1427
32	0xb1de	-0.1833
33	0x31de	0.1833
34	0x3794	0.4736
35	0xb23c	-0.1948
36	0xb211	-0.1896
37	0x2c74	0.0696
38	0x38da	0.6064
39	0xaa97	-0.05148
40	0x286c	0.03455
41	0x3640	0.3906
42	0xb911	-0.6333
43	0x2df6	0.09314
44	0xb6bf	-0.4216
45	0xbb5c	-0.92
46	0x361e	0.3823
47	0xb8da	-0.6064
48	0xa554	-0.02081
49	0xabcd	-0.06094
50	0xaf67	-0.11566
51	0xae7a	-0.1012
52	0x3cd4	1.207
53	0x34b3	0.2937
54	0xaab6	-0.05243
55	0xa9ae	-0.04437
56	0x33cb	0.2435
57	0xae91	-0.1026
58	0xb13a	-0.1633
59	0x3042	0.133
60	0xb107	-0.1571
61	0xa599	-0.02187
62	0x2e90	0.10254
63	0x2ee0	0.1074
64	0xb88f	-0.57
65	0x363d	0.39
66	0xac6b	-0.06903
67	0xac76	-0.0697
68	0x368d	0.4094
69	0xb35f	-0.2303
70	0xa64f	-0.02464
71	0x3420	0.2578
72	0xae97	-0.10297
73	0x2a5f	0.04977
74	0x24d0	0.0188
75	0xa2e3	-0.01345
76	0x2cda	0.0758
77	0x375e	0.4604
78	0xb99c	-0.701
79	0xb264	-0.1997
80	0x32ff	0.2186
81	0xb6dc	-0.4287
82	0x3218	0.1904
83	0xad8e	-0.0868
84	0xaaab	-0.0521
85	0x3879	0.559
86	0x387e	0.5615
87	0xb953	-0.6655
88	0xb86e	-0.5537
89	0xb712	-0.442
90	0xa916	-0.03973
91	0x35c6	0.3608
92	0x209b	0.008995
93	0xaf9e	-0.119
94	0x3840	0.5312
95	0xb7b2	-0.481
96	0x3035	0.1315
97	0xb66c	-0.4014
98	0xaee1	-0.1075
99	0xa4c3	-0.0186
100	0x2bc7	0.06076
101	0x2a2b	0.0482
102	0x30f9	0.1554
103	0x3278	0.2021
104	0x3864	0.549
105	0xa945	-0.04117
106	0xaa42	-0.0489
107	0x3c5a	1.088
108	0xafeb	-0.1237
109	0x32c1	0.211
110	0x3693	0.411
111	0xb8fc	-0.623
112	0x33da	0.2454
113	0x3452	0.27
114	0x3980	0.6875
115	0x3201	0.1876
116	0xa25b	-0.01241
117	0xaf18	-0.11084
118	0xb5a2	-0.352
119	0xbd99	-1.399
120	0xb27a	-0.2024
121	0xafc1	-0.12115
122	0x3090	0.1426
123	0x35b8	0.3574
124	0x2819	0.032
125	0x3b33	0.9
126	0x277f	0.02928
127	0xaf2d	-0.1121
128	0x2ae3	0.0538
129	0x2a57	0.04953
130	0xb881	-0.563
131	0x3438	0.2637
132	0xb0a6	-0.1453
133	0xa2be	-0.01317
134	0xb5f5	-0.3723
135	0x2f3d	0.1131
136	0xb119	-0.1593
137	0x1c93	0.004467
138	0x32ab	0.2084
139	0xa668	-0.02502
140	0xac46	-0.0668
141	0xb061	-0.1368
142	0x3439	0.264
143	0x25e1	0.02296
144	0x3406	0.2515
145	0x399b	0.7007
146	0xb8d4	-0.6035
147	0x371f	0.445
148	0xb483	-0.282
149	0x2b0a	0.055
150	0x23b2	0.01503
151	0x33b3	0.2406
152	0xb018	-0.1279
153	0xb394	-0.2368
154	0x2a51	0.04935
155	0x25d7	0.02281
156	0xb20a	-0.1887
157	0xa789	-0.02943
158	0x9029	-0.000508
159	0x357f	0.3435
160	0x2b59	0.0574
161	0xa1e3	-0.0115
162	0x2a00	0.04688
163	0x32e2	0.2151
164	0x3626	0.3843
165	0x310a	0.1575
166	0xac30	-0.0654
167	0xb0f3	-0.1547
168	0xb574	-0.3408
169	0x303c	0.1323
170	0xb009	-0.1261
171	0x365d	0.3977
172	0xad60	-0.084
173	0x32f7	0.2177
174	0xb845	-0.5337
175	0xb47a	-0.2798
176	0xb124	-0.1606
177	0xb60f	-0.3787
178	0x2c9c	0.072
179	0xb1ff	-0.1874
180	0x2692	0.02567
181	0x3072	0.1389
182	0xa9aa	-0.04425
183	0xb03d	-0.1324
184	0x3224	0.1919
185	0xb685	-0.4075
186	0xb8b9	-0.5903
187	0xa1d5	-0.01139
188	0xab14	-0.0553
189	0xb428	-0.2598
190	0x3333	0.225
191	0xb234	-0.1938
192	0xb35d	-0.2301
193	0x2e9a	0.10315
194	0x3ac3	0.845
195	0x2931	0.04056
196	0xafea	-0.12366
197	0x30fe	0.156
198	0xb6d4	-0.4268
199	0x2e28	0.0962
200	0xae21	-0.09576
201	0x2f7e	0.11707
202	0xa9a1	-0.04398
203	0x326c	0.2007
204	0x2809	0.03152
205	0x2c82	0.07043
206	0xb300	-0.2188
207	0x3202	0.1877
208	0x3123	0.1605
209	0x34ab	0.2917
210	0x2ba6	0.05975
211	0xb5c3	-0.36
212	0x2ec4	0.1057
213	0x1f7b	0.007305
214	0xb261	-0.1993
215	0x316d	0.1696
216	0x348f	0.285
217	0xb8a2	-0.579
218	0xa5f0	-0.0232
219	0xb40e	-0.2534
220	0x1fbf	0.007565
221	0x30e1	0.1525
222	0x3524	0.3213
223	0xb313	-0.2211
224	0x2942	0.04108
225	0x3168	0.169
226	0xa503	-0.01958
227	0xa8de	-0.03802
228	0xa6e3	-0.0269
229	0xa9b9	-0.0447
230	0x2df1	0.09283
231	0x23d7	0.01531
232	0x293d	0.04092
233	0xb161	-0.1681
234	0xa38e	-0.014755
235	0x9cbe	-0.00463
236	0x298a	0.04327
237	0xafe1	-0.1231
238	0x268a	0.02554
239	0xa89e	-0.03607
240	0x26a9	0.02602
241	0xb0bf	-0.1483
242	0xa84b	-0.03354
243	0x1d93	0.005444
244	0x2629	0.02406
245	0xa2c7	-0.01324
246	0xaa73	-0.05038
247	0xad1e	-0.07996
248	0xa443	-0.01665
249	0xacc5	-0.0745
250	0x2efd	0.1092
251	0xadf1	-0.09283
252	0xafdc	-0.1228
253	0x3004	0.1255
254	0xab55	-0.05728
255	0xa6a3	-0.02592
