app/src/main/assets/models/DSCF_256x256_float32.tflite (tflite, 540672 bytes, 45 tensors)

arith.constant f4 [26, 3, 3, 3]
-0.51883733 -0.19427595 0.16510773 0.97273594 -0.24636237 0.36680767 0.09714704 -0.42509806
0.53731036 1.4588437 -0.22059141 0.1753236 21.423368 11.243519 -35.02056 -0.67450434
1.6527176 -0.53165907 -0.71309435 -0.07188565 0.95186555 0.5862597 -0.15337685 -0.8318227
-0.53965724 0.36530465 0.46015233 0.51230794 -0.3495709 0.384007 -0.38141486 -0.27684054
0.5042114 -0.19640236 0.57649654 -0.11412995 1.2228503 -1.781088 -0.4298333 0.036253855
0.43762252 0.0448096 -0.5730143 0.4527198 -0.1771084 0.3240025 -0.912156 1.2004124
-0.78446025 1.127736 -0.5955202 -0.2540464 0.4958453 -0.39664242 -0.18405692 -0.33750167
0.1533669 -5.6401973 -6.863708 -4.977283 0.30872256 -1.737507 -0.25227767 -6.5323157
-7.3254967 -4.255478 22.733864 28.943115 21.231749 -5.498341 -5.858852 -3.9139864
-0.33164132 0.2005383 0.049310938 -4.187736 -4.885451 -5.425307 -0.08224977 0.011382637
-0.14451247 -0.4293814 0.7508755 -0.055302527 0.6127547 -0.3005226 0.25219315 0.6461823
-1.4267839 0.53069323 0.38575852 0.25952208 -1.025667 -4.0808783 1.1833615 2.6154776
-0.23677701 0.8518891 -0.99643725 0.46969214 -0.45428616 0.13333744 0.5754718 0.0046498473
-0.35878524 -0.6262542 0.83372456 -0.040080678 0.0046478077 0.14154759 0.09645192 0.7069452
-0.57079345 0.28418088 -0.99841934 0.55589896 0.51332664 -1.0392797 -0.23770082 0.749077
0.6069956 0.46364686 -1.6127855 0.54469144 -0.5547698 -0.11305763 0.040580876 0.3921799
0.074921384 -0.15966475 -0.14018609 0.16789132 0.17722544 -0.16097893 0.16384779 0.27808633
1.2454857 -0.86418027 -6.099333 5.3041463 -0.9241045 0.12515157 1.5822713 -1.0472729
-3.8106644 0.014861235 2.7261388 56.60938 -76.57401 22.593838 -3.5294626 -1.055232
4.136247 -0.438582 1.5481194 -1.2537256 -0.7859333 -1.4636315 2.052748 -0.9074552
2.373073 -1.7894503 0.67927384 -0.53792816 0.1777899 -0.27716988 -0.088467054 0.70731866
-0.51500267 0.862358 -0.910604 -0.6501893 -0.7317751 1.2484561 -1.0136355 3.1385534
-3.0733862 1.3258283 -0.24829637 0.5106492 1.0389086 -2.6382518 0.9940171 -1.3235666
2.695637 -0.7186754 -0.17896244 -1.3877367 0.55650353 0.27368098 -1.0653963 0.33372086
0.67287326 0.686748 -0.4093591 -1.0389779 0.23007642 0.48097605 1.3666263 -0.814432
0.46359724 -2.0561457 0.96406907 -0.58629334 0.42705214 0.47916478 -0.050155155 -0.022442658
-1.8521018 1.3810656 1.3021017 0.6709567 -0.9446106 -0.32303458 -0.11204892 0.5851628
-0.854831 1.1100979 -0.5715141 -0.47830233 -0.8846535 0.921025 -0.13312718 0.23234718
0.43089512 0.12315976 -0.83496666 0.20205438 0.91720235 1.2410438 -0.71495444 0.39909172
-0.95086354 0.10388189 -1.129822 0.11419254 0.7218871 1.6971843 -0.52188146 -2.0060482
-0.9390343 0.59960437 0.7929889 -0.0272381 -0.25676334 0.026531806 5.291522 3.2695787
-7.8536286 -1.404348 0.9244133 0.89204335 10.490278 1.723959 -11.052582 -34.536983
00000000: 86d2 04bf 46f0 46be 0012 293e 3905 793f
00000010: 6b46 7cbe 37ce bb3e 07f5 c63d 74a6 d9be
00000020: 2c8d 093f 64bb ba3f b7e2 61be 0888 333e
00000030: 0f63 ab41 74e5 3341 0e15 0cc2 51ac 2cbf
00000040: 408c d33f cf1a 08bf 5a8d 36bf c938 93bd
00000050: 76ad 733f 1e15 163f d20e 1dbe 55f2 54bf
00000060: fa26 0abf 3609 bb3e 1699 eb3e 9d26 033f
00000070: f5fa b2be 919c c43e cf48 c3be 0bbe 8dbe
00000080: 0014 013f b31d 49be 4795 133f f7bc e9bd
00000090: 5c86 9c3f b1fa e3bf 1c13 dcbe ec7e 143d
000000a0: 0f10 e03e 458a 373d 11b1 12bf e4ca e73e
000000b0: e85b 35be a8e3 a53e 0e83 69bf 1da7 993f
000000c0: 63d2 48bf a759 903f 0374 18bf 5f12 82be
000000d0: 6fdf fd3e b714 cbbe 6b79 3cbe 05cd acbe
000000e0: 360c 1d3e 7f7c b4c0 7fa3 dbc0 e745 9fc0
000000f0: e210 9e3e a166 debf 8a2a 81be bb08 d1c0
00000100: 786a eac0 e02c 88c0 f4de b541 808b e741
00000110: 9fda a941 69f2 afc0 b77b bbc0 c17e 7ac0
00000120: e4cc a9be ea59 4d3e 44fa 493d ef01 86c0
00000130: 9d55 9cc0 1d9c adc0 9172 a8bd 3d7e 3a3c
00000140: 14fb 13be e1d7 dbbe 6039 403f e784 62bd
00000150: 7edd 1c3f 19de 99be 761f 813e 346c 253f
00000160: dba0 b6bf 83db 073f 2482 c53e 14e0 843e
00000170: 0e49 83bf 8e96 82c0 6478 973f fc63 2740
00000180: ac75 72be 6715 5a3f 8316 7fbf 7d7b f03e
00000190: 3298 e8be 9c89 083e 1f52 133f bf5d 983b
000001a0: b3b2 b7be 3252 20bf f96e 553f a32b 24bd
000001b0: a34c 983b daf1 103e 9688 c53d 5cfa 343f
000001c0: 851f 12bf 2880 913e 6998 7fbf 654f 0e3f
000001d0: 6069 033f 1e07 85bf d867 73be 83c3 3f3f
000001e0: 1064 1b3f 1f63 ed3e c16f cebf e670 0b3f
000001f0: 6505 0ebf c28a e7bd 2238 263d cecb c83e
00000200: 6270 993d 287f 23be f18c 0fbe b4eb 2b3e
00000210: 967a 353e a9d7 24be b7c7 273e 5561 8e3e
00000220: 136c 9f3f eb3a 5dbf bc2d c3c0 91bb a940
00000230: 1d92 6cbf bc27 003e de87 ca3f 0a0d 86bf
00000240: ede1 73c0 8a7c 733c 0f79 2e40 0170 6242
00000250: e525 99c2 2ec0 b441 b7e2 61c0 d811 87bf
00000260: 235c 8440 d28d e0be c728 c63f 157a a0bf
00000270: ed32 49bf 4758 bbbf 3960 0340 fc4e 68bf
00000280: 6ee0 1740 b50c e5bf e4e4 2d3f a9b5 09bf
00000290: 8e0e 363e 36e9 8dbe 372e b5bd d612 353f
000002a0: 37d7 03bf 7ec3 5c3f 581d 69bf ce72 26bf
000002b0: 9d55 3bbf 69cd 9f3f cfbe 81bf 0fde 4840
000002c0: 5cb2 44c0 beb4 a93f 6741 7ebe e8b9 023f
000002d0: f5fa 843f 1ed9 28c0 e877 7e3f a16a a9bf
000002e0: 5185 2c40 1cfb 37bf ee41 37be 5ba1 b1bf
000002f0: 0477 0e3f ea1f 8c3e e85e 88bf 76dd aa3e
00000300: 6c41 2c3f b8ce 2f3f 8497 d1be 3afd 84bf
00000310: 2799 6b3e 7e42 f63e 9ced ae3f 9e7e 50bf
00000320: 9e5c ed3e e497 03c0 3bcd 763f 5217 16bf
00000330: 94a6 da3e 1655 f53e 7e6f 4dbd aad9 b7bc
00000340: ac11 edbf c2c6 b03f 45ab a63f d1c3 2b3f
00000350: 00d2 71bf ca64 a5be e779 e5bd 3bcd 153f
00000360: 34d6 5abf b017 8e3f c04e 12bf 0be4 f4be
00000370: a778 62bf 4bc8 6b3f 7e52 08be 6bec 6d3e
00000380: 499e dc3e 2f3b fc3d 60c0 55bf 58e7 4e3e
00000390: c6cd 6a3f 86da 9e3f 4107 37bf c055 cc3e
000003a0: cb6b 73bf 07c0 d43d 029e 90bf c7dd e93d
000003b0: 98cd 383f 563d d93f 069a 05bf 1863 00c0
000003c0: 8d64 70bf ac7f 193f 5201 4b3f 7022 dfbc
000003d0: 7c76 83be 3b59 d93c 2654 a940 c740 5140
000003e0: ed50 fbc0 adc1 b3bf 5aa6 6c3f f45c 643f
000003f0: 2ed8 2741 b0aa dc3f 60d7 30c1 df25 0ac2

arith.constant1 f4 [48]
0.3511206 0.34536868 0.33967635 0.34668 0.34214997 0.33988497 0.34077927 0.34329596
0.33759016 0.33860347 0.34599453 0.34262684 0.34289506 0.34030223 0.34170294 0.34292486
0.3433421 0.33845446 0.33267272 0.3389611 0.33484834 0.3334178 0.3348483 0.33663648
0.33002028 0.33192766 0.3401234 0.33624905 0.3346397 0.33292046 0.33493772 0.3356537
0.3245664 0.3202152 0.31553617 0.32078144 0.31756276 0.31648985 0.31866544 0.31988737
0.31297314 0.31511894 0.32334447 0.31955954 0.31637064 0.31499973 0.31768197 0.3180098
00000000: 14c6 b33e 2ad4 b03e 0fea ad3e 0a80 b13e
00000010: 482e af3e 6705 ae3e 9f7a ae3e 7dc4 af3e
00000020: 9ed8 ac3e 6f5d ad3e 3226 b13e c96c af3e
00000030: f18f af3e 183c ae3e b0f3 ae3e d993 af3e
00000040: 89ca af3e e749 ad3e 1454 aa3e 4f8c ad3e
00000050: 3e71 ab3e bdb5 aa3e 3d71 ab3e 9e5b ac3e
00000060: 6bf8 a83e 6cf2 a93e a724 ae3e d628 ac3e
00000070: e555 ab3e 8d74 aa3e f57c ab3e cdda ab3e
00000080: 912d a63e 3ff3 a33e f58d a13e 773d a43e
00000090: 9697 a23e f50a a23e 1e28 a33e 47c8 a33e
000000a0: 043e a03e 4557 a13e 688d a53e 4f9d a33e
000000b0: 55fb a13e a547 a13e 36a7 a23e 2ed2 a23e

arith.constant2 f4 [26]
-0.0019448013 0.07422809 -0.12618326 0.035940204 0.07055418 -0.019144671 -0.19689904 -0.11050711
0.053777605 0.08143217 -0.087296 -0.051351927 0.049673963 -0.025642069 -0.07675954 -0.0013359413
-0.039770894 0.008356145 -0.021523679 0.09089181 -0.05274148 0.025160823 0.082102895 0.05952621
0.1389184 0.06820952
00000000: b4e8 feba e604 983d 2f36 01be 0936 133d
00000010: b67e 903d 49d5 9cbc e79f 49be 8d51 e2bd
00000020: e845 5c3d e9c5 a63d 3fc8 b2bd 6656 52bd
00000030: ed76 4b3d 510f d2bc 1b34 9dbd c01a afba
00000040: cee6 22bd 36e8 083c 6d52 b0bc 7c25 ba3d
00000050: 7307 58bd 121e ce3c 9025 a83d c1d1 733d
00000060: a040 0e3e 6fb1 8b3d

arith.constant3 f4 [26]
0.01356256 0.10322012 0.06483962 -0.47645614 -0.015040167 -0.059426196 -0.19580069 -0.04315396
0.12229233 -0.05451764 -0.092695504 -0.009986451 0.06386487 0.042208217 -0.19680429 -0.052615438
-0.36386523 -0.19045457 -0.19367625 0.07763874 -0.072096474 -0.49609706 0.054472975 0.14046377
0.01854442 -0.10947228
00000000: 8035 5e3c 1265 d33d a2ca 843d 0ff2 f3be
00000010: 086b 76bc e268 73bd fa7f 48be 35c2 30bd
00000020: 6774 fa3d e44d 5fbd 24d7 bdbd 369e 23bc
00000030: 96cb 823d 86e2 2c3d 1087 49be 4983 57bd
00000040: 8b4c babe 8606 43be 1153 46be 0f01 9f3d
00000050: 51a7 93bd 6f00 febe 0e1f 5f3d bcd5 0f3e
00000060: 78ea 973c 0133 e0bd

arith.constant4 f4 [26]
0.46870854 0.043383427 0.12592389 -0.09595032 0.5472797 0.8544004 0.45159382 -0.41484427
0.42420748 0.54092014 1.491865 -0.31401622 0.5972482 0.48057646 -0.024404017 0.86920834
1.0443486 0.2507153 -0.007598333 -0.4467405 -0.22929713 -0.038286358 0.87685865 0.46943733
-0.10605419 0.2930866
00000000: 91fa ef3e d2b2 313d 31f2 003e 9a81 c4bd
00000010: 861a 0c3f fcb9 5a3f 4e37 e73e 7866 d4be
00000020: b931 d93e be79 0a3f 6ff5 be3f bcc6 a0be
00000030: 42e5 183f 1e0e f63e efea c7bc 7084 5e3f
00000040: 37ad 853f c15d 803e 70fb f8bb 2cbb e4be
00000050: decc 6abe 28d2 1cbd cf79 603f 175a f03e
00000060: f032 d9bd 720f 963e

arith.constant5 f4 [26]
0.008848145 -1.1905981 1.362321 0.2045762 0.1896776 1.0236068 -0.28417695 1.0188354
0.4419939 0.48020208 0.76578057 0.4914992 0.003445536 1.209548 0.13436322 -1.8403821
0.3491848 0.92049813 0.2947935 1.342318 -0.32329628 -1.1068954 1.1459268 0.78735775
-0.101426035 0.0010285378
00000000: cff7 103c 8565 98bf 8960 ae3f 6c7c 513e
00000010: d83a 423e 8c05 833f a47f 91be 3369 823f
00000020: 064d e23e 0cdd f53e 320a 443f c8a5 fb3e
00000030: 80ce 613b 78d2 9a3f 8396 093e a491 ebbf
00000040: 5ac8 b23e c4a5 6b3f 2cef 963e 14d1 ab3f
00000050: 1787 a5be c0ae 8dbf bbad 923f 4790 493f
00000060: 74b8 cfbd 00d0 863a

arith.constant6 f4 [26]
0.13741796 -1.5531081 -1.0754807 -0.6120436 -1.4596118 -1.4446896 0.08233056 0.25421965
-0.952718 -0.6542832 -0.06889291 -1.3213924 -0.5552257 -1.4778912 -0.5394236 -0.60956264
-1.3931165 -0.42634264 -1.240873 -1.3187286 -1.5854744 -0.34366992 0.0915986 -1.5516607
-1.0376754 -2.2744234
00000000: 4bb7 0c3e 3fcc c6bf 5aa9 89bf e4ae 1cbf
00000010: 8fd4 babf 97eb b8bf ed9c a83d 1429 823e
00000020: 54e5 73bf 1b7f 27bf ba17 8dbd 6323 a9bf
00000030: 4523 0ebf 8a2b bdbf aa17 0abf 4c0c 1cbf
00000040: a451 b2bf 9549 dabe edd4 9ebf 19cc a8bf
00000050: d3f0 cabf 81f5 afbe 0c98 bb3d d19c c6bf
00000060: 8cd2 84bf 2790 11c0

arith.constant7 f4 [26]
0.14048277 0.15451959 -1.547893 -0.23377262 -0.02875868 -0.037425768 0.5935258 -0.36147526
-0.091501296 0.37212005 0.19425572 -0.13212049 0.111631125 0.3757571 0.10595316 -0.74366695
-0.27971542 -0.090727106 -0.41269994 -0.28634465 1.7150266 0.25745392 -0.016745377 0.079208635
-1.097193 0.048623025
00000000: b7da 0f3e 623a 1e3e 5c21 c6bf 1762 6fbe
00000010: 5397 ebbc c34b 19bd 4ff1 173f 4913 b9be
00000020: 0865 bbbd 8586 be3e f9ea 463e 984a 07be
00000030: dc9e e43d 3c63 c03e f8fd d83d f560 3ebf
00000040: dc36 8fbe 22cf b9bd 684d d3be c49b 92be
00000050: fe85 db3f 00d1 833e 9a2d 89bc 2338 a23d
00000060: d270 8cbf f028 473d

arith.constant8 f4 [26]
-0.4367925 -0.7548022 0.69765157 -0.71770775 0.029658718 -0.8369633 0.2446344 -0.7152778
-1.3904886 0.2101867 0.109689444 0.7317174 -0.60908574 1.3931813 -0.35246173 0.24450353
-0.63586056 1.377071 0.15498662 0.4216636 -1.135448 -0.6571659 -0.96192783 0.060263664
-0.90430504 1.0003955
00000000: 44a3 dfbe b83a 41bf 4b99 323f b2bb 37bf
00000010: d7f6 f23c 3a43 56bf 7181 7a3e 721c 37bf
00000020: 88fb b1bf 2f3b 573e dca4 e03d d551 3b3f
00000030: 0bed 1bbf c453 b23f dd75 b4be 225f 7a3e
00000040: c2c7 22bf dd43 b03f d0b4 1e3e 4be4 d73e
00000050: 5c56 91bf 063c 28bf e740 76bf 08d7 763d
00000060: 8980 67bf f60c 803f

arith.constant9 f4 [26]
3.3358767 -0.04151929 0.25968874 -0.23777746 -0.056081787 -1.2820675 1.0333335 -1.2101406
-0.301313 0.5303629 0.14952213 -0.5834028 0.44652265 -0.5319649 -0.4216053 0.57599694
-0.100046515 0.9136616 0.1283379 1.2902074 -0.5066534 -1.4485022 0.9351047 1.2050824
0.13406329 1.4313823
00000000: 017f 5540 2210 2abd ecf5 843e ef7b 73be
00000010: 04b6 65bd ca1a a4bf 4644 843f e3e5 9abf
00000020: b345 9abe ddc5 073f 541c 193e e359 15bf
00000030: 9e9e e43e da2e 08bf a6dc d7be 8974 133f
00000040: 30e5 ccbd bae5 693f 036b 033e 8425 a53f
00000050: 0ab4 01bf 8568 b9bf 0663 6f3f 2440 9a3f
00000060: e347 093e 8937 b73f

arith.constant10 f4 [26]
-0.2679465 0.1283379 1.3434465 0.22344908 -0.1272473 -0.1779512 -0.26298106 0.2692561
-0.45776564 -0.055909075 0.55963314 -0.6671658 -0.06379903 0.6898105 -0.1096355 -0.041832216
0.17495301 0.14048553 -0.15836002 0.0499314 -1.4279478 -0.029617768 -0.18483248 -0.76309973
0.88857925 0.5627645
00000000: 4930 89be 036b 033e 0ef6 ab3f d6cf 643e
00000010: 1e4d 02be d738 36be 74a5 86be efdb 893e
00000020: 4260 eabe ea00 65bd 1e44 0f3f 61cb 2abf
00000030: 11a9 82bd 6c97 303f 9488 e0bd 4258 2bbd
00000040: e226 333e 70db 0f3e 2129 22be de84 4c3d
00000050: fec6 b6bf f6a0 f2bc ba44 3dbe 815a 43bf
00000060: ee79 633f 5611 103f

arith.constant11 f4 [26]
-0.008541736 -0.36671674 -0.26493615 -1.1192108 0.21297416 -0.09326185 -0.48255914 -0.9360285
0.36380544 0.33705714 0.33060697 0.025271922 0.4629023 0.42801157 0.4628814 -0.5069903
-0.16277198 -0.518895 0.060054317 0.20489645 0.7992269 0.5411171 -0.39404038 -1.0233426
1.0089993 -0.017642424
00000000: a3f2 0bbc 4cc2 bbbe b6a5 87be 4d42 8fbf
00000010: e615 5a3e 1200 bfbd fe11 f7be 909f 6fbf
00000020: b544 ba3e c192 ac3e 5145 a93e 1007 cf3c
00000030: 8801 ed3e 5524 db3e cafe ec3e 1eca 01bf
00000040: b3ad 26be 4dd6 04bf 84fb 753d 60d0 513e
00000050: 229a 4c3f a686 0a3f a9bf c9be e4fc 82bf
00000060: e426 813f d886 90bc

arith.constant12 f4 [26]
-0.12221899 -1.6256531 -1.5638672 -1.2967362 -0.071041465 0.21664031 -0.0760474 0.714658
-0.28922182 -0.96784294 -0.1781114 -0.6686258 0.57791376 -0.15125844 0.277852 1.1620625
-0.588837 -1.2239498 1.3379714 0.8202599 -0.6558744 -0.69923353 -1.9646026 -0.4966834
0.690877 -1.89378
00000000: f34d fabd 6715 d0bf cd2c c8bf 74fb a5bf
00000010: 307e 91bd f5d6 5d3e bdbe 9bbd d4f3 363f
00000020: e214 94be 8ec4 77bf d662 36be 0f2b 2bbf
00000030: 28f2 133f 7ee3 1abe 9e42 8e3e 77be 943f
00000040: 06be 16bf 63aa 9cbf a642 ab3f 8efc 513f
00000050: 62e7 27bf f800 33bf 1978 fbbf 494d febe
00000060: 51dd 303f 6267 f2bf

arith.constant13 f4 [26]
0.27510932 0.6439471 1.9024917 -0.06437166 -0.49783054 -2.520321 1.5180328 1.2143445
-0.12773131 0.3147176 -2.4926143 -1.9254632 0.6031776 -1.5007619 -1.8366884 -0.20201501
-0.57958424 0.7743319 -0.6386205 -1.541523 1.9135661 -1.6189145 -2.9715185 -2.2085142
-2.6975026 1.1707203
00000000: 21db 8c3e b8d9 243f d984 f33f 4ad5 83bd
00000010: a5e3 febe f04c 21c0 e64e c23f a46f 9b3f
00000020: ffcb 02be aa22 a13e fe86 1fc0 9475 f6bf
00000030: d969 1a3f f718 c0bf 9b18 ebbf 06dd 4ebe
00000040: a25f 14bf 9e3a 463f a27c 23bf a050 c5bf
00000050: bcef f43f 9738 cfbf 5c2d 3ec0 4c58 0dc0
00000060: e2a3 2cc0 2ada 953f

arith.constant14 f4 [26]
0.34839737 -0.811512 0.11431576 -0.3904482 0.29915202 -0.90020424 0.29258162 -1.1412206
-0.10959573 0.66150427 0.37907553 -0.02335459 1.6557794 0.99855614 1.0134248 0.8753784
-0.42006743 1.6997273 0.48051572 0.16299845 1.1790925 0.21477756 -1.0998759 0.4982497
1.1464173 -0.027397256
00000000: 2461 b23e 40bf 4fbf 621e ea3d d4e8 c7be
00000010: 742a 993e c973 66bf 42cd 953e 8413 92bf
00000020: ba73 e0bd 5858 293f 3016 c23e 2052 bfbc
00000030: 94f0 d33f 60a1 7f3f e7b7 813f cc18 603f
00000040: 1413 d7be aa90 d93f 2806 f63e 11e9 263e
00000050: 81ec 963f a6ee 5b3e bcc8 8cbf 961a ff3e
00000060: cdbd 923f 3670 e0bc

arith.constant15 f4 [26]
-1.8179055 0.18485942 0.057331096 0.7641872 0.73588735 0.5230599 0.04139936 -0.07382503
-0.24737309 -0.9699515 -0.21446773 -0.5756393 0.231028 1.8547935 0.5951196 -0.20734985
0.21112688 0.13423195 0.56193715 1.2745833 0.48088935 1.372008 0.08049657 -0.904206
0.3769772 0.20269567
00000000: 21b1 e8bf ca4b 3d3e 03d4 6a3d c6a1 433f
00000010: 1d63 3c3f 41e7 053f 6092 293d 9431 97bd
00000020: 5f4f 7dbe be4e 78bf 6e9d 5bbe 195d 13bf
00000030: 9b92 6c3e e069 ed3f c259 183f 8553 54be
00000040: a531 583e 1a74 093e 1ddb 0f3f 8c25 a33f
00000050: 2137 f63e f59d af3f 63db a43d 0b7a 67bf
00000060: 2803 c13e 748f 4f3e

arith.constant16 f4 [26]
2.0837948 -1.8360256 6.9360743 -3.0546181 -0.32195288 3.164007 -1.4971792 -1.939079
2.842607 -2.616797 -6.200937 -1.6448218 -0.73884106 1.7446418 1.9236455 -1.0834529
-0.83742625 -0.7622156 0.22978632 0.73935795 1.806494 2.832369 -4.0434456 -2.1588147
6.432904 -1.7493014
00000000: e55c 0540 e302 ebbf 52f4 dd40 dd7e 43c0
00000010: 02d7 a4be 177f 4a40 91a3 bfbf be33 f8bf
00000020: 46ed 3540 9a79 27c0 136e c6c0 8589 d2bf
00000030: b024 3dbf 6c50 df3f 043a f63f 96ae 8abf
00000040: 9161 56bf 9020 43bf 1b4d 6b3e 9046 3d3f
00000050: 323b e73f 8945 3540 e863 81c0 052a 0ac0
00000060: 59da cd40 1ce9 dfbf

arith.constant17 f4 [26]
0.2809598 -0.2196236 0.06630457 1.6446276 -0.70479 1.2769082 0.50312036 -2.5617216
-0.15719782 -0.62535024 3.6165466 0.62338656 0.8441021 1.2591133 -0.13773012 -0.91115814
0.42520076 0.3099516 -0.8366024 1.6224486 1.2298598 -0.29134423 -1.2638193 1.4108917
0.49313617 1.0301074
00000000: f7d9 8f3e 02e5 60be b1ca 873d 2883 d23f
00000010: 1e6d 34bf ba71 a33f 7fcc 003f 3ff3 23c0
00000020: 77f8 20be f416 20bf 8075 6740 4396 1f3f
00000030: 1317 583f a02a a13f 2009 0dbe a941 69bf
00000040: eab3 d93e fab1 9e3e 932b 56bf 65ac cf3f
00000050: 0c6c 9d3f 122b 95be d5c4 a1bf 1998 b43f
00000060: 587c fc3e 8fda 833f

arith.constant18 f4 [26]
-0.7658402 -0.7584491 0.7883114 -0.4172655 1.2050191 1.8174411 -1.1423122 -1.0541942
0.71046674 0.7060081 0.12535964 -0.30333543 -0.25906003 -0.8130907 -0.7830236 -1.4669489
1.9077114 -5.0697217 0.49651036 0.27463946 0.47222203 0.9663574 -9.968504 -0.22375128
0.10071765 0.06629985
00000000: 1a0e 44bf b829 42bf c7ce 493f d3a3 d5be
00000010: 113e 9a3f e9a1 e83f 4937 92bf d6ef 86bf
00000020: 26e1 353f f2bc 343f 475e 003e c84e 9bbe
00000030: 84a3 84be b626 50bf 3c74 48bf fbc4 bbbf
00000040: e32f f43f 293b a2c0 9b36 fe3e 8b9d 8c3e
00000050: 16c7 f13e 3363 773f fe7e 1fc1 0e1f 65be
00000060: 0e45 ce3d 37c8 873d

arith.constant19 f4 [26]
-0.21218783 -2.348065 0.8946738 -0.017433269 -0.08128539 -0.10850793 -1.2452478 -1.2913703
0.009677963 0.12961164 0.33999532 0.06529175 0.054710045 0.041701376 1.041048 -2.927271
0.77509516 0.029854978 -0.6277004 -0.0056839436 -0.008667842 0.0049189343 0.2911462 -0.0058439225
0.0029674098 0.16102523
00000000: c447 59be b246 16c0 5809 653f 37d0 8ebc
00000010: f478 a6bd 6839 debd 4864 9fbf 9f4b a5bf
00000020: 5290 1e3c eab8 043e de13 ae3e aeb7 853d
00000030: a417 603d 10cf 2a3d 1041 853f 6858 3bc0
00000040: a36c 463f 6d92 f43c f9b0 20bf 6040 babb
00000050: 9003 0ebc 032f a13b 1d11 953e 607e bfbb
00000060: e078 423b cce3 243e

arith.constant20 f4 [26]
1.0372142 0.2907017 -4.6074066 -1.1192515 -0.20032918 -3.1898632 -2.5347996 -5.2322373
0.649768 -0.25007254 -4.1750236 -0.12827067 -1.2998699 -4.5546017 0.94086623 1.2135487
1.3603756 1.059729 -3.6978407 -1.0645008 1.3237135 0.5281098 -0.30826944 -2.9628634
-5.80377 -2.8868005
00000000: 6fc3 843f dad6 943e e06f 93c0 a243 8fbf
00000010: 1823 4dbe b826 4cc0 283a 22c0 7d6e a7c0
00000020: 3257 263f 8209 80be cb99 85c0 6359 03be
00000030: 2362 a6bf 4cbf 91c0 9cdc 703f 9055 9b3f
00000040: ca20 ae3f 33a5 873f 6ca9 6cc0 9041 88bf
00000050: 726f a93f 3432 073f 7ed5 9dbe 8e9f 3dc0
00000060: 7cb8 b9c0 57c1 38c0

arith.constant21 f4 [26]
-0.3992326 1.7088332 0.100831054 1.4800127 2.1708512 2.3700547 0.21335375 -0.026723921
-0.46732134 1.0163169 0.80751544 1.1782213 1.2936742 -3.365137 -0.624501 -0.039317086
-3.2041335 -0.5882995 -0.10153123 -1.9910574 -0.74419165 -0.49774164 -0.42272586 0.37778264
3.5667133 0.0814068
00000000: 3768 ccbe 0cbb da3f 8380 ce3d 0e71 bd3f
00000010: 3aef 0a40 faae 1740 6879 5a3e 20ec dabc
00000020: be44 efbe ac16 823f 55b9 4e3f f5cf 963f
00000030: 1e97 a53f 685e 57c0 4cdf 1fbf f40a 21bd
00000040: 8610 4dc0 cc9a 16bf 9bef cfbd f8da febf
00000050: 5883 3ebf fed7 febe 866f d8be ba6c c13e
00000060: 0845 6440 9cb8 a63d

arith.constant22 f4 [26]
0.95890725 -0.14090833 -0.72910774 -1.1740276 -0.4788998 0.21865904 -0.12990732 -0.08168107
0.62766165 -0.6414799 -0.69449884 0.17443705 0.007150665 0.4020164 -0.06912473 -0.13134798
0.24733157 0.023977965 -0.14279257 0.10784495 -0.21472913 -0.08585983 0.29770073 -0.0119508505
-0.047121674 0.027368069
00000000: f27a 753f 464a 10be cea6 3abf 8946 96bf
00000010: 5b32 f5be 28e8 5f3e 6d06 05be 6848 a7bd
00000020: 6fae 203f 0738 24bf adca 31bf a09f 323e
00000030: 2050 ea3b 18d5 cd3e 4491 8dbd 1680 06be
00000040: 7d44 7d3e 706d c43c 3738 12be d0dd dc3d
00000050: f4e1 5bbe 47d7 afbd 3b6c 983e 80cd 43bc
00000060: a802 41bd 0033 e03c

arith.constant23 f4 [48, 3, 3, 26]
0.028815968 0.026595917 -0.014787196 0.019200258 0.005987083 -0.015803985 -0.057142116 0.009203705
-0.0036627057 -0.045959543 0.0039971927 -0.008182078 -0.027837405 0.02699847 0.026632054 0.0070794667
0.032476734 0.06413169 0.0023454481 -0.022804335 0.03314868 -0.0042470857 -0.022326862 -0.022870272
0.008114039 -0.030659482 0.007178253 -0.036449242 -0.0035779995 -0.0128266895 0.0009427161 -0.022878839
-0.077977784 -0.03584434 0.00910395 -0.030047433 0.0304252 0.019714864 -0.00917422 0.04627934
0.068182126 -0.02630179 -0.041641433 0.058394812 0.026206715 0.04232942 -0.0115165515 0.037161954
0.032954358 -0.0040796637 0.013133132 0.016857674 0.023286743 0.00391444 -0.007229017 0.009361853
-0.005433704 0.0015488093 -0.00012493772 0.010987835 -0.007177517 -0.0064654974 -0.005370604 -0.010294291
0.002956092 -0.00020911625 -0.0038877325 0.0050153686 0.013417524 0.013203374 -0.0024094475 -0.01417259
0.0064443606 0.0024508724 -0.016500302 0.000563237 -0.004172892 -0.005342531 -0.0077157277 0.022533983
0.020375852 -0.003537853 0.012864414 -0.020614026 -0.072594896 0.041033316 0.04536909 0.025324587
-0.019516831 0.01749726 -0.011508189 0.022855837 -0.043658104 -0.030933479 0.044639014 0.063989766
-0.021297034 0.04365168 0.011251133 0.03693997 0.023941264 0.019627819 -0.018375358 -0.001272423
-0.010714035 -0.04146798 0.06008206 0.076656975 -0.041390724 -0.059885606 -0.11895689 0.08106027
-0.029168848 -0.028478343 -0.014543686 0.044000532 0.02592984 0.0068205018 -0.07729059 -0.013423513
-0.098659255 0.18987682 0.017580288 -0.091334 -0.009030823 0.0040769214 0.042247977 0.010480605
0.1225609 0.02023431 0.005741714 0.016436873 -0.046708334 -0.01829836 0.0055887857 0.022959808
-0.02457291 -0.0033339963 0.018492457 0.004515556 0.0013958807 -0.0075738695 0.011380975 0.022856457
-0.0069490247 -0.035124887 0.03015276 -0.0073534646 0.0038755832 0.015332133 0.004268202 -0.008312155
-0.023825694 -0.0035691545 -0.022682922 -0.0016033876 0.006904699 -0.005844077 -0.010931901 -0.00039894274
-0.008291778 0.0016907832 -0.0057783606 -0.009695623 -0.003459711 -0.0019443281 -0.00044182054 -0.007887083
0.001057679 0.0037723002 0.006904986 0.0040914943 -0.0016944215 -0.0065311566 0.0016760478 -0.0049174353
0.0068192524 -0.0036908714 -0.011396881 -0.0094798505 -0.0021584458 -0.0009631723 -0.016526936 0.0105716325
-0.046867393 -0.018164998 -0.0012778079 0.012463707 -0.022629635 -0.0058193924 0.012669158 -0.005288204
-0.0026602068 -0.02167374 0.012895805 0.016432414 0.025082529 -0.0052645355 -0.0035656171 -0.017413054
-0.00746504 0.0037392082 -0.0054883733 -0.0028119897 -0.018940695 0.009468462 -0.011489122 0.004685665
0.0019421651 -0.0051211077 0.008014244 -0.000270826 0.0033882074 -0.0015252968 0.007917426 -0.0022097975
-0.0017829099 0.0001776063 0.0021445039 0.0022343884 -0.002364676 -0.002331666 -0.00028857 0.007932909
0.0012416785 -0.0059808297 0.00022005051 0.0006536148 0.004072509 -0.00093434687 0.0023175534 -0.0001575293
-0.0019218615 -0.0024470044 0.0060466533 0.0004734544 -0.029985454 0.0017841452 0.0056945994 0.0021020498
-0.028003061 -0.0040593185 -9.166607e-05 -0.009168564 -0.004026167 0.0023898792 0.002224526 0.0039694677
-0.0024960078 -0.0017557032 -0.0022825052 0.034306165 -0.006395975 -0.012779122 0.0057604737 0.0041858805
00000000: 770f ec3c aedf d93c ff45 72bc dc49 9d3c
00000010: 4b2f c43b 5c77 81bc da0d 6abd 23cb 163c
00000020: 010a 70bb 1340 3cbd e2fa 823b 1f0e 06bc
00000030: 450b e4bc e52b dd3c 772b da3c dffa e73b
00000040: 5306 053d 7a57 833d 17b6 193b 28d0 babc
00000050: e9c6 073d 232b 8bbb d3e6 b6bc 705a bbbc
00000060: bff0 043c 9829 fbbc 8d37 eb3b cd4b 15bd
00000070: df7c 6abb 0927 52bc 9b20 773a 676c bbbc
00000080: d1b2 9fbd 84d1 12bd bc28 153c 0926 f6bc
00000090: 453e f93c 1181 a13c 784f 16bc 688f 3d3d
000000a0: 12a3 8b3d da76 d7bc 3590 2abd 662f 6f3d
000000b0: 77af d63c 9d61 2d3d ebaf 3cbc 2237 183d
000000c0: 26fb 063d b3ae 85bb 592c 573c 1b19 8a3c
000000d0: d7c3 be3c b444 803b 64e1 ecbb 7562 193c
000000e0: 360d b2bb 6b01 cb3a b701 03b9 5206 343c
000000f0: 6031 ebbb 86dc d3bb e4fb afbb 63a9 28bc
00000100: feba 413b 3746 5bb9 54c9 7ebb f657 a43b
00000110: 2dd5 5b3c f752 583c d2e7 1dbb 2734 68bc
00000120: 372b d33b d19e 203b a42b 87bc 32a6 133a
00000130: c1bc 88bb 6610 afbb 37d4 fcbb 3099 b83c
00000140: 42eb a63c 53db 67bb 43c5 523c bfde a8bc
00000150: a2ac 94bd 8d12 283d f0d4 393d 8275 cf3c
00000160: c3e1 9fbc 6a56 8f3c d88c 3cbc 2a3c bb3c
00000170: d7d2 32bd 3568 fdbc 66d7 363d 110d 833d
00000180: 1e77 aebc 1bcc 323d ac56 383c 5e4e 173d
00000190: 7820 c43c 85ca a03c eb87 96bc 6ec7 a6ba
000001a0: eb89 2fbc 54da 29bd 9b18 763d 55fe 9c3d
000001b0: 5289 29bd 9c4a 75bd ac9f f3bd ed02 a63d
000001c0: 82f3 eebc 6a4b e9bc a448 6ebc e739 343d
000001d0: d16a d43c 847e df3b 874a 9ebd 4bee 5bbc
000001e0: dd0d cabd 126f 423e 8904 903c 520d bbbd
000001f0: 04f6 13bc b297 853b 370c 2d3d d8b6 2b3c
00000200: 3601 fb3d 6cc2 a53c fd24 bc3b 9fa6 863c
00000210: 3d51 3fbd 71e6 95bc 2222 b73b 3516 bc3c
00000220: 214d c9bc 2d7f 5abb 7e7d 973c 3bf7 933b
00000230: fcf5 b63a 392e f8bb 4577 3a3c 773d bb3c
00000240: a5b4 e3bb 1ddf 0fbd ec02 f73c 55f5 f0bb
00000250: 7ffd 7d3b a033 7b3c 46dc 8b3b b42f 08bc
00000260: 1a2e c3bc 7ae8 69bb 89d1 b9bc c328 d2ba
00000270: d040 e23b ac7f bfbb b71b 33bc 3029 d1b9
00000280: 3dda 07bc 459d dd3a 6758 bdbb 64da 1ebc
00000290: 52bc 62bb d3d8 feba 26a4 e7b9 d338 01bc
000002a0: d1a1 8a3a b238 773b 3943 e23b f111 863b
000002b0: 5a17 deba 5003 d6bb d5ae db3a 7022 a1bb
000002c0: 0974 df3b 8ce2 71bb fcb9 3abc 6051 1bbc
000002d0: b674 0dbb 667d 7cba 7f63 87bc a434 2d3c
000002e0: 06f8 3fbd c3ce 94bc 1e7c a7ba 9334 4c3c
000002f0: c961 b9bc 9ab0 bebb 4d92 4f3c ac48 adbb
00000300: dd56 2ebb 218d b1bc ed48 533c 459d 863c
00000310: e079 cd3c 2082 acbb 21ad 69bb d2a5 8ebc
00000320: 4b9d f4bb 810d 753b d0d7 b3bb 5c49 38bb
00000330: 8429 9bbc 9c21 1b3c df3c 3cbc 358a 993b
00000340: 3f90 fe3a f7ce a7bb 2d4e 033c a7fd 8db9
00000350: b00c 5e3b 78ec c7ba 17b8 013c 40d2 10bb
00000360: 87b0 e9ba d43b 3a39 ce8a 0c3b d16e 123b
00000370: aef8 1abb ddce 18bb 364b 97b9 08f9 013c
00000380: d1bf a23a d6fa c3bb 5cbd 6639 5957 2b3a
00000390: ae72 853b f5ee 74ba 18e2 173b 732e 25b9
000003a0: f9e6 fbba ec5d 20bb 0123 c63b f939 f839
000003b0: 0ea4 f5bc fbd9 e93a c399 ba3b 8bc2 093b
000003c0: ad66 e5bc 0804 85bb d93c c0b8 bf37 16bc
000003d0: f0ed 83bb 859f 1c3b 5ac9 113b 4f12 823b
000003e0: 1094 23bb a01f e6ba 1596 15bb 9f84 0c3d
000003f0: 5495 d1bb 865f 51bc 5bc2 bc3b b629 893b

arith.constant24 f4 [26, 1, 1, 104]
-0.0009211331 0.018663367 0.0029955779 0.014542641 0.044091273 -0.0017062818 -0.0076837433 0.039964255
-0.020723224 -0.01245986 -0.0016888534 0.00537869 -0.00654053 0.004475892 -0.056088183 -0.0010798901
-0.0038978225 0.004467845 0.009944325 0.0066848896 -0.0016365333 -0.003641169 0.0074035334 -0.01975233
0.012446493 0.017993711 -0.11028329 -0.07540283 -0.07621445 0.08703136 -0.050621018 -0.009785212
-0.021001715 -0.00044849212 -0.20983778 -0.026449606 0.09574492 0.1537977 0.13006647 -0.03583791
0.02514625 -0.03791366 -0.06278102 0.076884955 -0.034221012 0.14343297 -0.25085586 0.04891103
-0.2501118 0.087333106 0.17604119 0.0056031793 0.00727675 0.09982557 0.0032625815 -0.0024856685
0.01721912 0.023957038 -0.0031421161 0.0047662747 0.0023026457 -0.0073718927 -0.0006642453 -0.001358759
-0.028193096 -0.017377105 -0.5172856 0.0052366615 -0.017156897 -0.3058503 0.00072637503 0.096628144
0.020287262 -0.006712366 -0.00422469 0.11856018 -0.10533501 -0.08394316 0.0037490684 -0.04276205
0.02418124 -0.10586294 0.020965869 -0.073751435 0.058509342 0.016721662 0.013653037 0.010041702
-0.049746726 -0.2529207 0.028899524 0.027142292 0.0131294895 -0.0047393553 0.19241899 -0.02319584
0.30543303 -0.029095825 0.03713368 -0.032058977 -0.034171533 -0.37055197 0.03157103 0.046464283
0.00053786335 0.017572911 -0.005291687 -0.008042561 -0.004438387 -0.0042723673 0.005708474 0.02320162
-0.02976568 0.0008205004 -0.0013171135 -0.0046368977 0.010034277 0.008420413 -0.027523732 -0.0054419395
0.011026536 -0.013577016 0.01440825 -0.00013258852 -0.0036799486 0.009446567 0.009581797 0.023931647
-0.021425353 0.030291243 0.12079738 0.0013143555 -0.06893939 -0.04134478 0.06270666 -0.046278898
0.1002616 -0.0073489523 0.13485034 0.018059876 -0.0018886576 -0.006263458 0.058482226 -0.13395678
0.013152326 0.033627532 -0.25357953 -0.14874713 0.034302913 0.17877528 -0.15885323 0.14785868
-0.06553718 -0.23445044 0.14682433 0.15823102 0.0034673132 0.04510975 -0.0014484 -0.0036767442
0.0053825015 0.00962022 0.0042772624 -0.0021552453 0.004176248 -0.01469 0.0017197945 0.001244853
-0.00121794 0.018606529 -0.24323359 -6.4982516e-05 0.047862206 0.3637418 0.03708792 -0.14874162
-0.019480726 0.19964509 -0.0058547086 -0.3990525 0.20125417 -0.23216659 -0.035712957 -0.12887098
0.34876618 0.043878898 0.15179566 -0.028572556 0.01993848 0.0026970753 -0.30096266 0.027502704
0.010405164 0.31327116 0.018316558 -0.05653529 -0.032663226 0.022646146 0.20300859 0.0398799
-0.70510226 0.37239972 0.13334857 -0.097294666 -0.0017187421 0.01801853 -0.046697132 -0.052569102
-0.00034913202 -0.063976996 0.04751483 -0.008107405 0.0020690332 0.0016528951 -0.003988208 0.04802814
0.0042665796 -0.0024661205 -0.0076177544 -0.0029941243 0.0044607334 0.0021378375 -0.0073866476 0.0021347962
-0.008174569 -0.0018537634 0.0006874123 -0.0024015813 -0.008949397 0.0036229556 -0.0066937567 0.0028342763
0.003555603 0.0067113065 -0.0072662937 0.034678396 -0.0033133393 -0.06938575 0.015680222 -0.008505613
-0.096862525 -0.03316855 0.038292628 -0.0273461 0.008005136 -0.018754954 0.04381401 -0.03753768
-0.056156635 -0.0068913824 -0.14459528 -0.026292507 -0.08389834 0.08472681 0.0021543317 -0.17526227
00000000: 3278 71ba ebe3 983c 7551 443b 4244 6e3c
00000010: 0d99 343d 51a5 dfba e9c7 fbbb 8fb1 233d
00000020: c0c3 a9bc 7124 4cbc 845c ddba b93f b03b
00000030: f151 d6bb 81aa 923b b9bc 65bd 198b 8dba
00000040: 9c72 7fbb 0067 923b 86ed 223c eb0c db3b
00000050: f280 d6ba aea0 6ebb 5799 f23b a3cf a1bc
00000060: 60ec 4b3c 8c67 933c 35dc e1bd cd6c 9abd
00000070: 5216 9cbd 7f3d b23d fc57 4fbd 2752 20bc
00000080: ca0b acbc 9823 ebb9 b7df 56be d8ac d8bc
00000090: ea15 c43d 257d 1d3e 2530 053e c6ca 12bd
000000a0: 82ff cd3c 5b4b 1bbd 5693 80bd dc75 9d3d
000000b0: 552b 0cbd 18e0 123e 2e70 80be ef56 483d
000000c0: a70e 80be b3db b23d 2444 343e e09a b73b
000000d0: ce71 ee3b 5971 cc3d 09d1 553b 99e6 22bb
000000e0: 1d0f 8d3c 8d41 c43c f6eb 4dbb 692e 9c3b
000000f0: fce7 163b eb8f f1bb bf20 2eba 6318 b2ba
00000100: 35f5 e6bc 6e5a 8ebc d46c 04bf 4d98 ab3b
00000110: 9f8c 8cbc 6998 9cbe 346a 3e3a fae4 c53d
00000120: 7931 a63c 68f3 dbbb 456f 8abb aecf f23d
00000130: e2b9 d7bd 64ea abbd eeb2 753b 4227 2fbd
00000140: bc17 c63c abce d8bd 9dc0 ab3c fe0a 97bd
00000150: 7ea7 6f3d defb 883c fdb0 5f3c f385 243c
00000160: 39c3 4bbd d27e 81be b2be ec3c 8359 de3c
00000170: 121d 573c 984c 9bbb 7c09 453e 3405 bebc
00000180: b861 9c3e 5e5a eebc 7c19 183d 4650 03bd
00000190: 73f7 0bbd fdb8 bdbe a050 013d 5551 3e3d
000001a0: 66ff 0c3a 11f5 8f3c e365 adbb f2c4 03bc
000001b0: e46f 91bb 37ff 8bbb 270e bb3b 5311 be3c
000001c0: 28d7 f3bc da16 573a ffa2 acba 1ef1 97bb
000001d0: cf66 243c c6f5 093c 7379 e1bc 4c52 b2bb
000001e0: a5a8 343c 2272 5ebc 9510 6c3c 7607 0bb9
000001f0: 4b2b 71bb c6c5 1a3c f8fc 1c3c 4d0c c43c
00000200: 3984 afbc 5725 f83c 9e64 f73d 7446 ac3a
00000210: 1830 8dbd 2559 29bd 596c 803d f18e 3dbd
00000220: f455 cd3d 7bcf f0bb 3516 0a3e 4ef2 933c
00000230: d58c f7ba b23d cdbb 0f8b 6f3d f72b 09be
00000240: db7c 573c 06bd 093d 2dd5 81be 2b51 18be
00000250: 3681 0c3d de10 373e 6caa 22be 4468 173e
00000260: 5b38 86bd c713 70be 1e59 163e 5007 223e
00000270: dd3b 633b 00c5 383d 3dd8 bdba 88f5 70bb
00000280: b25f b03b 219e 1d3c 4728 8c3b 043f 0dbb
00000290: e8d8 883b 53ae 70bc ba6a e13a 562a a33a
000002a0: 49a3 9fba b86c 983c 3a12 79be 3947 88b8
000002b0: 290b 443d 5d3c ba3e 81e9 173d b94f 18be
000002c0: 0b96 9fbc c36f 4c3e dbd8 bfbb 9c50 ccbe
000002d0: 9315 4e3e 14bd 6dbe c047 12bd c1f6 03be
000002e0: 7b91 b23e 5cba 333d 5270 1b3e fe10 eabc
000002f0: 0656 a33c 6ac1 303b c717 9abe 5a4d e13c
00000300: 6c7a 2a3c 1465 a03e 9b0c 963c 8c91 67bd
00000310: e0c9 05bd 6984 b93c 7ce1 4f3e 1b59 233d
00000320: 9581 34bf 2dab be3e 878c 083e 6d42 c7bd
00000330: 6a47 e1ba 999b 933c 7e45 3fbd b352 57bd
00000340: b50b b7b9 5f06 83bd e99e 423d ecd4 04bc
00000350: 9e98 073b f5a5 d83a 83af 82bb 28b9 443d
00000360: aace 8b3b a39e 21bb 5b9e f9bb 1239 44bb
00000370: 582b 923b f61a 0c3b b10b f2bb f0e7 0b3b
00000380: a1ee 05bc faf9 f2ba 7533 343a d963 1dbb
00000390: 7ea0 12bc 1c6f 6d3b 4d57 dbbb 44bf 393b
000003a0: 1f05 693b 85ea db3b 171a eebb ef0a 0e3d
000003b0: 9c24 59bb 1e1a 8ebd cf73 803c 205b 0bbc
000003c0: dc5f c6bd bfdb 07bd bbd8 1c3d ee04 e0bc
000003d0: f927 033c fda3 99bc 5276 333d 1cc1 19bd
000003e0: 8004 66bd 1bd1 e1bb c910 14be 6263 d7bc
000003f0: e5d2 abbd 4085 ad3d b02f 0d3b f477 33be

arith.constant25 f4 [26, 3, 3, 26]
-0.007887954 0.0072723166 0.029618153 -0.23801109 -0.0027340434 0.36651918 0.07107177 0.16302939
-0.052710302 -0.033901285 0.0034783743 -0.012148004 -0.0013377564 -0.23946334 0.07169885 -0.3293179
-0.039744794 0.09984702 -0.017495278 0.0049954224 0.010311621 -0.011068182 0.041261617 0.017609617
0.11238635 -0.11817078 0.045463685 0.3668075 0.51409197 0.22006011 0.044159483 -0.092305824
-0.37697396 -1.2954518 0.07511511 1.0485272 -0.08860548 -0.08857028 0.22727883 0.39731324
0.5383712 0.31821972 0.11924053 -0.27043518 -0.6125067 -0.27383646 -0.0008378129 0.072472095
-0.0998298 -0.17959847 -0.28847992 0.15045537 -0.10917686 0.101737045 0.14034438 -0.0054850644
-0.06946092 -0.11843159 -0.2629365 -0.11422537 0.048864845 0.037364673 -0.04200988 0.07322609
-0.020571748 0.071634896 -0.0207953 0.048456196 0.13369808 0.07109659 -0.019618506 0.031051405
0.015107364 0.19790895 -0.02299313 -0.07002331 -0.09908865 0.17888281 0.08652347 -0.05648667
-0.40416938 -0.040492143 -0.03203595 0.52949905 0.098189525 0.26380515 -0.02853227 -0.0372915
0.035699688 0.30295184 0.06545155 -0.46293932 0.018949395 -1.0983722 -0.03543151 -0.09758096
-0.0002662544 0.1242419 0.09561988 -0.4255212 0.55624974 0.3607741 0.04172416 -0.50087804
0.93682516 0.97922987 -0.48570308 1.3595128 -0.36175206 -0.919418 -1.7055203 -0.5092382
0.554902 0.40874532 0.21106665 0.4673751 0.20506847 1.0464922 1.6225979 0.19637303
0.50330615 -0.39022353 -2.5164087 -0.09733898 -0.3414342 -0.38406715 0.13950564 0.058779433
-0.67883575 0.4496115 0.38239112 -0.34118652 -0.105046794 0.49392685 0.022901665 -0.22767347
0.25609702 -0.12537283 -0.35961932 0.22172333 -0.008356317 0.23618734 0.137335 0.07167578
-0.65348333 0.14109614 -0.18159075 -0.027334727 1.1829097 -0.1694814 -0.00088848907 -0.38663274
-0.28984088 0.10018847 -0.2951654 0.16224167 0.05696511 0.07863434 -0.030998774 0.028338663
0.024956826 0.4473482 -0.035259966 0.021590116 0.10359843 0.010142111 -0.019064471 -0.19391897
-0.06396783 0.05291722 -0.19555195 0.06471163 0.0140707875 -0.09404923 0.115550354 0.016234554
0.010566016 -0.12246566 -0.18796937 0.0568941 -0.021234507 0.08999203 -0.27515233 -0.78090334
-0.003575919 -0.00017776349 -0.02501929 -0.40555206 -0.09748133 0.013937962 0.37005404 -0.012377537
-0.18317255 0.5049114 0.02543979 0.17918868 -0.11488721 -0.197808 0.23295872 -0.20026782
-0.30292958 0.13940677 0.019057265 -0.014589427 0.2556961 0.32615238 0.018063447 0.2654727
0.089188665 0.12620758 0.0040391292 0.0020398658 -0.031446286 -0.047721244 0.09788002 -0.035771202
0.019405935 0.032470223 -0.01632926 -0.008984174 0.050375074 -0.04562872 -0.06707473 -0.04299641
-0.0042864266 0.03617931 0.009189056 0.014843704 0.0013038515 0.034589693 0.07240626 -0.12336351
0.01826007 -0.22644511 -0.037983976 -0.060286608 0.040827543 0.00036716406 -0.0014346227 -0.02982019
-0.06687494 -0.07214532 -0.048511613 0.07478964 -0.031178698 0.2001736 0.08474348 0.08960331
0.022120338 -0.33101067 0.022502517 -0.20668039 -0.021166211 0.029032143 0.0012023641 0.10557752
00000000: 7a3c 01bc 9d4c ee3b c5a1 f23c 2eb9 73be
00000010: a32d 33bb 67a8 bb3e 138e 913d 2df1 263e
00000020: c2e6 57bd 13dc 0abd 70f5 633b 6c08 47bc
00000030: a857 afba e135 75be d9d6 923d 5b9c a8be
00000040: 70cb 22bd 987c cc3d 4252 8fbc a4b0 a33b
00000050: 13f2 283c 5257 35bc f101 293d 0b42 903c
00000060: d12a e63d 8603 f2bd 2138 3a3d 31ce bb3e
00000070: 889b 033f 7057 613e 93e0 343d d60a bdbd
00000080: bb02 c1be 5dd1 a5bf f3d5 993d 2436 863f
00000090: ca76 b5bd 5664 b5bd c8bb 683e a46c cb3e
000000a0: b2d2 093f b2ed a23e 6134 f43d 7b76 8abe
000000b0: 3dcd 1cbf 4b34 8cbe aca0 5bba 406c 943d
000000c0: 9173 ccbd a9e8 37be a4b3 93be f910 1a3e
000000d0: 1e98 dfbd 835b d03d 70b6 0f3e 0ebc b3bb
000000e0: 8741 8ebd 438c f2bd 9d9f 86be feee e9bd
000000f0: 8126 483d b30b 193d 8d12 2cbd 8ff7 953d
00000100: 1586 a8bc 51b5 923d e85a aabc 017a 463d
00000110: 26e8 083e 179b 913d fdb6 a0bc 845f fe3c
00000120: e184 773c a5a8 4a3e 175c bcbc 6268 8fbd
00000130: fdee cabd 0e2d 373e 3833 b13d 915e 67bd
00000140: 4aef cebe 17db 25bd 2138 03bd 408d 073f
00000150: 9717 c93d 7811 873e 82bc e9bc f9be 18bd
00000160: d639 123d 811c 9b3e 760b 863d 6206 edbe
00000170: c33b 9b3c 7697 8cbf a220 11bd 87d8 c7bd
00000180: 1098 8bb9 8a72 fe3d 5bd4 c33d eadd d9be
00000190: 6266 0e3f 62b7 b83e f4e6 2a3d 8b39 00bf
000001a0: c6d3 6f3f cfae 7a3f 13ae f8be 8404 ae3f
000001b0: 9137 b9be fa5e 6bbf 7d4e dabf 6f5d 02bf
000001c0: 0f0e 0e3f 1147 d13e db21 583e ca4b ef3e
000001d0: 78fd 513e 75f3 853f 4ab1 cf3f 0316 493e
000001e0: acd8 003f 61cb c7be d70c 21c0 a959 c7bd
000001f0: 77d0 aebe 73a4 c4be 91da 0e3e b4c2 703d
00000200: 2ec8 2dbf 7b33 e63e c5c8 c33e 00b0 aebe
00000210: c622 d7bd fbe3 fc3e 469c bb3c 3c23 69be
00000220: 261f 833e bc61 00be 0620 b8be 710b 633e
00000230: efe8 08bc 18db 713e 8ca1 0c3e c0ca 923d
00000240: af4a 27bf 827b 103e edf2 39be 14ed dfbc
00000250: 9669 973f 888c 2dbe 7ee9 68ba baf4 c5be
00000260: 0666 94be 9d2f cd3d eb1f 97be ae22 263e
00000270: 3f54 693d 0a0b a13d 24f1 fdbc 7c26 e83c
00000280: 4272 cc3c d30a e53e c16c 10bd c1dd b03c
00000290: 6a2b d43d 192b 263c 182d 9cbc b292 46be
000002a0: 9101 83bd babf 583d c53e 48be 8887 843d
000002b0: 2989 663c e29c c0bd aaa5 ec3d 54fe 843c
000002c0: 151d 2d3c 47cf fabd 0b7b 40be ca09 693d
000002d0: fdf3 adbc be4d b83d c4e0 8cbe 48e9 47bf
000002e0: f759 6abb 0666 3ab9 41f5 ccbc 85a4 cfbe
000002f0: 4ba4 c7bd 0d5c 643c b977 bd3e 27cb 4abc
00000300: 9691 3bbe e041 013f 1b67 d03c 3d7d 373e
00000310: fc49 ebbd 2e8e 4abe bb8c 6e3e 0213 4dbe
00000320: 9619 9bbe a6c0 0e3e fb1d 9c3c 7e08 6fbc
00000330: 99ea 823e 72fd a63e cbf9 933c 0aec 873e
00000340: 8ca8 b63d 8f3c 013e ac5a 843b 45af 053b
00000350: d2cd 00bd 5a77 43bd 5275 c83d d384 12bd
00000360: 32f9 9e3c 7fff 043d f1c4 85bc 5b32 13bc
00000370: 1856 4e3d 2ee5 3abd 7a5e 89bd 011d 30bd
00000380: 2775 8cbb c230 143d b28d 163c 0233 733c
00000390: ffe5 aa3a ecad 0d3d bc49 943d 02a6 fcbd
000003a0: 2496 953c 3ae1 67be 1695 1bbd 17ef 76bd
000003b0: c83a 273d ed7f c039 f309 bcba 7949 f4bc
000003c0: bbf5 88bd edc0 93bd 1db4 46bd 502b 993d
000003d0: 786a ffbc 4ffa 4c3e fd8d ad3d f181 b73d
000003e0: b635 b53c 3b7a a9be 3357 b83c 06a4 53be
000003f0: c364 adbc d1d4 ed3c a598 9d3a 0739 d83d

arith.constant26 f4 [26, 3, 3, 26]
-0.030864328 0.033244062 0.07131436 0.0552942 0.021294143 -0.034036536 -0.037524458 0.022915972
0.027394686 -0.005034276 -0.00889117 0.014306816 0.036669184 0.03845458 0.041273523 0.042744275
0.0018888378 0.0054611135 -0.031269126 0.047541402 -0.004404811 -0.017216614 0.031076308 -0.057897467
-0.07768662 0.015872901 -0.037690435 0.027945988 0.3839259 -0.01167662 0.011226008 -0.0007853789
-0.04161724 0.013089509 0.030406877 -0.13350868 0.015151027 -0.11144695 0.0715731 0.113269135
0.2613579 -0.029377513 0.049687102 0.0026091053 -0.080941506 -0.06848206 0.051478192 0.022643497
0.06907353 -0.13102446 -0.27767837 0.050324313 -0.009875501 0.013701912 0.030308997 -0.00817343
-0.011574357 -0.016929515 -0.05813179 0.010192792 0.0034686988 0.004741393 -0.023207137 0.05436835
0.02697189 0.025346857 0.057044495 -0.031401005 -0.027265511 0.06352535 -0.01654964 -0.08029862
0.011856094 0.019198842 0.028630888 0.035751462 -0.0050005466 0.0024961557 -0.13227327 -0.022917368
-0.14049263 -0.034944694 0.013930183 0.04737261 0.027386697 -0.05972173 0.014306527 0.00013898735
0.0035442575 0.009765472 0.12999836 0.10063626 -0.19360733 0.026219316 0.015156648 -0.09491975
-0.041886788 0.021285769 -0.024780568 -0.01924091 -0.031247485 -0.12255715 0.041383773 0.03752844
0.082217626 -0.0144602 -0.7834541 -0.040292535 -0.11173214 0.11272599 -0.11736691 0.10977527
-0.16695651 0.047115766 0.30294177 -0.09833037 0.3964697 0.084378295 -0.7906199 0.14792797
-0.041275624 -0.09994666 0.72401345 0.001604223 -0.12527147 -0.20900834 0.05468011 -0.45987806
0.24030375 0.010939909 0.039581276 0.03990555 -0.028778754 -0.018402472 -0.0153046865 0.013170767
0.10547303 -0.068027884 0.026446825 -0.1503621 -0.046073467 -0.00034686676 0.07337016 0.028472088
-0.007531639 0.06743681 -0.033932246 -0.07597673 0.16240461 0.070253 0.10016601 -0.100427814
-0.08782004 0.04867199 0.03221115 -0.012434805 0.04145069 -0.0053825355 -0.16109157 -0.013809013
0.015785376 -0.043671865 -0.015257932 0.010819514 0.06922796 -0.08660018 -0.007010129 0.0042409427
0.011693175 0.020420061 0.21055135 -0.04110363 0.028370937 -0.010860301 -0.00066396425 0.047900062
0.020807894 -0.018156165 -0.039645724 0.018420232 0.028627453 -0.006306774 -0.030384857 -0.0896099
-0.032229606 -0.0049596354 0.10009883 -0.047279015 -0.009243964 -0.112547465 0.08404626 0.051283024
0.04224942 0.014790805 0.0039477563 -0.004837194 0.16579843 -0.08396065 0.04552126 -0.029463425
0.114763044 0.035180233 -0.014147447 0.0014638745 0.0026266405 0.010631584 0.05454048 -0.090167485
-0.026694039 -0.0034188947 -0.11973861 0.020399837 -0.033391483 -0.0056418083 -0.000996844 0.014878802
0.022733856 0.017907677 -0.03573627 -0.0024160484 -0.019159535 0.010639604 0.03422433 -0.07387701
0.05231341 -0.024067363 -0.0013507286 0.021304807 -0.01538819 0.09632117 0.0013322359 -0.050062962
0.009789067 -0.006457429 0.01249327 -0.0070299655 0.009584034 0.09028846 -0.0068494207 -0.039845612
0.02237095 0.015523906 -0.010057127 -0.013725029 0.00916351 -0.017398234 -0.009306958 0.016900381
0.008838162 -0.017425735 -0.013119171 -0.077648215 -0.02723772 -0.04020061 -0.025356377 0.02448474
00000000: 30d7 fcbc ed2a 083d 430d 923d 2c7c 623d
00000010: 0e71 ae3c e569 0bbd 3fb3 19bd 47ba bb3c
00000020: d26a e03c 91f6 a4bb 45ac 11bc 2367 6a3c
00000030: 6d32 163d 8d82 1d3d 6d0e 293d 9f14 2f3d
00000040: e192 f73a 24f3 b23b 0e14 00bd c6ba 423d
00000050: 3c56 90bb db09 8dbc be93 fe3c e525 6dbd
00000060: 2a1a 9fbd e307 823c 4961 1abd fcee e43c
00000070: f091 c43e 4b4f 3fbc 4aed 373c e3e1 4dba
00000080: d776 2abd 6175 563c d817 f93c 80b6 08be
00000090: 033c 783c 4c3e e4bd eb94 923d a6f9 e73d
000000a0: b4d0 853e 1ca9 f0bc b484 4b3d 86fd 2a3b
000000b0: a9c4 a5bd 5340 8cbd ccda 523d db7e b93c
000000c0: 6c76 8d3d 472b 06be dc2b 8ebe de20 4e3d
000000d0: dacc 21bc fc7d 603c 934a f83c dae9 05bc
000000e0: 5fa2 3dbc c4af 8abc 9a1b 6ebd abff 263c
000000f0: 1c53 633b b05d 9b3b e51c bebc 59b1 5e3d
00000100: 27f4 dc3c 36a4 cf3c 7da7 693d 579e 00bd
00000110: ec5b dfbc 9419 823d 1c93 87bc 9a73 a4bd
00000120: 1040 423c e446 9d3c 538b ea3c 2070 123d
00000130: a0db a3bb 8b96 233b a572 07be 34bd bbbc
00000140: 4ddd 0fbe 2b22 0fbd 6c3b 643c c809 423d
00000150: 115a e03c c69e 74bd ec65 6a3c 22bd 1139
00000160: c646 683b 5cff 1f3c 4a1e 053e 621a ce3d
00000170: 0041 46be e4c9 d63c 9753 783c 4965 c2bd
00000180: 7b91 2bbd 7e5f ae3c 9e00 cbbc 1d9f 9dbc
00000190: bafa ffbc 3eff fabd 0882 293d 6cb7 193d
000001a0: b761 a83d 7aea 6cbc 7390 48bf c909 25bd
000001b0: d2d3 e4bd e2dc e63d 105e f0bd dbd1 e03d
000001c0: a6f6 2abe 76fc 403d 2f1b 9b3e 6f61 c9bd
000001d0: 14fe ca3e 87ce ac3d 1166 4abf 6e7a 173e
000001e0: a110 29bd d6b0 ccbd f258 393f cb44 d23a
000001f0: 2a47 00be 4806 56be 40f8 5f3d 2375 ebbe
00000200: 3012 763e 4e3d 333c fa1f 223d 0174 233d
00000210: 6cc1 ebbc c8c0 96bc 82c0 7abc 33ca 573c
00000220: 3e02 d83d 3452 8bbd 03a7 d83c 86f8 19be
00000230: 88b7 3cbd abdb b5b9 1843 963d 4c3e e93c
00000240: f8cb f6bb 4f1c 8a3d 8afc 0abd b099 9bbd
00000250: 654d 263e cee0 8f3d d623 cd3d 19ad cdbd
00000260: feda b3bd 485c 473d d7ef 033d 5abb 4bbc
00000270: 33c8 293d fb5f b0bb 30f5 24be 333f 62bc
00000280: 5550 813c 45e1 32bd 68fc 79bc 5544 313c
00000290: 64c7 8d3d 6f5b b1bd 39b5 e5bb 9bf7 8a3b
000002a0: bb94 3f3c f947 a73c c69a 573e 485c 28bd
000002b0: 2b6a e83c 67ef 31bc e30d 2eba db32 443d
000002c0: 5175 aa3c 3dbc 94bc 8e63 22bd 07e6 963c
000002d0: 1f84 ea3c 0ea9 cebb aae9 f8bc 6585 b7bd
000002e0: 3103 04bd 7084 a2bb 9e00 cd3d a4a7 41bd
000002f0: ff73 17bc 497f e6bd 7220 ac3d 260e 523d
00000300: ba0d 2d3d 2255 723c 2e5c 813b 5381 9ebb
00000310: 10c7 293e 90f3 abbd 8074 3a3d 485d f1bc
00000320: e308 eb3d 2619 103d b2ca 67bc 7adf bf3a
00000330: b723 2c3b 1830 2e3c d765 5f3d bba9 b8bd
00000340: 75ad dabc 890f 60bb 8439 f5bd 8f1d a73c
00000350: 82c5 08bd ebde b8bb 89a8 82ba 38c6 733c
00000360: 5a3c ba3c 1fb3 923c 3260 12bd 9156 1ebb
00000370: 75f4 9cbc bc51 2e3c d02e 0c3d d44c 97bd
00000380: 9646 563d eb28 c5bc ee0a b1ba 6b87 ae3c
00000390: bf1e 7cbc 0944 c53d 6b9e ae3a d20e 4dbd
000003a0: 5362 203c d798 d3bb 93b0 4c3c a05b e6bb
000003b0: 5a06 1d3c 28e9 b83d 1b71 e0bb 2735 23bd
000003c0: 4843 b73c fb57 7e3c a6c6 24bc f2de 60bc
000003d0: 8c22 163c be86 8ebc 367c 18bc ab72 8a3c
000003e0: f0cd 103c 6ac0 8ebc cbf1 56bc 0706 9fbd
000003f0: a421 dfbc 65a9 24bd 2db8 cfbc 3994 c83c
