app/src/main/assets/models/DSCF_720p_x2_int8.tflite (tflite, 158288 bytes, 22 tensors)

tfl.pseudo_qconst1 i1 [12, 3, 3, 26]
000000 13 e8 18 30 cc 18 e4 bf 16 e4 09 13 c7 f2 3b 02
       19 -24 24 48 -52 24 -28 -65 22 -28 9 19 -57 -14 59 2
000010 33 56 e7 39 13 0b f3 02 16 24 ce f4 f3 34 ea 4c
       51 86 -25 57 19 11 -13 2 22 36 -50 -12 -13 52 -22 76
000020 b5 a7 eb 55 03 3f f2 30 e8 e8 23 41 2f f6 f9 cc
       -75 -89 -21 85 3 63 -14 48 -24 -24 35 65 47 -10 -7 -52
000030 fa e3 d1 12 63 0a 22 fd 1c 25 1b 1b ec eb 25 1a
       -6 -29 -47 18 99 10 34 -3 28 37 27 27 -20 -21 37 26
000040 c9 36 23 09 35 0e c8 e2 16 11 1e 2a ff 20 d9 25
       -55 54 35 9 53 14 -56 -30 22 17 30 42 -1 32 -39 37
000050 2d cd 25 34 ac 23 31 32 17 0d cf 44 1f e8 ec 1e
       45 -51 37 52 -84 35 49 50 23 13 -49 68 31 -24 -20 30
000060 2a e6 f7 cb d5 26 9e ef be ff fa 15 10 38 99 1d
       42 -26 -9 -53 -43 38 -98 -17 -66 -1 -6 21 16 56 -103 29
000070 f0 cf c5 27 9d 0e fa 38 0f 5e f2 81 d4 d1 bf 1c
       -16 -49 -59 39 -99 14 -6 56 15 94 -14 -127 -44 -47 -65 28
000080 ad 2f d3 1f d3 de e0 49 ea cf 41 de 45 fb 1c d3
       -83 47 -45 31 -45 -34 -32 73 -22 -49 65 -34 69 -5 28 -45
000090 d5 e3 fa 48 15 ee d1 41 e5 d4 b7 17 1e 0b 03 19
       -43 -29 -6 72 21 -18 -47 65 -27 -44 -73 23 30 11 3 25
0000a0 c0 da da d5 06 cb d1 f1 eb f1 11 15 de 18 f2 fb
       -64 -38 -38 -43 6 -53 -47 -15 -21 -15 17 21 -34 24 -14 -5
0000b0 dd bc eb f2 d8 c2 d9 c6 c4 c1 f0 fe 1a f5 2a 2a
       -35 -68 -21 -14 -40 -62 -39 -58 -60 -63 -16 -2 26 -11 42 42
0000c0 c7 1e b4 52 22 00 f5 34 fc 27 01 0a e0 23 1d 03
       -57 30 -76 82 34 0 -11 52 -4 39 1 10 -32 35 29 3
0000d0 f6 01 e1 ee 09 0e e2 22 b8 cb fe ea 1f ef da 1b
       -10 1 -31 -18 9 14 -30 34 -72 -53 -2 -22 31 -17 -38 27
0000e0 48 09 35 1f 0f 0c 19 03 fe e6 32 c3 d6 ca 17 de
       72 9 53 31 15 12 25 3 -2 -26 50 -61 -42 -54 23 -34
0000f0 1a c9 ff 16 32 31 b4 1c e0 ec f7 4e 16 00 11 1b
       26 -55 -1 22 50 49 -76 28 -32 -20 -9 78 22 0 17 27

tfl.pseudo_qconst3 i1 [26, 1, 1, 104]
000000 ff 03 00 04 0b fe ff 09 fa fd ff 01 fd 00 f5 00
       -1 3 0 4 11 -2 -1 9 -6 -3 -1 1 -3 0 -11 0
000010 00 00 02 01 01 01 00 fd 01 04 e4 ee ed 15 ee fd
       0 0 2 1 1 1 0 -3 1 4 -28 -18 -19 21 -18 -3
000020 fd 00 cc f9 17 26 20 fd 06 f8 f0 11 f8 23 c1 0f
       -3 0 -52 -7 23 38 32 -3 6 -8 -16 17 -8 35 -63 15
000030 c2 16 28 01 02 18 fe ff 03 07 fe 01 ff fe 00 fd
       -62 22 40 1 2 24 -2 -1 3 7 -2 1 -1 -2 0 -3
000040 f4 fb 81 00 fc b4 01 15 07 06 fe 1d e7 eb 02 f7
       -12 -5 -127 0 -4 -76 1 21 7 6 -2 29 -25 -21 2 -9
000050 07 e8 07 ef 11 06 04 02 f4 c3 09 07 05 00 32 fa
       7 -24 7 -17 17 6 4 2 -12 -61 9 7 5 0 50 -6
000060 4c f9 0b f8 f8 a6 0a 0d 01 03 fd fe ff 00 01 04
       76 -7 11 -8 -8 -90 10 13 1 3 -3 -2 -1 0 1 4
000070 fa 00 ff ff fe 00 fb 00 03 fe 03 ff ff 00 02 04
       -6 0 -1 -1 -2 0 -5 0 3 -2 3 -1 -1 0 2 4
000080 ff 04 16 01 f3 f6 03 f7 15 00 19 03 ff fe 0b eb
       -1 4 22 1 -13 -10 3 -9 21 0 25 3 -1 -2 11 -21
000090 03 09 d3 e2 07 20 e3 1f f4 d5 19 1c 00 07 fd fe
       3 9 -45 -30 7 32 -29 31 -12 -43 25 28 0 7 -3 -2
0000a0 01 02 00 ff 00 fc 00 02 f9 00 d4 ff 0a 43 07 e3
       1 2 0 -1 0 -4 0 2 -7 0 -44 -1 10 67 7 -29
0000b0 00 1d ff b9 20 d4 fa e9 41 08 1d fc 06 02 c7 04
       0 29 -1 -71 32 -44 -6 -23 65 8 29 -4 6 2 -57 4
0000c0 00 3a 05 f6 fa 06 27 06 81 45 1a ee 01 05 f9 f8
       0 58 5 -10 -6 6 39 6 -127 69 26 -18 1 5 -7 -8
0000d0 00 e1 14 fa 01 03 01 12 fe 01 fc ff 01 01 f5 00
       0 -31 20 -6 1 3 1 18 -2 1 -4 -1 1 1 -11 0
0000e0 ff fe ff fe fc 02 fb 00 04 04 fc 13 fd dd 07 fc
       -1 -2 -1 -2 -4 2 -5 0 4 4 -4 19 -3 -35 7 -4
0000f0 d1 f2 15 f2 04 f6 16 f8 e4 fd b2 ed d2 2d fd a3
       -47 -14 21 -14 4 -10 22 -8 -28 -3 -78 -19 -46 45 -3 -93

tfl.pseudo_qconst5 i1 [26, 3, 3, 26]
000000 00 00 01 f4 00 13 03 08 fd fe 00 ff fe f4 04 ef
       0 0 1 -12 0 19 3 8 -3 -2 0 -1 -2 -12 4 -17
000010 fe 05 ff 00 01 00 02 01 05 fa 02 12 1a 0b 02 fc
       -2 5 -1 0 1 0 2 1 5 -6 2 18 26 11 2 -4
000020 ed bf 04 35 fb fb 0b 14 1b 10 06 f2 e1 f2 00 04
       -19 -65 4 53 -5 -5 11 20 27 16 6 -14 -31 -14 0 4
000030 fb f7 f1 08 fb 05 07 00 fd fa f3 fa 03 02 fe 04
       -5 -9 -15 8 -5 5 7 0 -3 -6 -13 -6 3 2 -2 4
000040 ff 04 ff 03 07 04 ff 02 01 0a ff fd fb 09 04 fd
       -1 4 -1 3 7 4 -1 2 1 10 -1 -3 -5 9 4 -3
000050 ec fe fe 1b 05 0d fe fe 02 0f 01 e8 01 c9 fe fb
       -20 -2 -2 27 5 13 -2 -2 2 15 1 -24 1 -55 -2 -5
000060 00 07 05 eb 1c 12 02 e7 2f 31 e8 44 ee d2 aa e6
       0 7 5 -21 28 18 2 -25 47 49 -24 68 -18 -46 -86 -26
000070 1c 15 0b 18 0a 35 52 0a 19 ec 81 fb ef ed 07 03
       28 21 11 24 10 53 82 10 25 -20 -127 -5 -17 -19 7 3
000080 de 17 14 ef fb 19 01 f5 0d fa ee 0c 00 0c 07 04
       -34 23 20 -17 -5 25 1 -11 13 -6 -18 12 0 12 7 4
000090 df 07 f7 ff 3c f8 00 ed f2 05 f1 08 03 04 fe 01
       -33 7 -9 -1 60 -8 0 -19 -14 5 -15 8 3 4 -2 1
0000a0 01 17 fe 01 05 00 ff f6 fb 02 f6 03 01 fb 06 01
       1 23 -2 1 5 0 -1 -10 -5 2 -10 3 1 -5 6 1
0000b0 01 fa f6 03 ff 04 f2 d8 00 00 ff ec fb 01 13 ff
       1 -6 -10 3 -1 4 -14 -40 0 0 -1 -20 -5 1 19 -1
0000c0 f7 19 01 09 fa f6 0c f6 f1 07 01 ff 0d 10 01 0d
       -9 25 1 9 -6 -10 12 -10 -15 7 1 -1 13 16 1 13
0000d0 05 06 00 00 fe fe 05 fe 01 02 ff 00 02 fe fd fe
       5 6 0 0 -2 -2 5 -2 1 2 -1 0 2 -2 -3 -2
0000e0 00 02 00 01 00 02 04 fa 01 f5 fe fc 03 00 00 fe
       0 2 0 1 0 2 4 -6 1 -11 -2 -4 3 0 0 -2
0000f0 fc fb fd 05 fe 0c 06 05 01 eb 01 f3 ff 02 00 06
       -4 -5 -3 5 -2 12 6 5 1 -21 1 -13 -1 2 0 6

tfl.pseudo_qconst7 i1 [26, 3, 3, 26]
000000 fb 05 0c 08 05 fa f9 03 02 ff fe 02 06 06 07 07
       -5 5 12 8 5 -6 -7 3 2 -1 -2 2 6 6 7 7
000010 00 01 fa 08 ff fd 04 f6 f4 02 fa 03 3e 00 03 00
       0 1 -6 8 -1 -3 4 -10 -12 2 -6 3 62 0 3 0
000020 f9 02 04 eb 01 ed 0c 13 2b fb 07 00 f2 f5 09 04
       -7 2 4 -21 1 -19 12 19 43 -5 7 0 -14 -11 9 4
000030 0b ea d4 08 fe 02 05 fe ff fd f6 01 ff 00 fb 07
       11 -22 -44 8 -2 2 5 -2 -1 -3 -10 1 -1 0 -5 7
000040 04 04 0a fb fc 0a fc f3 02 03 05 06 ff 00 ea fd
       4 4 10 -5 -4 10 -4 -13 2 3 5 6 -1 0 -22 -3
000050 ea f9 00 07 04 f7 03 01 02 04 15 11 e1 04 03 f1
       -22 -7 0 7 4 -9 3 1 2 4 21 17 -31 4 3 -15
000060 fa 04 fc fd fb ec 07 07 0d fd 82 fb ed 12 ed 12
       -6 4 -4 -3 -5 -20 7 7 13 -3 -126 -5 -19 18 -19 18
000070 e6 09 32 f4 40 0e 81 17 f8 ef 75 01 ec de 09 b5
       -26 9 50 -12 64 14 -127 23 -8 -17 117 1 -20 -34 9 -75
000080 28 03 06 07 fc fc fc 02 11 f5 04 e8 f9 03 0c 05
       40 3 6 7 -4 -4 -4 2 17 -11 4 -24 -7 3 12 5
000090 ff 0b fb f4 1a 0c 10 f0 f1 07 06 ff 06 ff e6 fc
       -1 11 -5 -12 26 12 16 -16 -15 7 6 -1 6 -1 -26 -4
0000a0 02 f9 fd 01 0a f2 ff 03 02 03 22 fa 06 fe 00 08
       2 -7 -3 1 10 -14 -1 3 2 3 34 -6 6 -2 0 8
0000b0 03 fd f9 02 05 ff fb f1 fb 01 10 f8 fe ed 0d 09
       3 -3 -7 2 5 -1 -5 -15 -5 1 16 -8 -2 -19 13 9
0000c0 06 04 01 00 1b f2 06 fa 12 06 fe 00 00 02 09 f2
       6 4 1 0 27 -14 6 -6 18 6 -2 0 0 2 9 -14
0000d0 fb ff ed 01 fa ff ff 02 02 03 fa 00 fd 02 06 f4
       -5 -1 -19 1 -6 -1 -1 2 2 3 -6 0 -3 2 6 -12
0000e0 09 fc ff 04 fd 10 ff f8 02 ff 03 ff 02 15 fc f7
       9 -4 -1 4 -3 16 -1 -8 2 -1 3 -1 2 21 -4 -9
0000f0 05 04 fe fd 02 fc fd 05 02 fc 00 f0 fa f7 fb 06
       5 4 -2 -3 2 -4 -3 5 2 -4 0 -16 -6 -9 -5 6

tfl.pseudo_qconst9 i1 [26, 3, 3, 26]
000000 fe 03 00 02 ff 00 01 ff ff ff 00 fc fb 02 01 00
       -2 3 0 2 -1 0 1 -1 -1 -1 0 -4 -5 2 1 0
000010 02 03 ff 02 fc 00 04 15 00 fc 15 f7 03 fd fe 00
       2 3 -1 2 -4 0 4 21 0 -4 21 -9 3 -3 -2 0
000020 ee fd 00 06 06 fd 05 03 fd 0d fc 0a 00 08 f7 ff
       -18 -3 0 6 6 -3 5 3 -3 13 -4 10 0 8 -9 -1
000030 f4 fd fe 1f 05 00 03 ff 00 ff 01 fd 00 fc ff 05
       -12 -3 -2 31 5 0 3 -1 0 -1 1 -3 0 -4 -1 5
000040 05 fe 02 f5 00 00 00 01 01 fd fe f0 02 08 f7 fa
       5 -2 2 -11 0 0 0 1 1 -3 -2 -16 2 8 -9 -6
000050 02 00 fe ff fd 05 ff fc 01 03 03 03 05 00 02 04
       2 0 -2 -1 -3 5 -1 -4 1 3 3 3 5 0 2 4
000060 ff fd 04 0b 00 f3 02 f7 06 f5 f9 f7 ff fc e8 03
       -1 -3 4 11 0 -13 2 -9 6 -11 -7 -9 -1 -4 -24 3
000070 03 10 f8 17 09 13 ce 04 ff 07 00 ed f9 0e f9 15
       3 16 -8 23 9 19 -50 4 -1 7 0 -19 -7 14 -7 21
000080 04 7f 0a fe ff 02 02 02 fe fb fd ff 05 ff fc fd
       4 127 10 -2 -1 2 2 2 -2 -5 -3 -1 5 -1 -4 -3
000090 f2 ef 06 09 00 fe ff 00 00 0d fc e8 02 01 00 00
       -14 -17 6 9 0 -2 -1 0 0 13 -4 -24 2 1 0 0
0000a0 01 00 02 01 01 ff 02 fd 00 01 ff 02 02 fe 00 00
       1 0 2 1 1 -1 2 -3 0 1 -1 2 2 -2 0 0
0000b0 fd fe 00 fa fd 0a 01 00 02 05 00 01 00 fb ff fc
       -3 -2 0 -6 -3 10 1 0 2 5 0 1 0 -5 -1 -4
0000c0 00 ff fc f9 06 05 01 02 00 05 01 00 03 e5 00 14
       0 -1 -4 -7 6 5 1 2 0 5 1 0 3 -27 0 20
0000d0 00 02 03 02 00 02 00 02 00 fa 02 fb 01 fd 06 fe
       0 2 3 2 0 2 0 2 0 -6 2 -5 1 -3 6 -2
0000e0 01 05 fe 07 ff fe 03 fe 00 0b f2 02 09 ed 02 fb
       1 5 -2 7 -1 -2 3 -2 0 11 -14 2 9 -19 2 -5
0000f0 f5 03 03 05 02 07 12 fb fe fd fd fa 06 01 03 ed
       -11 3 3 5 2 7 18 -5 -2 -3 -3 -6 6 1 3 -19

tfl.pseudo_qconst11 i1 [26, 3, 3, 26]
000000 fa fb fc 15 17 fa 07 0f 00 fc 04 0b fc 0a 01 05
       -6 -5 -4 21 23 -6 7 15 0 -4 4 11 -4 10 1 5
000010 f4 0c 00 f8 00 05 13 fb fe de fc 42 e7 f5 f7 f3
       -12 12 0 -8 0 5 19 -5 -2 -34 -4 66 -25 -11 -9 -13
000020 f5 2d 04 ee 13 fe 35 2d fc 19 e3 fd 08 e5 0c ae
       -11 45 4 -18 19 -2 53 45 -4 25 -29 -3 8 -27 12 -82
000030 7f ef ea e6 fa fc f4 0a 07 08 00 1c 0b 0e 02 0e
       127 -17 -22 -26 -6 -4 -12 10 7 8 0 28 11 14 2 14
000040 03 12 ed 12 f7 0a ec f4 01 d9 f0 f8 1b 23 03 5a
       3 18 -19 18 -9 10 -20 -12 1 -39 -16 -8 27 35 3 90
000050 ec fc 03 10 f2 d3 fa 06 2f ea 0c f3 f2 ef ec 12
       -20 -4 3 16 -14 -45 -6 6 47 -22 12 -13 -14 -17 -20 18
000060 0e f6 04 eb 03 25 e9 f9 cc 83 a8 29 ee 3d b8 9e
       14 -10 4 -21 3 37 -23 -7 -52 -125 -88 41 -18 61 -72 -98
000070 fa ee 33 eb 3e 14 df f4 0f 3c 28 2f 0d 27 ff 57
       -6 -18 51 -21 62 20 -33 -12 15 60 40 47 13 39 -1 87
000080 fa 19 eb d9 04 fc 12 e6 00 d0 14 fa 0e 09 02 fb
       -6 25 -21 -39 4 -4 18 -26 0 -48 20 -6 14 9 2 -5
000090 04 db f3 0e 25 0a 01 de d2 0f f2 16 05 fe 03 05
       4 -37 -13 14 37 10 1 -34 -46 15 -14 22 5 -2 3 5
0000a0 fe fc 07 0d 07 fb 02 f3 f9 ff ff f9 f3 ff f8 01
       -2 -4 7 13 7 -5 2 -13 -7 -1 -1 -7 -13 -1 -8 1
0000b0 fd ef 26 12 fa f2 f1 04 19 f0 f7 f6 0a 0b fb 03
       -3 -17 38 18 -6 -14 -15 4 25 -16 -9 -10 10 11 -5 3
0000c0 ee fa f1 fc 01 f4 0c ff fb fd fa f2 f1 09 f9 09
       -18 -6 -15 -4 1 -12 12 -1 -5 -3 -6 -14 -15 9 -7 9
0000d0 01 0d fe fc 03 f9 09 0e fc fb ea fb f9 05 03 f8
       1 13 -2 -4 3 -7 9 14 -4 -5 -22 -5 -7 5 3 -8
0000e0 05 fe fa 07 f9 01 20 05 03 ef 02 03 03 02 06 00
       5 -2 -6 7 -7 1 32 5 3 -17 2 3 3 2 6 0
0000f0 ff 05 03 0c fd 0b 03 0c ff 0a f9 04 fe 01 fb fc
       -1 5 3 12 -3 11 3 12 -1 10 -7 4 -2 1 -5 -4

tfl.pseudo_qconst13 i1 [26, 3, 3, 26]
000000 35 f1 1a 13 f3 04 0b 03 0d ff fe ee 0e e5 fc 00
       53 -15 26 19 -13 4 11 3 13 -1 -2 -18 14 -27 -4 0
000010 09 31 ff bf f9 f1 04 07 e6 f9 2f 23 09 e4 fd 0b
       9 49 -1 -65 -7 -15 4 7 -26 -7 47 35 9 -28 -3 11
000020 15 04 f5 0f 0b b0 3c cc 04 fb b6 32 40 e5 02 e4
       21 4 -11 15 11 -80 60 -52 4 -5 -74 50 64 -27 2 -28
000030 e6 12 0e d1 fd 18 ff fb fd fb ea fe fb 04 e9 df
       -26 18 14 -47 -3 24 -1 -5 -3 -5 -22 -2 -5 4 -23 -33
000040 fa 02 0c 05 0f f0 12 1a f9 00 0a 0b 01 0a 0d 25
       -6 2 12 5 15 -16 18 26 -7 0 10 11 1 10 13 37
000050 d0 10 0b f6 de 0e e5 14 e9 f0 1a 6d 00 0e d1 f6
       -48 16 11 -10 -34 14 -27 20 -23 -16 26 109 0 14 -47 -10
000060 1d f9 09 ee fd 0e 14 f9 24 9f df 03 ef 21 c3 e6
       29 -7 9 -18 -3 14 20 -7 36 -97 -33 3 -17 33 -61 -26
000070 17 14 0d f8 d6 7f f9 15 40 f9 49 0b 19 ba df 31
       23 20 13 -8 -42 127 -7 21 64 -7 73 11 25 -70 -33 49
000080 ea 18 e6 1c 0e cd f3 f6 04 f5 f6 09 ed 08 e2 d8
       -22 24 -26 28 14 -51 -13 -10 4 -11 -10 9 -19 8 -30 -40
000090 0e fa 1e 0a 0d e4 05 df 0b 0c f5 dc f7 08 e5 e8
       14 -6 30 10 13 -28 5 -33 11 12 -11 -36 -9 8 -27 -24
0000a0 f2 02 ea fa ff 01 06 00 f4 f2 fd 09 16 12 05 e9
       -14 2 -22 -6 -1 1 6 0 -12 -14 -3 9 22 18 5 -23
0000b0 f9 f8 0e 04 fa e3 15 14 f7 f6 f0 fe c1 fe f1 fc
       -7 -8 14 4 -6 -29 21 20 -9 -10 -16 -2 -63 -2 -15 -4
0000c0 06 10 fe fe ff 04 17 18 ea d7 e4 ff 3f 13 e4 f9
       6 16 -2 -2 -1 4 23 24 -22 -41 -28 -1 63 19 -28 -7
0000d0 0d fc fd 18 fa 03 02 fe fe 09 05 09 07 0f fd 05
       13 -4 -3 24 -6 3 2 -2 -2 9 5 9 7 15 -3 5
0000e0 ff 01 fd e6 fb 02 09 06 0c f4 d3 01 01 fb f1 f0
       -1 1 -3 -26 -5 2 9 6 12 -12 -45 1 1 -5 -15 -16
0000f0 f4 07 0c 04 ec f9 06 28 0a 0a 07 f0 f4 0c 0c 05
       -12 7 12 4 -20 -7 6 40 10 10 7 -16 -12 12 12 5

tfl.pseudo_qconst15 i1 [26, 3, 3, 26]
000000 00 fb 0d fa f4 06 02 ea fc 09 fe f5 02 ff 06 fc
       0 -5 13 -6 -12 6 2 -22 -4 9 -2 -11 2 -1 6 -4
000010 f6 f1 f2 f3 f5 21 05 15 0a ff f9 ea 07 ef 23 e3
       -10 -15 -14 -13 -11 33 5 21 10 -1 -7 -22 7 -17 35 -29
000020 fd c6 0c ee 0d 1f 12 0b 07 0f 30 12 3f 13 2e b6
       -3 -58 12 -18 13 31 18 11 7 15 48 18 63 19 46 -74
000030 ed db ef f7 fb 07 ff f4 06 07 01 e4 f9 01 fd f2
       -19 -37 -17 -9 -5 7 -1 -12 6 7 1 -28 -7 1 -3 -14
000040 fa 03 05 ff f6 04 f8 08 fa 08 01 f7 07 f9 00 fc
       -6 3 5 -1 -10 4 -8 8 -6 8 1 -9 7 -7 0 -4
000050 05 02 ef f6 00 e5 05 fd 03 f6 f4 07 f3 fe 00 0a
       5 2 -17 -10 0 -27 5 -3 3 -10 -12 7 -13 -2 0 10
000060 08 fc 12 e4 0b fc 03 f7 ff 3f 0a 2a 1a 1d 23 40
       8 -4 18 -28 11 -4 3 -9 -1 63 10 42 26 29 35 64
000070 e6 f3 0f f1 01 e0 0b ef ec 21 90 d3 e3 7f 2c d3
       -26 -13 15 -15 1 -32 11 -17 -20 33 -112 -45 -29 127 44 -45
000080 ed 15 fa f6 fe 1c 00 fe 08 29 fc f4 fd fa fc fb
       -19 21 -6 -10 -2 28 0 -2 8 41 -4 -12 -3 -6 -4 -5
000090 01 00 0a 02 0c 07 18 f3 05 04 e9 0b fe f7 f7 0a
       1 0 10 2 12 7 24 -13 5 4 -23 11 -2 -9 -9 10
0000a0 15 fe fc 07 f5 ec fc 0b 08 eb 10 03 1c 0b 0b 11
       21 -2 -4 7 -11 -20 -4 11 8 -21 16 3 28 11 11 17
0000b0 f2 fc 09 f5 f6 fa 03 f7 01 2a e0 fe f7 dd 01 04
       -14 -4 9 -11 -10 -6 3 -9 1 42 -32 -2 -9 -35 1 4
0000c0 07 fe f6 e7 f5 f5 e9 15 33 ea fe 95 0f e1 03 ee
       7 -2 -10 -25 -11 -11 -23 21 51 -22 -2 -107 15 -31 3 -18
0000d0 fd 09 00 0c f5 e7 05 df f7 d6 07 14 05 07 09 f5
       -3 9 0 12 -11 -25 5 -33 -9 -42 7 20 5 7 9 -11
0000e0 1b ec 03 19 ee f9 fa 17 08 e4 00 fc 13 f7 e0 f4
       27 -20 3 25 -18 -7 -6 23 8 -28 0 -4 19 -9 -32 -12
0000f0 f8 03 02 06 18 03 f8 21 04 fe e6 ed 10 09 11 e3
       -8 3 2 6 24 3 -8 33 4 -2 -26 -19 16 9 17 -29

tfl.pseudo_qconst17 i1 [26, 3, 3, 26]
000000 ef f5 06 13 ee f5 09 ee eb e2 04 0a e3 e7 df c6
       -17 -11 6 19 -18 -11 9 -18 -21 -30 4 10 -29 -25 -33 -58
000010 dc cd fd d3 00 f1 32 08 f0 11 02 14 0a 0a e3 00
       -36 -51 -3 -45 0 -15 50 8 -16 17 2 20 10 10 -29 0
000020 10 01 ed fb e3 c1 d9 e5 df 02 ff dc 37 de 0c 10
       16 1 -19 -5 -29 -63 -39 -27 -33 2 -1 -36 55 -34 12 16
000030 e3 fc 07 08 f8 23 10 c5 d3 fb fa 1d e5 bb e7 d5
       -29 -4 7 8 -8 35 16 -59 -45 -5 -6 29 -27 -69 -25 -43
000040 f4 05 08 00 dc e1 f9 f5 0a fc e3 fc f4 12 f7 fa
       -12 5 8 0 -36 -31 -7 -11 10 -4 -29 -4 -12 18 -9 -6
000050 07 0f eb 01 eb 00 e4 c7 c5 30 04 18 c8 34 08 e9
       7 15 -21 1 -21 0 -28 -57 -59 48 4 24 -56 52 8 -23
000060 0a f7 16 d6 fc fa 0a f5 f5 04 f3 15 eb 20 07 81
       10 -9 22 -42 -4 -6 10 -11 -11 4 -13 21 -21 32 7 -127
000070 d9 ea 4e 21 f4 f2 ef 04 08 f1 1e ed 26 f3 35 ca
       -39 -22 78 33 -12 -14 -17 4 8 -15 30 -19 38 -13 53 -54
000080 d0 c3 e2 d3 01 c0 dd 1a 08 f8 e3 eb e6 2e 05 fc
       -48 -61 -30 -45 1 -64 -35 26 8 -8 -29 -21 -26 46 5 -4
000090 c6 4e e9 f1 1f dc 17 f2 b8 00 f9 e0 06 1a 09 00
       -58 78 -23 -15 31 -36 23 -14 -72 0 -7 -32 6 26 9 0
0000a0 e1 02 00 e5 df 1f e4 11 ee 00 e9 da c1 da f6 e2
       -31 2 0 -27 -33 31 -28 17 -18 0 -23 -38 -63 -38 -10 -30
0000b0 fe cd 14 0a f5 f1 14 19 04 fc f9 f6 01 1f fc f4
       -2 -51 20 10 -11 -15 20 25 4 -4 -7 -10 1 31 -4 -12
0000c0 ef d4 02 e3 12 d3 d7 e7 3c ec f9 e9 ff 13 08 e0
       -17 -44 2 -29 18 -45 -41 -25 60 -20 -7 -23 -1 19 8 -32
0000d0 e2 e9 0f d5 fb fc 1e 0a ed 15 06 07 dc de c8 ec
       -30 -23 15 -43 -5 -4 30 10 -19 21 6 7 -36 -34 -56 -20
0000e0 e4 f2 e7 b9 00 d6 2f fe ec 04 e9 ed 07 fb ef f4
       -28 -14 -25 -71 0 -42 47 -2 -20 4 -23 -19 7 -5 -17 -12
0000f0 09 01 03 03 f7 fd ef ed f4 0e f9 06 0f ec ed 00
       9 1 3 3 -9 -3 -17 -19 -12 14 -7 6 15 -20 -19 0

tfl.pseudo_qconst19 i1 [26, 3, 3, 26]
000000 10 09 3a 1f e7 1e 0a fa c5 59 08 eb 21 3b fb 07
       16 9 58 31 -25 30 10 -6 -59 89 8 -21 33 59 -5 7
000010 2b 20 fc fe f4 f1 a9 eb 03 e4 dc 0c 30 27 cb 3a
       43 32 -4 -2 -12 -15 -87 -21 3 -28 -36 12 48 39 -53 58
000020 f6 43 1e 0d f4 49 04 1e e4 02 1e 13 0a f9 ea f9
       -10 67 30 13 -12 73 4 30 -28 2 30 19 10 -7 -22 -7
000030 f1 32 d7 ca d4 19 91 f7 cb e6 e4 40 0c ed fd 01
       -15 50 -41 -54 -44 25 -111 -9 -53 -26 -28 64 12 -19 -3 1
000040 f5 0e bf 25 bf 0a 03 14 f0 e4 e7 f6 1f 09 9b 02
       -11 14 -65 37 -65 10 3 20 -16 -28 -25 -10 31 9 -101 2
000050 e6 3d 15 ea 08 0c 62 f4 e2 f7 22 ee e0 c9 f4 fa
       -26 61 21 -22 8 12 98 -12 -30 -9 34 -18 -32 -55 -12 -6
000060 f3 22 19 05 e8 fa 36 34 ce 32 86 2f df e7 34 cf
       -13 34 25 5 -24 -6 54 52 -50 50 -122 47 -33 -25 52 -49
000070 55 dd 05 d6 da fa 8e c0 61 ce f2 0b 78 06 1a ef
       85 -35 5 -42 -38 -6 -114 -64 97 -50 -14 11 120 6 26 -17
000080 5f 12 e5 04 51 06 09 18 32 5c 0d 31 81 ea f7 ea
       95 18 -27 4 81 6 9 24 50 92 13 49 -127 -22 -9 -22
000090 19 f6 43 e8 f4 f0 ea 1b c5 0d 49 8a ee 15 16 e1
       25 -10 67 -24 -12 -16 -22 27 -59 13 73 -118 -18 21 22 -31
0000a0 16 20 08 5b 10 10 e6 ed de f6 02 fe 35 e4 1b ce
       22 32 8 91 16 16 -26 -19 -34 -10 2 -2 53 -28 27 -50
0000b0 fa fc 0e 03 ff e0 20 2c 12 c0 12 1e 19 22 2b 66
       -6 -4 14 3 -1 -32 32 44 18 -64 18 30 25 34 43 102
0000c0 f8 c0 f2 e5 04 17 a7 3b 0c e6 f9 e5 b7 e9 0a dc
       -8 -64 -14 -27 4 23 -89 59 12 -26 -7 -27 -73 -23 10 -36
0000d0 ef ed ac 20 06 07 03 19 0e 2c ae 0a 35 eb 9c 0a
       -17 -19 -84 32 6 7 3 25 14 44 -82 10 53 -21 -100 10
0000e0 f5 1e fe 17 fe f9 b5 f7 12 0e 09 2a e0 ff 06 14
       -11 30 -2 23 -2 -7 -75 -9 18 14 9 42 -32 -1 6 20
0000f0 fb fc fb 1a e8 fb 1c f1 ec f5 1a de f0 02 1b fc
       -5 -4 -5 26 -24 -5 28 -15 -20 -11 26 -34 -16 2 27 -4

tfl.pseudo_qconst21 i1 [26, 3, 3, 26]
000000 f3 da eb fa 0e 02 09 f6 fc 19 fb f3 0a fb f6 fa
       -13 -38 -21 -6 14 2 9 -10 -4 25 -5 -13 10 -5 -10 -6
000010 0e 20 fb fb 03 03 1d 05 00 05 03 20 0b 0b 22 05
       14 32 -5 -5 3 3 29 5 0 5 3 32 11 11 34 5
000020 0a f7 1c 02 ef e8 10 07 ee fc 0b 1c f3 fa f2 00
       10 -9 28 2 -17 -24 16 7 -18 -4 11 28 -13 -6 -14 0
000030 36 ac 00 e5 fd 20 f8 f5 05 f9 f8 f4 08 07 fe d6
       54 -84 0 -27 -3 32 -8 -11 5 -7 -8 -12 8 7 -2 -42
000040 06 ff ff ec 04 01 04 03 ee 10 ff fb 06 fb 08 a4
       6 -1 -1 -20 4 1 4 3 -18 16 -1 -5 6 -5 8 -92
000050 44 f1 fe f8 0d e5 f6 1b f7 fc f1 07 14 14 f9 ee
       68 -15 -2 -8 13 -27 -10 27 -9 -4 -15 7 20 20 -7 -18
000060 e4 08 06 04 2f 21 f9 e6 03 f6 12 07 dc d9 e0 bf
       -28 8 6 4 47 33 -7 -26 3 -10 18 7 -36 -39 -32 -65
000070 fb 0b 05 26 ee 04 f2 f2 e5 0a c7 0a 00 fd a5 fe
       -5 11 5 38 -18 4 -14 -14 -27 10 -57 10 0 -3 -91 -2
000080 fc 0d 03 fb e9 1d d6 da 11 1b 0e dc f1 06 34 f1
       -4 13 3 -5 -23 29 -42 -38 17 27 14 -36 -15 6 52 -15
000090 e5 e6 bc 03 e6 cb 0f 09 29 e5 17 24 fc 30 ee f3
       -27 -26 -68 3 -26 -53 15 9 41 -27 23 36 -4 48 -18 -13
0000a0 0d fc f5 fd 07 ef 07 ec 09 f4 ee f8 02 fa fb f2
       13 -4 -11 -3 7 -17 7 -20 9 -12 -18 -8 2 -6 -5 -14
0000b0 05 ff 7f fc 09 09 e6 e8 f8 10 fb 04 e6 01 ea fc
       5 -1 127 -4 9 9 -26 -24 -8 16 -5 4 -26 1 -22 -4
0000c0 fa f1 0e f2 fd e3 26 f0 0a ef 09 eb 9c 3d 08 fd
       -6 -15 14 -14 -3 -29 38 -16 10 -17 9 -21 -100 61 8 -3
0000d0 f8 14 fa f1 14 0d ed f0 0b fd f7 eb e0 10 23 ed
       -8 20 -6 -15 20 13 -19 -16 11 -3 -9 -21 -32 16 35 -19
0000e0 25 f3 fa 21 02 f1 a9 00 e7 07 06 01 04 f2 13 fa
       37 -13 -6 33 2 -15 -87 0 -25 7 6 1 4 -14 19 -6
0000f0 f7 fe 11 fd ec fc fe 17 03 05 02 f7 e4 03 03 00
       -9 -2 17 -3 -20 -4 -2 23 3 5 2 -9 -28 3 3 0

tfl.pseudo_qconst23 i1 [26, 3, 3, 26]
000000 42 0e 03 20 f9 0d 0f da fd 01 fc 10 0a f9 0e f5
       66 14 3 32 -7 13 15 -38 -3 1 -4 16 10 -7 14 -11
000010 e3 0d 11 40 f0 2d f8 f9 10 e9 81 f8 fb eb e6 f5
       -29 13 17 64 -16 45 -8 -7 16 -23 -127 -8 -5 -21 -26 -11
000020 f2 0e 24 f1 f1 05 2f fc 03 1e cf 07 e0 b9 1e d1
       -14 14 36 -15 -15 5 47 -4 3 30 -49 7 -32 -71 30 -47
000030 fe fb f7 f8 5d 17 fc fd 13 f8 f3 0a f4 fe 08 08
       -2 -5 -9 -8 93 23 -4 -3 19 -8 -13 10 -12 -2 8 8
000040 d4 1e fb fb 20 ee fe 14 f8 04 01 ff 06 24 ca f1
       -44 30 -5 -5 32 -18 -2 20 -8 4 1 -1 6 36 -54 -15
000050 11 df 0f f9 fc 2b 2b cd d5 de fd 1c 01 f7 29 db
       17 -33 15 -7 -4 43 43 -51 -43 -34 -3 28 1 -9 41 -37
000060 0a e1 f8 ff 05 04 0c 10 2b fd fd 54 f7 10 20 d0
       10 -31 -8 -1 5 4 12 16 43 -3 -3 84 -9 16 32 -48
000070 13 15 35 0f ff f8 e5 94 f1 f7 0b 1c 03 46 03 f8
       19 21 53 15 -1 -8 -27 -108 -15 -9 11 28 3 70 3 -8
000080 04 04 d5 14 f5 ff e3 09 f4 00 10 fe fb f6 14 02
       4 4 -43 20 -11 -1 -29 9 -12 0 16 -2 -5 -10 20 2
000090 14 36 d1 23 ea 04 01 13 f6 ee 04 02 f2 fe 00 1b
       20 54 -47 35 -22 4 1 19 -10 -18 4 2 -14 -2 0 27
0000a0 05 ff 04 11 1d 0c fb f4 e6 0a f6 1f f9 11 d7 ea
       5 -1 4 17 29 12 -5 -12 -26 10 -10 31 -7 17 -41 -22
0000b0 f4 e3 06 f2 02 0b fd f6 0f e1 d2 ff fc ec 11 f1
       -12 -29 6 -14 2 11 -3 -10 15 -31 -46 -1 -4 -20 17 -15
0000c0 ee 08 42 03 f7 0c df 08 f9 09 fd 10 03 06 ef 0f
       -18 8 66 3 -9 12 -33 8 -7 9 -3 16 3 6 -17 15
0000d0 0d 17 05 e4 08 01 f1 0d 16 d3 fe ec 01 0c 19 ef
       13 23 5 -28 8 1 -15 13 22 -45 -2 -20 1 12 25 -17
0000e0 03 0d ff fd fe fc 07 01 03 f3 ff 00 05 f3 03 fc
       3 13 -1 -3 -2 -4 7 1 3 -13 -1 0 5 -13 3 -4
0000f0 03 f0 fc 01 03 ff fb f8 fe f8 0c f6 f3 0d fa fd
       3 -16 -4 1 3 -1 -5 -8 -2 -8 12 -10 -13 13 -6 -3

tfl.pseudo_qconst25 i1 [26, 3, 3, 26]
000000 03 fc 0f ff fb f8 07 da 0f fb f8 f9 f0 21 e1 e7
       3 -4 15 -1 -5 -8 7 -38 15 -5 -8 -7 -16 33 -31 -25
000010 ff 12 e4 06 2f 05 f7 17 02 fa 23 0b 1d 0e 17 dc
       -1 18 -28 6 47 5 -9 23 2 -6 35 11 29 14 23 -36
000020 27 e1 0f 0a f5 00 f9 ea ed 00 12 18 ca 14 08 05
       39 -31 15 10 -11 0 -7 -22 -19 0 18 24 -54 20 8 5
000030 00 ff fa eb f9 03 09 fd 18 f8 03 ea 0d fa e1 0c
       0 -1 -6 -21 -7 3 9 -3 24 -8 3 -22 13 -6 -31 12
000040 01 f7 11 f6 fc f7 df e1 07 fd 02 02 18 e6 0f 0e
       1 -9 17 -10 -4 -9 -33 -31 7 -3 2 2 24 -26 15 14
000050 05 1d 03 f8 fc f3 1c f0 07 08 ee 09 13 eb 26 1d
       5 29 3 -8 -4 -13 28 -16 7 8 -18 9 19 -21 38 29
000060 c6 12 37 d1 f4 0c f8 fc 04 1c d5 42 34 e3 7f 12
       -58 18 55 -47 -12 12 -8 -4 4 28 -43 66 52 -29 127 18
000070 32 f3 13 e8 05 0e d9 e9 1a 26 bb d2 15 b3 fe c7
       50 -13 19 -24 5 14 -39 -23 26 38 -69 -46 21 -77 -2 -57
000080 37 ee 1a ff 00 28 07 e1 23 29 1a 06 f8 0c 21 17
       55 -18 26 -1 0 40 7 -31 35 41 26 6 -8 12 33 23
000090 2a 00 fa 0e c6 13 eb 09 f7 ee f6 e3 fb 06 f3 17
       42 0 -6 14 -58 19 -21 9 -9 -18 -10 -29 -5 6 -13 23
0000a0 fe f1 ea fc 0d 06 f4 02 f7 24 fc ff 00 08 d0 01
       -2 -15 -22 -4 13 6 -12 2 -9 36 -4 -1 0 8 -48 1
0000b0 0c ff ff ff ff e1 f4 04 30 2d 13 f7 c8 eb 17 fc
       12 -1 -1 -1 -1 -31 -12 4 48 45 19 -9 -56 -21 23 -4
0000c0 10 1e db 08 0b ea f9 f7 b7 fe 07 23 fe dc 1c ee
       16 30 -37 8 11 -22 -7 -9 -73 -2 7 35 -2 -36 28 -18
0000d0 00 fc 11 2b f8 ea e4 0a 02 ea f8 01 ee 1a 09 e8
       0 -4 17 43 -8 -22 -28 10 2 -22 -8 1 -18 26 9 -24
0000e0 da 20 e1 ea f3 21 fd d5 25 cd 0e 08 f6 fe dd ff
       -38 32 -31 -22 -13 33 -3 -43 37 -51 14 8 -10 -2 -35 -1
0000f0 f3 12 ff fb fc 18 ee f3 fe 00 0e 00 ff e9 05 f2
       -13 18 -1 -5 -4 24 -18 -13 -2 0 14 0 -1 -23 5 -14

tfl.pseudo_qconst27 i1 [26, 3, 3, 26]
000000 02 f1 f9 15 01 02 fa 0a 06 ca 0b f8 07 05 ff 01
       2 -15 -7 21 1 2 -6 10 6 -54 11 -8 7 5 -1 1
000010 05 fe 05 0e fd fa 03 fa 11 01 0b 09 fc 03 ff 02
       5 -2 5 14 -3 -6 3 -6 17 1 11 9 -4 3 -1 2
000020 0a 01 12 81 00 fe fe 01 f6 f1 ff 01 04 fc 02 13
       10 1 18 -127 0 -2 -2 1 -10 -15 -1 1 4 -4 2 19
000030 fb 0f f8 fa fd 0c f6 f2 fa 02 05 ff f4 2f f2 fa
       -5 15 -8 -6 -3 12 -10 -14 -6 2 5 -1 -12 47 -14 -6
000040 04 02 03 f9 f7 05 fd 08 fb 01 fe 0a 01 06 df 0e
       4 2 3 -7 -9 5 -3 8 -5 1 -2 10 1 6 -33 14
000050 f3 04 f2 f3 0c f8 04 48 07 fd 11 01 05 ff 06 fe
       -13 4 -14 -13 12 -8 4 72 7 -3 17 1 5 -1 6 -2
000060 02 f5 ee f9 fd 07 00 1d f0 0b c5 e4 e9 e4 17 d7
       2 -11 -18 -7 -3 7 0 29 -16 11 -59 -28 -23 -28 23 -41
000070 d5 37 f7 ff 03 fa 0b cf d4 09 f7 ef f4 04 07 1a
       -43 55 -9 -1 3 -6 11 -49 -44 9 -9 -17 -12 4 7 26
000080 0d 10 19 f9 ef f7 02 f0 08 ea e7 d3 f2 03 02 fc
       13 16 25 -7 -17 -9 2 -16 8 -22 -25 -45 -14 3 2 -4
000090 fd dd db 01 fb ff 11 05 fc 1e f4 16 04 f8 f4 03
       -3 -35 -37 1 -5 -1 17 5 -4 30 -12 22 4 -8 -12 3
0000a0 fd f6 02 f4 05 2f f7 ed ff fc 01 f9 f6 0a ff 02
       -3 -10 2 -12 5 47 -9 -19 -1 -4 1 -7 -10 10 -1 2
0000b0 fc f9 fb 05 13 12 fa 02 f1 0a f1 e1 11 e0 05 46
       -4 -7 -5 5 19 18 -6 2 -15 10 -15 -31 17 -32 5 70
0000c0 f3 f5 13 01 0a f0 f1 fd 06 07 0a 00 f9 0f 13 06
       -13 -11 19 1 10 -16 -15 -3 6 7 10 0 -7 15 19 6
0000d0 10 02 05 03 06 f8 fb 06 12 c6 00 00 fd f9 06 f9
       16 2 5 3 6 -8 -5 6 18 -58 0 0 -3 -7 6 -7
0000e0 02 fd fe e3 03 0a 08 05 f7 f0 d1 04 02 f5 03 fc
       2 -3 -2 -29 3 10 8 5 -9 -16 -47 4 2 -11 3 -4
0000f0 05 05 f1 f4 01 02 00 fa 00 07 05 04 f5 05 fa fe
       5 5 -15 -12 1 2 0 -6 0 7 5 4 -11 5 -6 -2

tfl.pseudo_qconst29 i1 [26, 3, 3, 26]
000000 04 df 0b f2 32 05 0d f9 f5 ff 04 05 21 0e e0 e0
       4 -33 11 -14 50 5 13 -7 -11 -1 4 5 33 14 -32 -32
000010 f4 02 d0 27 07 00 fa f6 06 03 13 e4 05 ea 31 31
       -12 2 -48 39 7 0 -6 -10 6 3 19 -28 5 -22 49 49
000020 b9 fb e1 0e 0d 18 12 fd 10 55 f6 fb 07 54 e9 10
       -71 -5 -31 14 13 24 18 -3 16 85 -10 -5 7 84 -23 16
000030 ee de 09 07 ed 01 06 e4 4e 0b 1d fe f1 20 17 19
       -18 -34 9 7 -19 1 6 -28 78 11 29 -2 -15 32 23 25
000040 20 02 05 e7 23 e7 22 61 e0 e9 f5 f8 f3 07 09 17
       32 2 5 -25 35 -25 34 97 -32 -23 -11 -8 -13 7 9 23
000050 08 ff 02 01 de fe 03 10 15 f7 dd fc 01 00 ed 08
       8 -1 2 1 -34 -2 3 16 21 -9 -35 -4 1 0 -19 8
000060 14 1a fc f9 0a 00 f0 f2 5d 0c f3 e3 55 09 7f 04
       20 26 -4 -7 10 0 -16 -14 93 12 -13 -29 85 9 127 4
000070 e0 1f c9 e4 14 01 fc a2 e9 bf 5d f6 42 d9 12 53
       -32 31 -55 -28 20 1 -4 -94 -23 -65 93 -10 66 -39 18 83
000080 e3 db 10 eb fe f7 d7 f4 ea 09 da 16 12 ee 16 0c
       -29 -37 16 -21 -2 -9 -41 -12 -22 9 -38 22 18 -18 22 12
000090 2b 60 25 0a 98 15 d3 e4 0c 3c ee 11 10 1c 01 df
       43 96 37 10 -104 21 -45 -28 12 60 -18 17 16 28 1 -33
0000a0 dd 0f 3a 16 eb 27 11 1c 26 f6 00 12 08 f6 d3 16
       -35 15 58 22 -21 39 17 28 38 -10 0 18 8 -10 -45 22
0000b0 e5 e2 fb 00 ee 1b 03 04 f5 f7 0c 03 dc 06 05 1c
       -27 -30 -5 0 -18 27 3 4 -11 -9 12 3 -36 6 5 28
0000c0 f3 f4 06 0b 1c 2e 24 02 27 22 03 00 0a 13 09 04
       -13 -12 6 11 28 46 36 2 39 34 3 0 10 19 9 4
0000d0 f7 ec 03 f2 4c 07 f5 f0 09 f1 11 09 0b f6 f5 fd
       -9 -20 3 -14 76 7 -11 -16 9 -15 17 9 11 -10 -11 -3
0000e0 f4 e7 2f 4c fb e6 01 f3 ff 08 03 fd fc 10 2e f9
       -12 -25 47 76 -5 -26 1 -13 -1 8 3 -3 -4 16 46 -7
0000f0 f0 f5 0b 06 f5 e4 f3 01 04 14 f9 04 f3 09 0c 13
       -16 -11 11 6 -11 -28 -13 1 4 20 -7 4 -13 9 12 19

tfl.pseudo_qconst31 i1 [26, 3, 3, 26]
000000 0d fc ff 00 ec fa 08 ff 08 00 fe 07 01 04 00 fe
       13 -4 -1 0 -20 -6 8 -1 8 0 -2 7 1 4 0 -2
000010 00 ff 00 fd 02 fe fd ff fd ff ff fa 07 02 fe 02
       0 -1 0 -3 2 -2 -3 -1 -3 -1 -1 -6 7 2 -2 2
000020 02 f4 02 03 ff ff 04 fe fa fe fd 0b 02 03 fc fa
       2 -12 2 3 -1 -1 4 -2 -6 -2 -3 11 2 3 -4 -6
000030 f9 fe 00 fe 01 02 fe fe ef 00 01 02 06 fc fe 06
       -7 -2 0 -2 1 2 -2 -2 -17 0 1 2 6 -4 -2 6
000040 04 ff fb 00 02 ff 03 fe ff 03 fd 00 fe ff 08 f7
       4 -1 -5 0 2 -1 3 -2 -1 3 -3 0 -2 -1 8 -9
000050 0d fe f8 08 04 01 05 03 03 0b 01 fc fa 00 11 11
       13 -2 -8 8 4 1 5 3 3 11 1 -4 -6 0 17 17
000060 01 06 05 fb 00 06 f9 00 22 1f fa fc 7f ff 0a f4
       1 6 5 -5 0 6 -7 0 34 31 -6 -4 127 -1 10 -12
000070 cd f4 f6 fe f7 00 06 02 fb 15 0c 12 2a ff fa 0d
       -51 -12 -10 -2 -9 0 6 2 -5 21 12 18 42 -1 -6 13
000080 ee 08 eb fd 05 fd df fd fc fb 11 0a ff 06 00 01
       -18 8 -21 -3 5 -3 -33 -3 -4 -5 17 10 -1 6 0 1
000090 04 ff 08 0a fd 05 07 fe 09 04 03 02 05 fe fd fe
       4 -1 8 10 -3 5 7 -2 9 4 3 2 5 -2 -3 -2
0000a0 e7 fc 01 f9 09 0c 00 00 04 03 01 fd fd fc 09 fc
       -25 -4 1 -7 9 12 0 0 4 3 1 -3 -3 -4 9 -4
0000b0 04 00 00 ff 02 02 fe 02 fd fe 02 00 0a f4 fe 0b
       4 0 0 -1 2 2 -2 2 -3 -2 2 0 10 -12 -2 11
0000c0 fc fb 05 fe fd fe 01 08 18 06 03 fe f0 00 ff 07
       -4 -5 5 -2 -3 -2 1 8 24 6 3 -2 -16 0 -1 7
0000d0 0a fb f7 fd 0f 02 ff 00 fe 07 02 02 00 ff 04 00
       10 -5 -9 -3 15 2 -1 0 -2 7 2 2 0 -1 4 0
0000e0 0a 00 07 03 ff 03 fe 01 04 00 17 f7 07 fa f2 0a
       10 0 7 3 -1 3 -2 1 4 0 23 -9 7 -6 -14 10
0000f0 01 38 fe f1 f0 02 fe f7 e5 01 06 0a f8 0d 08 f6
       1 56 -2 -15 -16 2 -2 -9 -27 1 6 10 -8 13 8 -10

tfl.pseudo_qconst33 i1 [26, 3, 3, 26]
000000 f9 f8 f7 f0 ff 08 01 01 fa f6 08 02 1e f5 09 d9
       -7 -8 -9 -16 -1 8 1 1 -6 -10 8 2 30 -11 9 -39
000010 11 37 01 f6 05 fc 09 fe 12 00 fa 18 35 f3 23 fa
       17 55 1 -10 5 -4 9 -2 18 0 -6 24 53 -13 35 -6
000020 01 f9 fb ef ef 0c 0f 0a fa cf f4 fa fe f0 00 e9
       1 -7 -5 -17 -17 12 15 10 -6 -49 -12 -6 -2 -16 0 -23
000030 a3 03 2a ff 00 06 f6 f8 0a 0b 03 00 00 07 0f fd
       -93 3 42 -1 0 6 -10 -8 10 11 3 0 0 7 15 -3
000040 16 fe 00 e4 f0 05 03 fc fd fd 05 01 fa 02 f6 fd
       22 -2 0 -28 -16 5 3 -4 -3 -3 5 1 -6 2 -10 -3
000050 1a ea 1d de ee 04 fb c7 21 25 81 f8 e8 39 18 f1
       26 -22 29 -34 -18 4 -5 -57 33 37 -127 -8 -24 57 24 -15
000060 03 ee fc fd 2c 00 52 10 eb f6 ac e3 e4 d6 e8 03
       3 -18 -4 -3 44 0 82 16 -21 -10 -84 -29 -28 -42 -24 3
000070 2f e2 19 0e 77 fc 03 07 31 09 fc f3 04 20 ff fd
       47 -30 25 14 119 -4 3 7 49 9 -4 -13 4 32 -1 -3
000080 aa ee fc 04 11 f9 ef eb fa ff 0c fc 06 fe fd 00
       -86 -18 -4 4 17 -7 -17 -21 -6 -1 12 -4 6 -2 -3 0
000090 0e 42 22 e8 06 fc f1 01 fa fc 02 01 fa 05 f7 f8
       14 66 34 -24 6 -4 -15 1 -6 -4 2 1 -6 5 -9 -8
0000a0 14 d4 fb fc 01 f7 37 ff f8 00 0b dd 0d 16 03 f7
       20 -44 -5 -4 1 -9 55 -1 -8 0 11 -35 13 22 3 -9
0000b0 f5 f8 00 00 00 0b f5 14 2c f6 f8 d6 f5 03 05 21
       -11 -8 0 0 0 11 -11 20 44 -10 -8 -42 -11 3 5 33
0000c0 11 fc f3 fb 01 45 f3 35 03 fb fd fe 1f fe f5 04
       17 -4 -13 -5 1 69 -13 53 3 -5 -3 -2 31 -2 -11 4
0000d0 f7 09 ef fb fc f8 fe 02 03 e3 29 03 fe 02 0c d9
       -9 9 -17 -5 -4 -8 -2 2 3 -29 41 3 -2 2 12 -39
0000e0 05 fd 08 fa f9 f4 b4 01 fa 09 00 01 19 01 14 f3
       5 -3 8 -6 -7 -12 -76 1 -6 9 0 1 25 1 20 -13
0000f0 02 00 fd 00 ff 07 f4 0d f7 e3 06 0f fa 01 ff f8
       2 0 -3 0 -1 7 -12 13 -9 -29 6 15 -6 1 -1 -8

tfl.pseudo_qconst35 i1 [26, 3, 3, 26]
000000 ff ff 01 06 05 ff fc 00 f9 fe fd 0b 0e 06 00 ff
       -1 -1 1 6 5 -1 -4 0 -7 -2 -3 11 14 6 0 -1
000010 03 01 ff 06 ec 06 fe f8 08 01 fd 02 ff fd fe 00
       3 1 -1 6 -20 6 -2 -8 8 1 -3 2 -1 -3 -2 0
000020 04 01 04 fe 03 03 0f 08 00 00 00 02 ff ff 0e 04
       4 1 4 -2 3 3 15 8 0 0 0 2 -1 -1 14 4
000030 02 0a f3 ff ff 02 01 01 ff fe 00 00 06 fc fe 04
       2 10 -13 -1 -1 2 1 1 -1 -2 0 0 6 -4 -2 4
000040 05 01 02 02 ff 03 f8 f9 01 00 ff fd ff fe f1 02
       5 1 2 2 -1 3 -8 -7 1 0 -1 -3 -1 -2 -15 2
000050 02 f5 de f8 05 06 1b 11 e2 81 12 2d fa 01 ff 02
       2 -11 -34 -8 5 6 27 17 -30 -127 18 45 -6 1 -1 2
000060 f0 67 2c 31 04 0c 03 07 0c 02 fc 05 16 0c 0a 01
       -16 103 44 49 4 12 3 7 12 2 -4 5 22 12 10 1
000070 f2 ea 1f 03 81 dc ff 01 06 f9 ff db cb a0 fe f2
       -14 -22 31 3 -127 -36 -1 1 6 -7 -1 -37 -53 -96 -2 -14
000080 f7 05 04 ff fe f8 05 01 00 00 ff fa 05 fe c2 f7
       -9 5 4 -1 -2 -8 5 1 0 0 -1 -6 5 -2 -62 -9
000090 fd fe 00 ff fe 04 08 f2 01 02 f8 04 fe 01 03 fb
       -3 -2 0 -1 -2 4 8 -14 1 2 -8 4 -2 1 3 -5
0000a0 f7 fd 02 fa fc 08 fb 03 04 fd fc 02 04 03 f4 03
       -9 -3 2 -6 -4 8 -5 3 4 -3 -4 2 4 3 -12 3
0000b0 1a 08 fc 16 ff 04 04 01 fd fd 03 01 fe 02 00 f9
       26 8 -4 22 -1 4 4 1 -3 -3 3 1 -2 2 0 -7
0000c0 05 01 04 07 ff 00 01 fd fd fd e3 0a 01 e7 06 02
       5 1 4 7 -1 0 1 -3 -3 -3 -29 10 1 -25 6 2
0000d0 ff 02 01 00 09 fe 00 ff 02 fd fd 03 fe 00 ff 00
       -1 2 1 0 9 -2 0 -1 2 -3 -3 3 -2 0 -1 0
0000e0 01 04 01 f8 03 06 00 01 05 03 fe 00 00 05 09 01
       1 4 1 -8 3 6 0 1 5 3 -2 0 0 5 9 1
0000f0 01 fd fc f6 ff 01 fd f8 00 00 ff 02 ff 11 03 fb
       1 -3 -4 -10 -1 1 -3 -8 0 0 -1 2 -1 17 3 -5

tfl.pseudo_qconst38 i1 [26, 3, 3, 26]
000000 01 ff ff fe 01 fd ff ff 00 00 10 00 fe 00 01 ff
       1 -1 -1 -2 1 -3 -1 -1 0 0 16 0 -2 0 1 -1
000010 00 01 01 fc 00 ff 00 01 fd fa 01 fe f7 ff ff fe
       0 1 1 -4 0 -1 0 1 -3 -6 1 -2 -9 -1 -1 -2
000020 fe 05 00 ff 0d 00 ff f8 fd ff 00 ff 00 02 00 ff
       -2 5 0 -1 13 0 -1 -8 -3 -1 0 -1 0 2 0 -1
000030 01 f9 fc fb 00 ff fc 00 ff 00 ff 04 ff ff 04 01
       1 -7 -4 -5 0 -1 -4 0 -1 0 -1 4 -1 -1 4 1
000040 fe fe ff 00 ff ff ff fa 00 ff 01 09 f8 fa 01 00
       -2 -2 -1 0 -1 -1 -1 -6 0 -1 1 9 -8 -6 1 0
000050 f0 00 ff fe 02 04 ff 00 06 02 fe f4 ff ff 00 ff
       -16 0 -1 -2 2 4 -1 0 6 2 -2 -12 -1 -1 0 -1
000060 fc fe 00 ff 01 03 fe 08 00 00 f7 eb 00 08 ec 7f
       -4 -2 0 -1 1 3 -2 8 0 0 -9 -21 0 8 -20 127
000070 ff 01 09 01 fc dc fe 02 ff 01 12 fc 00 ff ff f5
       -1 1 9 1 -4 -36 -2 2 -1 1 18 -4 0 -1 -1 -11
000080 f3 f5 01 00 f7 00 ff ff fd 01 00 ff 07 02 ff 0b
       -13 -11 1 0 -9 0 -1 -1 -3 1 0 -1 7 2 -1 11
000090 fe ff 00 ff f9 02 00 00 01 fb fe fe 01 ff 07 fd
       -2 -1 0 -1 -7 2 0 0 1 -5 -2 -2 1 -1 7 -3
0000a0 00 ff fe fd ff 00 fd 01 fe f9 fe 00 00 00 00 fe
       0 -1 -2 -3 -1 0 -3 1 -2 -7 -2 0 0 0 0 -2
0000b0 00 fe 00 fe 01 01 01 fe 02 ff ff 00 ff 04 00 00
       0 -2 0 -2 1 1 1 -2 2 -1 -1 0 -1 4 0 0
0000c0 ff fe fb 0e fe ff 01 01 ff 03 00 ff 00 fc ff 03
       -1 -2 -5 14 -2 -1 1 1 -1 3 0 -1 0 -4 -1 3
0000d0 00 ff fa ff fe fe fe fb 00 ff fb 01 fd 03 ff 00
       0 -1 -6 -1 -2 -2 -2 -5 0 -1 -5 1 -3 3 -1 0
0000e0 00 00 f5 02 00 ff 00 00 fe fd 01 02 e9 fe 00 00
       0 0 -11 2 0 -1 0 0 -2 -3 1 2 -23 -2 0 0
0000f0 04 04 00 00 02 fd ff 01 fe 01 02 02 f6 02 00 fe
       4 4 0 0 2 -3 -1 1 -2 1 2 2 -10 2 0 -2

tfl.pseudo_qconst40 i1 [26, 3, 3, 26]
000000 03 04 00 fa 03 0b 02 fc 02 f9 00 02 f9 cd fe 00
       3 4 0 -6 3 11 2 -4 2 -7 0 2 -7 -51 -2 0
000010 d7 ff fd 09 ec fe 04 00 00 00 09 00 01 fc 01 09
       -41 -1 -3 9 -20 -2 4 0 0 0 9 0 1 -4 1 9
000020 fe fb ff 02 fd 00 09 da 00 00 cb ff fc 0a e5 02
       -2 -5 -1 2 -3 0 9 -38 0 0 -53 -1 -4 10 -27 2
000030 03 01 f2 00 03 ff 00 fa 02 fd ff ff ff fe ff 02
       3 1 -14 0 3 -1 0 -6 2 -3 -1 -1 -1 -2 -1 2
000040 fe dc 03 01 ef ff 01 01 f4 01 04 ff ed 01 01 06
       -2 -36 3 1 -17 -1 1 1 -12 1 4 -1 -19 1 1 6
000050 00 fc 08 04 01 00 04 f8 f8 0d f9 13 04 fb c1 ff
       0 -4 8 4 1 0 4 -8 -8 13 -7 19 4 -5 -63 -1
000060 ff 02 e9 f9 00 fc 01 fd e7 06 ff 01 04 f7 f8 0c
       -1 2 -23 -7 0 -4 1 -3 -25 6 -1 1 4 -9 -8 12
000070 ff 17 f8 0e 12 66 f0 f8 7f fe 00 fe 41 fd fb fd
       -1 23 -8 14 18 102 -16 -8 127 -2 0 -2 65 -3 -5 -3
000080 06 fd fc fd 00 fd 04 ff ff fd ff 00 00 ff ff f5
       6 -3 -4 -3 0 -3 4 -1 -1 -3 -1 0 0 -1 -1 -11
000090 08 fb db ff 01 02 f4 02 03 00 03 ff 05 02 00 01
       8 -5 -37 -1 1 2 -12 2 3 0 3 -1 5 2 0 1
0000a0 fe 08 00 fd 01 fb 02 04 f9 f8 fd 00 02 ff ff fd
       -2 8 0 -3 1 -5 2 4 -7 -8 -3 0 2 -1 -1 -3
0000b0 0d ff f9 ff 05 fd 06 f6 ff f7 ff f9 01 fe fe fc
       13 -1 -7 -1 5 -3 6 -10 -1 -9 -1 -7 1 -2 -2 -4
0000c0 ff f7 fb 13 06 03 cc 02 02 fa e4 02 0b ff f3 04
       -1 -9 -5 19 6 3 -52 2 2 -6 -28 2 11 -1 -13 4
0000d0 00 03 00 ff 04 f9 01 fe 00 fc ff fd fc ec 00 01
       0 3 0 -1 4 -7 1 -2 0 -4 -1 -3 -4 -20 0 1
0000e0 22 ff 05 f6 01 01 ff 00 02 fe 01 04 ff 00 03 05
       34 -1 5 -10 1 1 -1 0 2 -2 1 4 -1 0 3 5
0000f0 00 fd 00 ff ff 02 02 13 01 fe 00 00 ff 02 f9 ff
       0 -3 0 -1 -1 2 2 19 1 -2 0 0 -1 2 -7 -1

tfl.pseudo_qconst42 i1 [26, 3, 3, 26]
000000 f9 e9 f6 fa 04 fb 0c 00 17 f3 01 01 04 04 02 fb
       -7 -23 -10 -6 4 -5 12 0 23 -13 1 1 4 4 2 -5
000010 0b 07 00 01 ff 0c f9 fd 0e ff ee 0c f7 0a e7 f3
       11 7 0 1 -1 12 -7 -3 14 -1 -18 12 -9 10 -25 -13
000020 fa 0f fc ef 00 fd 06 06 16 02 ff 07 00 fd fc 09
       -6 15 -4 -17 0 -3 6 6 22 2 -1 7 0 -3 -4 9
000030 06 02 08 fe f7 ed f7 fd 06 fc f7 02 0c 08 00 00
       6 2 8 -2 -9 -19 -9 -3 6 -4 -9 2 12 8 0 0
000040 0a 07 f3 f4 ed 10 f3 02 f9 00 12 fa 06 00 01 f5
       10 7 -13 -12 -19 16 -13 2 -7 0 18 -6 6 0 1 -11
000050 08 f8 ec 06 05 06 e9 11 00 03 f9 02 f0 df 0d f7
       8 -8 -20 6 5 6 -23 17 0 3 -7 2 -16 -33 13 -9
000060 01 f3 08 f8 fa 02 0a 08 81 cb ff ef 20 ca 06 13
       1 -13 8 -8 -6 2 10 8 -127 -53 -1 -17 32 -54 6 19
000070 e8 f2 03 04 08 07 eb 15 e3 ee 05 03 07 0e 16 fe
       -24 -14 3 4 8 7 -21 21 -29 -18 5 3 7 14 22 -2
000080 0c 2a 0a f5 02 0c f5 0a 01 27 e5 f0 00 fe 02 06
       12 42 10 -11 2 12 -11 10 1 39 -27 -16 0 -2 2 6
000090 2d fa f3 fd 0c 08 01 fb 08 fe ff 1d f7 d8 02 04
       45 -6 -13 -3 12 8 1 -5 8 -2 -1 29 -9 -40 2 4
0000a0 17 ff dc ff 08 0b ff 00 fa 01 ff f8 03 03 05 06
       23 -1 -36 -1 8 11 -1 0 -6 1 -1 -8 3 3 5 6
0000b0 ff 03 14 0b fe fd fd 26 fe f5 ea f6 10 f8 fb 02
       -1 3 20 11 -2 -3 -3 38 -2 -11 -22 -10 16 -8 -5 2
0000c0 02 ff 04 00 28 d9 02 00 05 f4 fd fb ff 1a f9 05
       2 -1 4 0 40 -39 2 0 5 -12 -3 -5 -1 26 -7 5
0000d0 fd e6 07 05 0f 0f 11 2f eb f2 01 00 fd ff dd eb
       -3 -26 7 5 15 15 17 47 -21 -14 1 0 -3 -1 -35 -21
0000e0 f0 0c 0c 05 01 fe 04 06 f7 fb bb e7 fa f7 ff fb
       -16 12 12 5 1 -2 4 6 -9 -5 -69 -25 -6 -9 -1 -5
0000f0 c4 e8 24 eb 00 01 fe 06 f0 fa ff 09 0c 04 fe 0f
       -60 -24 36 -21 0 1 -2 6 -16 -6 -1 9 12 4 -2 15

tfl.pseudo_qconst44 i1 [26, 3, 3, 3]
000000 fd 01 05 02 00 05 ff ff 05 03 ff 03 4d 29 81 fd
       -3 1 5 2 0 5 -1 -1 5 3 -1 3 77 41 -127 -3
000010 06 00 fa ff 05 00 ff ff fd 02 04 2a ed 12 ed e8
       6 0 -6 -1 5 0 -1 -1 -3 2 4 42 -19 18 -19 -24
000020 15 04 36 f6 4f 81 da 01 16 00 dd 21 f5 00 b9 40
       21 4 54 -10 79 -127 -38 1 22 0 -35 33 -11 0 -71 64
000030 d0 54 dc fd 24 e8 ff fd ff e8 e2 ea 01 f8 fd e3
       -48 84 -36 -3 36 -24 -1 -3 -1 -24 -30 -22 1 -8 -3 -29
000040 df ec 63 7f 5c e7 e6 ed ff 00 fe eb e9 e5 ff 01
       -33 -20 99 127 92 -25 -26 -19 -1 0 -2 -21 -23 -27 -1 1
000050 ff f6 13 f8 10 f1 05 0c cc 12 0d 03 da 81 27 52
       -1 -10 19 -8 16 -15 5 12 -52 18 13 3 -38 -127 39 82
000060 f5 1a de 12 ed fd 19 03 f0 ea 1a fa 1e 42 ff 36
       -11 26 -34 18 -19 -3 25 3 -16 -22 26 -6 30 66 -1 54
000070 dd 21 d2 18 21 ae 1b 22 29 12 81 37 c6 e7 eb 17
       -35 33 -46 24 33 -82 27 34 41 18 -127 55 -58 -25 -21 23
000080 f8 f1 dc fb 29 e7 05 fe 02 fe f5 0a fe ff 04 fe
       -8 -15 -36 -5 41 -25 5 -2 2 -2 -11 10 -2 -1 4 -2
000090 f8 01 04 5e 81 26 f9 ff 07 fe 04 fd fd ff 03 fd
       -8 1 4 94 -127 38 -7 -1 7 -2 4 -3 -3 -1 3 -3
0000a0 05 fd 13 ec 0c f3 02 1f ed 2d e5 e2 e0 31 d8 7f
       5 -3 19 -20 12 -13 2 31 -19 45 -27 -30 -32 49 -40 127
0000b0 85 39 fb 16 2b 98 25 cb 6c e2 f8 ca 16 fc cb ff
       -123 57 -5 22 43 -104 37 -53 108 -30 -8 -54 22 -4 -53 -1
0000c0 2c 22 de cc 00 1d 3e f9 16 81 34 d7 1d 1c 00 f7
       44 34 -34 -52 0 29 62 -7 22 -127 52 -41 29 28 0 -9
0000d0 a6 48 38 1a c4 d7 fe 34 dc 30 cb e8 bd 20 f7 07
       -90 72 56 26 -60 -41 -2 52 -36 48 -53 -24 -67 32 -9 7
0000e0 0c 14 cc 02 36 3e cd 11 c5 fa d4 0e 21 61 dc 81
       12 20 -52 2 54 62 -51 17 -59 -6 -44 14 33 97 -36 -127
0000f0 c6 1d 1d 01 ff fe 10 0b e6 fc 04 02 21 04 dc 97
       -58 29 29 1 -1 -2 16 11 -26 -4 4 2 33 4 -36 -105
