app/src/main/assets/models/qsr_s_3x_720p_float32.tflite (tflite, 113060 bytes, 8 tensors)

arith.constant f4 [27]
-3.8614337e-05 -0.00016207721 0.0004210897 -0.0004898984 -0.00033690408 6.4845344e-06 6.7111236e-05 0.00047538476
0.0007631131 -4.5015808e-05 -0.00016111425 -0.00045531275 0.0005291556 0.0004252527 2.1035341e-05 0.00015806078
0.0003476149 -5.3367112e-05 -0.0005929296 -0.00089522015 -0.0006056512 -8.665174e-06 -0.00012517643 -0.00012676703
0.00060409395 0.00069451315 0.00077976496
00000000: d4f5 21b8 45f3 29b9 b4c5 dc39 866c 00ba
00000010: 80a2 b0b9 ba95 d936 12be 8c38 103d f939
00000020: a70b 483a 5bcf 3cb8 c7f0 28b9 0bb7 eeb9
00000030: 08b7 0a3a 74f4 de39 0d75 b037 1ebd 2539
00000040: 1540 b639 80d6 5fb8 d56e 1bba 35ad 6aba
00000050: 90c4 1eba a460 11b7 cb41 03b9 c4ec 04b9
00000060: 0f5c 1e3a fd0f 363a 2469 4c3a

arith.constant1 f4 [32]
-0.014430682 -0.025972022 -0.010738594 0.0062647206 -0.021340901 0.0054801316 -0.02274909 -0.06253654
-0.029865408 -0.00087747327 0.0005222091 -0.014974315 -0.032843422 0.0053046327 0.0010027797 -0.016530307
-0.0021365085 -0.027018916 -0.006054079 -0.017262897 -0.013406874 -0.0180705 -0.017600423 0.00039962927
-0.029409518 0.0068933587 -0.0010772549 -0.041010264 0.0010727003 -0.014593388 -0.013575675 -0.018099895
00000000: ab6e 6cbc 47c3 d4bc eef0 2fbc 4948 cd3b
00000010: 1dd3 aebc ad92 b33b 4d5c babc 2813 80bd
00000020: 4da8 f4bc 3c06 66ba dce4 083a d456 75bc
00000030: d386 06bd 7cd2 ad3b b46f 833a 916a 87bc
00000040: aa04 0cbb c656 ddbc 4c61 c6bb eb6a 8dbc
00000050: 81a8 5bbc 9608 94bc c32e 90bc 5585 d139
00000060: 3bec f0bc afe1 e13b ad32 8dba 61fa 27bd
00000070: d999 8c3a 1b19 6fbc 826c 5ebc 3b46 94bc

arith.constant2 f4 [32]
0.036529 -0.028199373 -0.016723406 0.019848535 -0.0035731278 -0.022934427 0.002644286 -0.003099984
-0.06123485 -0.03997366 -0.045300085 0.06413682 -0.0010835913 -0.021188317 0.002173452 0.061944295
-0.021031782 0.024447143 -0.03699138 0.02040878 -0.02686191 -0.008710364 0.0017296509 -0.016352162
0.18055196 0.02698564 0.004298741 -0.023629285 -0.08880827 -0.020993492 -0.02477446 0.026150588
00000000: 6f9f 153d 5f02 e7bc 86ff 88bc 6599 a23c
00000010: 232b 6abb fbe0 bbbc c24b 2d3b 1a29 4bbb
00000020: 65d1 7abd 6cbb 23bd 958c 39bd 2a5a 833d
00000030: 4a07 8eba 1f93 adbc 7970 0e3b 4db9 7d3d
00000040: d84a acbc 6045 c83c 4684 17bd 5030 a73c
00000050: 820d dcbc eab5 0ebc 74b5 e23a f8f4 85bc
00000060: 9de2 383e fd10 dd3c 74dc 8c3b 3492 c1bc
00000070: 1ce1 b5bd 8bfa abbc cff3 cabc c239 d63c

arith.constant3 f4 [27, 3, 3, 32]
0.11568623 0.022147952 -0.022661684 -0.105155386 0.06053155 0.011273248 0.05292466 -0.008756166
-0.053642828 0.09503144 -0.08169984 -0.0008011278 -0.0039467164 -0.005457246 0.10583139 0.022911118
0.017511368 -0.0048976564 0.021711761 0.0036616789 0.052218366 0.029071867 -0.023378897 -0.034706872
-0.03545249 -0.02012695 -0.06477218 -0.029789928 -0.0034533455 -0.0010032741 0.014870133 -0.07125229
0.10366081 0.013086086 0.030630412 -0.006833242 -0.06479836 -0.0009337816 -0.010323692 -0.109749004
0.11593952 0.2418163 -0.19880643 0.10331632 -0.017038774 0.10849923 0.13587639 -0.009716224
-0.10654723 0.011985897 0.04292645 -0.048577648 0.11254723 -0.061347406 0.11855247 -0.01225912
0.039322328 -0.1332694 -0.15295309 0.015375782 0.07264273 0.01696212 -0.09862524 0.055711117
-0.03789622 -0.0030041614 -0.011629235 0.0028475374 0.030459069 -0.015549959 0.007917027 -0.0059818863
0.005446141 -0.04333545 0.08516383 -0.016842697 0.0067202332 -0.0020389517 -0.008261537 -0.013548191
0.042242263 0.00398057 0.024866303 0.031272754 0.0076551596 -0.0090507595 -0.028472433 -0.011473428
-0.01412669 0.00472691 -0.0107579725 -0.007185702 -0.028021974 0.0013288053 0.010197233 -0.023620179
0.077306226 -0.010263623 0.022433072 -0.12516512 0.046752647 0.033113666 -0.06294217 0.0015368686
0.099930465 0.08801415 -0.07199817 -0.046619277 0.30099463 0.059669476 0.06287053 -0.21828045
0.4204477 0.024053501 0.06703006 0.014482824 -0.031010194 0.087253585 -0.00620728 -0.2562327
-0.12634061 -0.06440103 0.053734526 -0.023457188 0.13484518 -0.14925078 -0.05044738 -0.05893746
0.9351938 0.0023681752 -0.05126511 -0.019058337 -0.13023512 -0.04056772 -0.11431873 -0.10049134
-0.05811465 -0.097006984 0.09597107 -0.13567472 0.026182985 0.03772303 -0.2651503 0.07864101
-0.06994406 0.27023476 -0.31480706 -0.098583266 -0.06973502 -0.015046545 0.118114255 0.06833625
0.061942525 -0.024744004 0.18351987 -0.023524791 0.14293149 -0.15728854 0.28538546 0.06014998
-0.044661388 -0.012436297 0.0009563624 0.12075711 0.04179581 0.016534 -0.007882275 0.0015566376
0.003645478 -0.16284657 0.05665151 0.045305923 -0.00024259758 0.0033358184 0.018415479 -0.0021019017
0.03573388 -0.019445661 0.104612954 0.052395433 -0.0034689144 0.0084776115 -0.019551234 0.058943093
-0.02409039 -0.006526858 -0.057483084 0.0019019578 -0.077998884 0.008828861 -0.037176494 -0.026133623
-0.031428453 0.020381473 0.01781197 0.008956023 -0.0035135515 0.026086774 0.0186854 0.002359622
0.0053474233 -0.0032071183 -0.010989027 0.007831365 -0.0006167249 -0.025240632 0.014762287 0.045616567
-0.069300175 -0.013936285 0.015915988 0.0027121 0.009790721 -0.048468504 -0.0030078453 0.005287946
0.0025975609 0.0289934 -0.011827886 0.011780917 -0.036615588 -0.021066317 -0.0042963903 -0.0039460957
-0.049890153 -0.035605934 -0.015081085 0.13607526 0.0031119848 0.02614371 0.038944583 -0.0067396904
0.011527032 -0.075139925 0.011373958 -0.023529733 -0.0045968676 -0.024975859 -0.021608263 -0.020796359
-0.008077264 0.023883898 0.046510767 -0.0121888295 0.021578861 0.0032201046 0.004677698 0.061440464
0.007054572 0.03644425 -0.019399382 -0.0036156958 -0.109021075 -0.0025033406 -0.01425102 -0.0017853569
00000000: e7ec ec3d 9f6f b53c ffa4 b9bc b55b d7bd
00000010: eeef 773d 6eb3 383c 87c7 583d 0676 0fbc
00000020: 95b8 5bbd d89f c23d 3f52 a7bd c702 52ba
00000030: 7553 81bb b3d2 b2bb 21be d83d 19b0 bb3c
00000040: 0074 8f3c 857c a0bb dddc b13c c7f8 6f3b
00000050: ede2 553d 2028 ee3c 1a85 bfbc cb28 0ebd
00000060: a136 11bd 46e1 a4bc 47a7 84bd 020a f4bc
00000070: 8651 62bb 4b80 83ba dca1 733c b8ec 91bd
00000080: 1e4c d43d 0667 563c a1ec fa3c 63e9 dfbb
00000090: 01b5 84bd 06c9 74ba b424 29bc 16c4 e0bd
000000a0: b371 ed3d b19e 773e ea93 4bbe 8297 d33d
000000b0: e694 8bbc d834 de3d 2e23 0b3e cc30 1fbc
000000c0: 6f35 dabd 7f60 443c a5d3 2f3d 5bf9 46bd
000000d0: 2a7f e63d 6b47 7bbd a3cb f23d 7ada 48bc
000000e0: 7310 213d c677 08be bc9f 1cbe b4ea 7b3c
000000f0: b6c5 943d 25f4 8a3c 08fc c9bd 5731 643d
00000100: 1139 1bbd 77e1 44bb 8c88 3ebc c09d 3a3b
00000110: 4c85 f93c 41c5 7ebc 6bb6 013c b303 c4bb
00000120: 8b75 b23b 8380 31bd 606a ae3d b2f9 89bc
00000130: 6735 dc3b ef9f 05bb 665b 07bc 3bf9 5dbc
00000140: 3906 2d3d 716f 823b 6bb4 cb3c dc17 003d
00000150: 22d8 fa3b a349 14bc 053f e9bc 0cfb 3bbc
00000160: a273 67bc 32e4 9a3b 3542 30bc 0a76 ebbb
00000170: 578e e5bc 4f2b ae3a 4c12 273c 1b7f c1bc
00000180: ba52 9e3d c128 28bc 90c5 b73c 492b 00be
00000190: b47f 3f3d 32a2 073d d3e7 80bd c170 c93a
000001a0: 58a8 cc3d c340 b43d c773 93bd dbf3 3ebd
000001b0: f81b 9a3e fb67 743d 44c2 803d e984 5fbe
000001c0: ec44 d73e d90b c53c 0e47 893d 5e49 6d3c
000001d0: 1709 febc 02b2 b23d 7066 cbbb ef30 83be
000001e0: 6f5f 01be b0e4 83bd bc18 5c3d 4a29 c0bc
000001f0: db14 0a3e 32d5 18be e9a1 4ebd 6868 71bd
00000200: dc68 6f3f 6333 1b3b 5dfb 51bd 3b20 9cbc
00000210: 5b5c 05be 562a 26bd f01f eabd 67ce cdbd
00000220: a109 6ebd 99ab c6bd 7b8c c43d 50ee 0abe
00000230: b37d d63c 7783 1a3d c8c1 87be 8a0e a13d
00000240: d53e 8fbd 365c 8a3e 642e a1be 06e6 c9bd
00000250: 3cd1 8ebd c985 76bc e3e5 f13d e0f3 8b3d
00000260: 72b7 7d3d f0b3 cabc a2ec 3b3e 10b7 c0bc
00000270: a25c 123e 3f10 21be 0b1e 923e d35f 763d
00000280: dcee 36bd 9cc1 4bbc 65b4 7a3a 814f f73d
00000290: 1532 2b3d 5072 873c a824 01bc 1708 cc3a
000002a0: f9e8 6e3b 40c1 26be 6a0b 683d b492 393d
000002b0: cb61 7eb9 bf9d 5a3b 0fdc 963c 0fc0 09bb
000002c0: b05d 123d 824c 9fbc 513f d63d 989c 563d
000002d0: ba56 63bb aee5 0a3c e929 a0bc 506e 713d
000002e0: 3659 c5bc 41df d5bb 6273 6bbd 1d4b f93a
000002f0: e1bd 9fbd eda6 103c 6146 18bd 2e16 d6bc
00000300: 1fbb 00bd 0cf7 a63c 69ea 913c 48bc 123c
00000310: 9d43 66bb eeb3 d53c 2012 993c e3a3 1a3b
00000320: 7039 af3b 842e 52bb 520b 34bc 204f 003c
00000330: b5ab 21ba 71c5 cebc 85dd 713c 70d8 3a3d
00000340: 40ed 8dbd 0455 64bc 3f62 823c 7dbd 313b
00000350: 4369 203c e986 46bd 451f 45bb 8246 ad3b
00000360: d73b 2a3b 9183 ed3c c0c9 41bc bf04 413c
00000370: 3afa 15bd 4593 acbc bcc8 8cbb 404e 81bb
00000380: 9e59 4cbd 87d7 11bd a816 77bc 5057 0b3e
00000390: 71f2 4b3b 552b d63c 5b84 1f3d 9fd8 dcbb
000003a0: e0db 3c3c f6e2 99bd d659 3a3c 6dc1 c0bc
000003b0: 52a1 96bb 2c9a ccbc d003 b1bc 205d aabc
000003c0: 8056 04bc 2aa8 c33c 1382 3e3d a8b3 47bc
000003d0: 27c6 b03c 6408 533b 6047 993b ffa8 7b3d
000003e0: 0a2a e73b 9146 153d 74eb 9ebc 4ff5 6cbb
000003f0: 7146 dfbd 160f 24bb 1c7d 69bc a302 eaba

arith.constant4 f4 [32, 3, 3, 32]
0.014303859 0.029575137 -0.027149193 0.0012706957 -0.0003213099 -0.008241578 0.0012948125 0.010714981
-0.026286462 0.013496804 0.002677684 -0.0019879919 -0.0010172128 0.0055341776 -0.0008225829 -0.01914695
0.008635647 -0.0022617332 0.010938837 0.00049413764 -0.0016313562 -0.0032477458 -0.0043316204 0.010521889
-0.00016376875 -0.006316539 -0.013814451 0.00024157754 0.013695123 0.003913894 0.002277589 0.001078273
-0.004507012 -0.015648749 0.031021181 -0.0061504343 0.005812654 -0.001153517 -0.0009906197 -0.008271434
-0.018325495 -0.0128677795 -0.011282608 0.019148791 0.0006698265 -0.0023138588 0.011619587 -0.0032649245
0.001574032 0.003122968 -0.039282344 0.009477706 0.006346886 0.004145213 0.0036343639 0.013208603
-0.012660752 0.015776556 -0.0013964274 0.0085405195 -0.010283192 0.00082624657 -0.0019477113 9.0799e-05
0.0053496817 -0.01251391 0.0024125245 -0.00265366 0.00032238715 0.0041052424 0.0008205969 -0.008695397
-0.007720224 -0.0008936079 -0.002813735 -0.0043607904 0.000955823 -0.0011123191 0.006118697 0.0022159189
-0.0053552715 -3.017575e-05 0.00014284288 -0.004685028 0.0012310239 0.0066937935 -0.00032815235 -0.00074608636
-0.005679139 -0.00041851294 -0.002929837 -0.0019429507 0.004795282 0.0079006525 -0.004898767 -0.0008461599
0.006393967 -0.022605665 0.025180256 0.0045039193 -0.00022360781 -0.0100970855 -0.013343301 0.0020888117
0.012738086 -0.018905211 0.0023650299 0.010877584 0.0019981402 -0.0035160857 -0.021169912 0.0003436937
-0.0036703583 0.01380358 0.012546592 -0.00028288772 0.00016201325 -0.0021595135 -0.0037450227 -0.030551761
-0.008271498 0.013296385 0.020476578 -0.0045830566 0.022840416 -0.00070069096 -0.010072702 -0.002025014
0.98506594 0.020939192 -0.05842262 -0.0005275263 -0.02805939 -0.015662808 0.00872015 0.014043802
-0.0029554917 0.07299977 -0.008009223 -0.042388327 0.004705438 0.01733508 0.038684487 -0.015748387
0.023062034 0.003042471 0.0031572646 -0.011527968 0.00049757684 -0.0027287905 -0.0022296563 0.027496263
0.019045558 -0.028332204 -0.012999355 0.0015079384 0.002344319 -0.019528443 0.0029086168 0.0021670125
0.034946997 0.011225075 0.025693582 0.0012160046 0.0027606594 0.0045723007 0.00061661575 -0.0053276466
0.000585791 -0.0047164476 0.009599057 0.009038689 -0.011083642 -0.0010703707 -0.014950395 0.007966495
-0.0064606857 0.0031405198 -0.00093515683 0.0016737718 -0.002164222 -0.0010587018 -0.0001809175 0.00010791965
-0.013437024 0.0036989972 -2.000622e-05 -0.0014323704 0.016098617 0.0060847937 -0.0057765455 -0.0014767024
-0.0051016617 -0.010360497 -0.009055312 -0.00420506 0.0018959272 0.0022454108 -0.005892326 0.0030085775
0.0021830022 0.01582785 0.0065680942 -0.0062745856 -0.007136251 -0.002251022 0.00038152508 -0.0047967597
0.008302782 -0.0014708233 0.0119723575 0.004919324 -0.0009473836 0.0026817217 0.0019025436 -0.0019360584
-0.011023901 -0.00022225425 0.011155641 0.0021182091 -0.005883686 -0.0037960724 0.003249827 0.0013730762
0.034189224 0.022867927 0.018888583 0.00079321227 0.0011821095 0.00708512 0.005200358 0.0056523667
0.02032031 -0.035329107 -0.010634132 0.031283867 0.012271889 -0.0020338532 0.0035047433 0.00062735507
-0.0045965 0.012999829 -0.014874515 0.0070743663 -0.0050914884 -0.0035298157 -0.0012238461 -0.0076790364
-0.011906406 0.01791278 -0.008824571 -0.006227394 -0.0075565362 0.011753499 0.0057886443 0.0046062083
00000000: bc5a 6a3c 8f47 f23c fc67 debc 798d a63a
00000010: 7c75 a8b9 af07 07bc b3b6 a93a e38d 2f3c
00000020: b556 d7bc b321 5d3c 157c 2f3b f848 02bb
00000030: ff53 85ba 0c58 b53b 9ba2 57ba 11da 9cbc
00000040: 877c 0d3c 9639 14bb cf38 333c 0489 013a
00000050: 3bd3 d5ba 22d8 54bb 44f0 8dbb 0064 2c3c
00000060: 57b9 2bb9 f8fa cebb 0256 62bc fa4f 7d39
00000070: 8261 603c 1f40 803b 9a43 153b d754 8d3a
00000080: 8faf 93bb ce31 80bc 2220 fe3c 9589 c9bb
00000090: 1378 be3b 9c31 97ba aed7 81ba e984 07bc
000000a0: 591f 96bc 61d3 52bc b0da 38bc eddd 9c3c
000000b0: 4c97 2f3a 1ca4 17bb 1560 3e3c 58f8 55bb
000000c0: c04f ce3a b5aa 4c3b 86e6 20bd 6148 1b3c
000000d0: 8af9 cf3b 91d4 873b 822e 6e3b e568 583c
000000e0: 0b6f 4fbc d63d 813c 5408 b7ba 89ed 0b3c
000000f0: d57a 28bc 7898 583a 594a ffba 586b be38
00000100: 624c af3b 2507 4dbc 721b 1e3b 07e9 2dbb
00000110: 1206 a939 4585 863b 531d 573a 2377 0ebc
00000120: eff9 fcbb 0341 6aba a466 38bb f6e4 8ebb
00000130: 3290 7a3a 3ccb 91ba 5a7f c83b f338 113b
00000140: 467b afbb ee21 fdb7 18c8 1539 dd84 99bb
00000150: 4f5a a13a 9c57 db3b dd0b acb9 0295 43ba
00000160: 1218 babb db6b dbb9 8202 40bb 9baa feba
00000170: be21 9d3b bd71 013c d685 a0bb d4d0 5dba
00000180: 7c84 d13b 842f b9bc d346 ce3c 9d95 933b
00000190: 4478 6ab9 3f6e 25bc dc9d 5abc 72e4 083b
000001a0: 68b3 503c 1adf 9abc 9efe 1a3b e537 323c
000001b0: 3bf3 023b 216e 66bb 866c adbc ca31 b439
000001c0: 658a 70bb 6928 623c 3990 4d3c 8c50 94b9
000001d0: 1ae2 2939 a086 0dbb 0e6f 75bb b047 fabc
000001e0: 2d85 07bc 15d9 593c 7fbe a73c 772d 96bb
000001f0: d31b bb3c 93ae 37ba f907 25bc 19b6 04bb
00000200: 482d 7c3f ab88 ab3c 8f4c 6fbd b149 0aba
00000210: cedc e5bc 4a4f 80bc f6de 0e3c fa17 663c
00000220: ecb0 41bb e780 953d 1e39 03bc 629f 2dbd
00000230: 1330 9a3b 4c02 8e3c a073 1e3d c302 81bc
00000240: 97ec bc3c 3164 473b 1cea 4e3b cddf 3cbc
00000250: d16f 023a 82d5 32bb 6d1f 12bb d83f e13c
00000260: 6e05 9c3c f018 e8bc 3ffb 54bc 04a6 c53a
00000270: 25a3 193b 1dfa 9fbc 7e9e 3e3b 7004 0e3b
00000280: 9524 0f3d 61e9 373c 597b d23c 5862 9f3a
00000290: 2eec 343b 3dd3 953b 62a4 213a 8a93 aebb
000002a0: c58f 193a 6e8c 9abb 5d45 1d3c 0217 143c
000002b0: 2a98 35bc ae4b 8cba 80f2 74bc e785 023c
000002c0: 29b4 d3bb 2ed1 4d3b 5025 75ba 7662 db3a
000002d0: 9fd5 0dbb 23c4 8aba acb4 3db9 ec52 e238
000002e0: f726 5cbc e06a 723b 08d3 a7b7 60be bbba
000002f0: 3fe1 833c f362 c73b 2d49 bdbb e98d c1ba
00000300: d72b a7bb 13bf 29bc bb5c 14bc 9aca 89bb
00000310: c380 f83a be27 133b 6a14 c1bb 8e2b 453b
00000320: b310 0f3b 68a9 813c 2b39 d73b 0a9b cdbb
00000330: 36d7 e9bb e285 13bb 6e07 c839 232e 9dbb
00000340: 6408 083c a4c8 c0ba b527 443c 4832 a13b
00000350: d659 78ba d3bf 2f3b c55e f93a 57c3 fdba
00000360: 989d 34bc ec0c 69b9 26c6 363c a7d1 0a3b
00000370: efcb c0bb 87c7 78bb 0dfb 543b cbf8 b33a
00000380: 000a 0c3d 8555 bb3c 3bbc 9a3c 93ef 4f3a
00000390: 03f1 9a3a 4b2a e83b c467 aa3b 7d37 b93b
000003a0: c776 a63c 41b5 10bd c83a 2ebc 8323 003d
000003b0: 0810 493c 654a 05bb d6af 653b 1675 243a
000003c0: 3d9e 96bb 3cfd 543c 3db4 73bc 16d0 e73b
000003d0: 80d6 a6bb 7b54 67bb 7669 a0ba 6da0 fbbb
000003e0: 1613 43bc d3bd 923c ef94 10bc 2b0f ccbb
000003f0: d29c f7bb bf91 403c abae bd3b adef 963b

arith.constant5 f4 [32, 3, 3, 32]
0.043754194 0.004357799 -0.013239801 -0.004011553 0.0011209106 -0.0035266893 -0.0064135543 0.0017810802
0.00041578675 0.028436363 0.009120165 -0.001424907 -0.021152955 -0.0048295525 -0.001139964 -0.0024771355
-0.005458444 -0.00049195427 -0.006340875 -0.0056502335 0.004655181 -0.0010167562 0.003441023 -0.005068591
0.0024762866 -0.0048852605 -0.07598638 0.007935812 0.015684383 0.0015295044 0.0045051365 -0.009098212
-0.050115455 -0.00647643 0.024801847 0.003556137 -0.0066474383 -0.0041403454 0.007989608 -0.004326545
-0.018226504 0.0014523239 -0.025972111 -0.0013461406 0.0217773 -0.0041328995 0.0069258176 -0.0062090117
0.007206217 -0.0038002394 0.0029946726 0.005758354 0.0030420516 -0.051307783 -0.007994833 0.011390582
-0.00080357154 -0.01354802 0.031368773 0.00017537773 -0.005847128 0.002083884 -0.0047254716 0.017965438
-0.029180314 -0.03229941 -0.011940857 -0.0037237767 0.0010011959 0.0120335 -0.0028829882 0.004611796
0.00023448352 -0.036719706 0.0024093306 -3.061078e-05 0.018169519 -0.00023322077 -0.001982448 -0.0022365563
-0.0021406119 0.00069944136 0.006758948 -0.0045069507 -0.00024845143 0.03955904 0.0039243572 -0.0068539497
0.00414502 0.0071674404 0.040688585 -0.0029757752 -0.00011475447 -0.002638501 0.0013641965 -0.0053852624
-0.011094476 0.049740218 0.06830977 0.0144593045 -0.0014024476 0.007693354 0.010556903 -0.025448566
0.013948607 -0.024510747 0.0052315937 -0.0043386575 0.0034843849 -0.00076558953 0.005362247 -0.0021499908
0.013179165 0.0003005629 -0.017995693 0.0014048 -9.3849776e-05 0.0727144 -0.0028243081 -0.007625081
-0.008383626 -0.0050930507 0.018490503 -0.007031381 -0.025317332 0.018865816 -0.019279063 0.01181904
0.9812261 0.03265686 0.016946895 0.0026409642 0.0047360035 -0.00056008 0.004781026 0.014852904
0.00037879832 0.0331606 0.0074761757 0.014427524 -0.55385274 0.00034632505 -0.012720951 0.015362024
-0.0047742007 -0.002979185 -0.0052490304 -0.0005073444 0.0064178286 -0.07512689 0.02382496 0.013996907
-0.0012161813 0.026518323 0.07572223 0.006059483 0.0138655715 -0.009865657 0.018388614 -0.01321564
0.038714837 0.062383745 -0.044197597 0.006527392 0.0027372355 -0.0035699015 -0.012331346 0.0135661
0.016949683 0.059014183 0.0025112438 -0.008660353 -0.022612838 0.0015101868 -0.006161382 0.0020390104
0.015742581 0.0061259805 0.0119414795 0.005142691 0.006767756 0.012788378 -0.005939572 -0.0057732416
7.515735e-05 -0.006591145 -0.08909286 -0.003537923 -0.015816672 -0.00169468 -0.005255909 0.003983179
0.027048316 -0.0033218518 -0.044882428 -0.0034560321 -0.0045051305 -0.000841279 -0.017605029 0.003527912
0.0022818753 -0.022264862 0.0048564426 0.0062495875 -0.014640098 -0.00038208297 0.0010009115 0.0018452979
-0.00071966136 0.004718071 0.002128667 -0.005862165 -0.0011528563 0.00954103 6.279368e-05 0.0018003279
-0.003477508 0.008483094 -0.008653125 -0.00015146685 0.008223474 0.0022820858 0.014654316 -0.0022298535
-0.012692786 0.03597196 0.02056122 -0.01020521 -0.00093819207 -0.0073663606 0.011355433 -0.001096363
-0.0123827495 -0.0026422623 0.004161987 -0.015556283 0.0015439221 -0.0010882976 0.019344864 0.008114061
-0.0034509962 -6.7670353e-06 0.009453495 -0.0027395682 -0.004146652 -0.00067074556 -0.01886545 0.0013608846
-0.008135586 -0.010352212 0.015716288 0.00065021025 -0.011312579 0.0023262762 -0.013719217 -0.00396475
00000000: 9937 333d decb 8e3b c0eb 58bc 5873 83bb
00000010: 85eb 923a 0720 67bb cb28 d2bb 2273 e93a
00000020: f4fd d939 60f3 e83c bf6c 153c f2c3 baba
00000030: f648 adbc 3941 9ebb d86a 95ba 7057 22bb
00000040: bfdc b2bb 7ef6 00ba 1dc7 cfbb 9825 b9bb
00000050: 7d8a 983b ad44 85ba c982 613b 6c16 a6bb
00000060: 3249 223b 8914 a0bb bf9e 9bbd 3505 023c
00000070: 897c 803c a779 c83a d39f 933b ab10 15bc
00000080: dd45 4dbd 3c38 d4bb 3e2d cb3c 140e 693b
00000090: c1d2 d9bb bcab 87bb d8e6 023c b1c5 8dbb
000000a0: c04f 95bc e75b be3a 77c3 d4bc fc70 b0ba
000000b0: 4f66 b23c 466d 87bb f8f1 e23b f774 cbbb
000000c0: 2122 ec3b 700d 79bb 4542 443b 93b0 bc3b
000000d0: 285d 473b 1c28 52bd c3fc 02bc 909f 3a3c
000000e0: c6a6 52ba 84f8 5dbc 8b7c 003d 9ae5 3739
000000f0: 4499 bfbb c691 083b 21d8 9abb 412c 933c
00000100: 8e0b efbc 634c 04bd 96a3 43bc 9b0a 74bb
00000110: 8f3a 833a 2828 453c 84f0 3cbb 8c1e 973b
00000120: b1df 7539 6767 16bd dce5 1d3b 1364 00b8
00000130: 3ed8 943c b98c 74b9 f5eb 01bb 3093 12bb
00000140: 8249 0cbb b75a 373a 2a7a dd3b 0baf 93bb
00000150: 9642 82b9 a908 223d e597 803b 1997 e0bb
00000160: f3d2 873b d9dc ea3b 13a9 263d 3905 43bb
00000170: 56a8 f0b8 b4ea 2cbb d7ce b23a db76 b0bb
00000180: 9bc5 35bc 66bc 4b3d fee5 8b3d b8e6 6c3c
00000190: 55d2 b7ba 8818 fc3b dcf6 2c3c 8379 d0bc
000001a0: b388 643c c3ca c8bc ca6d ab3b 4c2b 8ebb
000001b0: 475a 643b d8b1 48ba cab5 af3b dce6 0cbb
000001c0: 6ded 573c df94 9d39 b46b 93bc 4421 b83a
000001d0: 37d1 c4b8 4aeb 943d 0718 39bb d1db f9bb
000001e0: 7a5b 09bc 9be3 a6bb 6579 973c 8067 e6bb
000001f0: 4b66 cfbc 7c8c 9a3c 20ef 9dbc a6a4 413c
00000200: a231 7b3f 33c3 053d 37d4 8a3c 0714 2d3b
00000210: 7a30 9b3b 55d2 12ba 27aa 9c3b 9859 733c
00000220: 7399 c639 69d3 073d b5fa f43b 6c61 6c3c
00000230: 4bc9 0dbf f692 b539 896b 50bc 00b1 7b3c
00000240: e670 9cbb 6e3e 43bb 0f00 acbb 4eff 04ba
00000250: a64c d23b 20dc 99bd 902c c33c 4853 653c
00000260: 4668 9fba f43c d93c 4214 9b3d a18e c63b
00000270: 6c2c 633c 91a3 21bc b8a3 963c 6986 58bc
00000280: 7393 1e3d 1986 7f3d 8a08 35bd bce3 d53b
00000290: 3163 333b 02f5 69bb 6a09 4abc 5944 5e3c
000002a0: 10da 8a3c dbb8 713d ae93 243b 27e4 0dbc
000002b0: 8f3e b9bc 76f1 c53a 6be5 c9bb eba0 053b
000002c0: 96f6 803c 73bc c83b 32a6 433c 0584 a83b
000002d0: 0dc4 dd3b 5886 513c bea0 c2bb 762d bdbb
000002e0: cc9d 9d38 88fa d7bb 5176 b6bd 80dc 67bb
000002f0: f791 81bc 0620 deba c339 acbb 5485 823b
00000300: 6e94 dd3c 6db3 59bb a3d6 37bd 997e 62bb
00000310: c69f 93bb 4789 5cba 6c38 90bc 8b34 673b
00000320: 848b 153b cd64 b6bc cb22 9f3b 57c9 cc3b
00000330: 06dd 6fbc 4f52 c8b9 0431 833a ecdd f13a
00000340: a8a7 3cba 0c9a 9a3b 1b81 0b3b 6717 c0bb
00000350: 701b 97ba fb51 1c3c 1ab0 8338 fbf8 eb3a
00000360: e7e6 63bb adfc 0a3c d6c5 0dbc 13d3 1eb9
00000370: c0bb 063c 0c8f 153b a818 703c bc22 12bb
00000380: 67f5 4fbc 5557 133d 0170 a83c c133 27bc
00000390: 01f1 75ba 8361 f1bb 230c 3a3c d6b3 8fba
000003a0: 04e1 4abc ce29 2dbb 4761 883b c8df 7ebc
000003b0: 6e5d ca3a 35a5 8eba 1f79 9e3c d7f0 043c
000003c0: 1c2a 62bb 6410 e3b6 d5e2 1a3c 548a 33bb
000003d0: a3e0 87bb f9d4 2fba b78b 9abc b65f b23a
000003e0: 1f4b 05bc 539c 29bc 72bf 803c df72 2a3a
000003f0: 6558 39bc 7074 183b 91c6 60bc bcea 81bb

model/tf.nn.convolution/convolution f4 [32, 3, 3, 3]
-0.06518473 -0.082977444 0.10468189 0.07695921 0.07979029 -0.14241868 0.037684064 0.045362152
0.01867978 0.044236697 -0.015444799 -0.16044995 0.9723287 -0.055970464 0.103620104 -0.09836527
-0.119068496 0.041608095 -0.05960003 0.047268797 0.074315794 0.02402701 -0.13450956 -0.027119359
0.01727925 0.09929222 -0.036136907 0.09207321 -0.06667234 0.037139956 -0.1380016 0.057127494
0.08311213 -0.014647435 -0.046635516 -0.050585754 -0.016713047 0.020793453 0.023882836 0.0035920737
1.0241467 -0.15515001 0.05620995 0.028762184 0.0035385753 -0.048998542 0.04770415 -0.067896985
-0.0071173906 -0.0045197518 -0.008461592 0.07503973 -0.107191384 0.03107 -0.034344833 0.075141124
-0.004721223 0.008248076 -0.03596311 -0.061360896 -0.02815206 -0.00132004 0.08047727 -0.022908282
-0.05202044 -0.04432749 0.032294214 0.08447722 1.0502971 0.06205626 -0.08559668 -0.08844575
0.06956429 -0.03498683 0.07563757 -0.06507081 -0.052030887 -0.049273055 0.0006415058 0.10081096
-0.034020517 -0.020454157 0.0004205947 -0.019585514 0.032759733 0.03451552 0.05139611 -0.018004684
-0.03594349 -0.017475236 0.07293916 0.010543142 0.066201195 -0.18474884 -0.13076517 -0.1796464
0.05128539 0.013064411 0.051413644 -0.027329594 -0.0029353434 -0.021978945 0.064663686 0.017818173
0.028405296 -0.03218664 0.016008915 -0.031419877 0.023558863 0.021713592 0.010297078 -0.054432325
0.017401572 -0.009031518 -0.25037098 -0.30269063 -0.05053075 0.003006306 0.0019933507 -0.012509549
0.29597855 0.26093772 0.075349085 0.005427602 0.00024934087 -0.03531602 -0.0126057435 -0.00900826
0.014930456 -0.033300612 0.010970315 -0.016171973 0.022246111 -0.0011036554 0.02360467 -0.04112804
-0.054613482 -1.2278436 0.025318077 -0.034084897 0.12588581 -0.014926837 0.044415392 -0.015278884
0.026244951 0.041093953 0.04184602 -0.006447657 0.050225295 0.037905186 0.01641575 -0.025230626
0.010919204 -0.016420653 -0.007085519 0.056594633 0.028973566 -0.0200523 0.04615645 -0.007266323
0.018978717 -0.02539889 -0.119693406 -0.17119989 -0.10375989 0.040444035 0.028396107 -0.014236007
-0.015727742 -0.012196905 0.0068741497 0.17871045 0.18500109 0.18490694 -0.048481897 0.023041174
-0.0637032 0.034859583 -0.0057742903 0.0013066451 -0.07273016 -0.046724353 -0.02129199 0.023116868
0.020633275 0.02207327 -0.0057339873 -0.011012057 -0.014111964 0.015860848 0.013010245 0.0077384007
-0.035524014 -0.059220806 0.0026171764 -0.1770671 -0.072847836 0.07267334 0.038305607 0.017266309
-0.022601148 -0.2599407 -0.12581462 0.07874206 0.42508915 0.22190236 -0.14182355 -0.03415065
-0.015631663 -0.0068376246 0.0635194 -0.014150092 0.012477442 -0.031823196 0.031739373 0.0004114505
0.010712951 0.0027577823 0.01872471 -0.029644838 0.01902002 -0.01504738 0.026136372 -0.007540289
0.0068184715 -0.027777564 -0.044707816 -0.028233683 0.19325243 0.47189558 0.19591628 -0.023992259
0.0224973 0.014134378 0.018121803 0.03581267 0.008333924 -0.170063 -0.5025882 -0.17444251
0.0033749442 -0.0036128121 -0.022081625 0.0037203217 0.02899833 -0.08780023 -0.09952916 0.0120327305
0.20464398 -0.019898731 0.0058492552 -0.053667635 0.007173626 -0.011601629 -0.007110975 0.17731918
00000000: 927f 85bd 14f0 a9bd 7563 d63d ca9c 9d3d
00000010: 1769 a33d 34d6 11be 9b5a 1a3d aacd 393d
00000020: 5706 993c 8a31 353d 2f0c 7dbc fe4c 24be
00000030: 89ea 783f 4941 65bd c736 d43d bb73 c9bd
00000040: 2fda f3bd 406d 2a3d 291f 74bd ed9c 413d
00000050: e132 983d 4bd4 c43c e0bc 09be 6b29 debc
00000060: 378d 8d3c b859 cb3d 4b04 14bd e190 bc3d
00000070: 828b 88bd 1120 183d 4b50 0dbe 85fe 693d
00000080: b136 aa3d ccfb 6fbc e204 3fbd 0233 4fbd
00000090: cde9 88bc 0857 aa3c f0a5 c33c ff68 6b3b
000000a0: 3d17 833f a5df 1ebe 683c 663d ac9e eb3c
000000b0: 71e7 673b b2b2 48bd 6d65 433d 930d 8bbd
000000c0: 0039 e9bb 6d1a 94bb 7da2 0abc 6eae 993d
000000d0: 2887 dbbd 8386 fe3c 2bad 0cbd 97e3 993d
000000e0: 7db4 9abb f022 073c 0e4e 13bd 9055 7bbd
000000f0: 269f e6bc 3105 adba 44d1 a43d 26aa bbbc
00000100: 6313 55bd be90 35bd f046 043d 6502 ad3d
00000110: 2370 863f b42e 7e3d 504d afbd 0c23 b5bd
00000120: b977 8e3d 5a4e 0fbd dfe7 9a3d d843 85bd
00000130: 571e 55bd 8bd2 49bd ba2a 283a fa75 ce3d
00000140: 1959 0bbd 7a8f a7bc 4483 dc39 cd71 a0bc
00000150: 122f 063d 2560 0d3d ba84 523d 8f7e 93bc
00000160: 7b39 13bd 3a28 8fbc 2061 953d 25bd 2c3c
00000170: 7e94 873d cd2e 3dbe 4ee7 05be 3af5 37be
00000180: a110 523d 1c0c 563c 1d97 523d 50e2 dfbc
00000190: e45e 40bb 300d b4bc 656e 843d 6bf7 913c
000001a0: 39b2 e83c 23d6 03bd 2125 833c 21b2 00bd
000001b0: 84fe c03c b4e0 b13c 13b5 283c 6ef4 5ebd
000001c0: be8d 8e3c eff8 13bc a030 80be 44fa 9abe
000001d0: 55f9 4ebd 7205 453b e0a2 023b daf4 4cbc
000001e0: 808a 973e a199 853e 9f50 9a3d 07da b13b
000001f0: f7b9 8239 88a7 10bd 5288 4ebc 6297 13bc
00000200: df9e 743c 3966 08bd d6bc 333c 167b 84bc
00000210: 7a3d b63c 88a8 90ba 955e c13c e075 28bd
00000220: 63b2 5fbd fb29 9dbf db67 cf3c 9b9c 0bbd
00000230: 36e8 003e b18f 74bc eaec 353d 4954 7abc
00000240: a7ff d63c 2252 283d bb66 2b3d de46 d3bb
00000250: 0ab9 4d3d 7842 1b3d 537a 863c 75b0 cebc
00000260: 76e6 323c 9b84 86bc a42d e8bb c6cf 673d
00000270: f959 ed3c b944 a4bc 8c0e 3d3d 561a eebb
00000280: 4179 9b3c 5511 d0bc d121 f5bd 064f 2fbe
00000290: 1180 d4bd a5a8 253d f49e e83c 243e 69bc
000002a0: 77d7 80bc 87d5 47bc 8c40 e13b dfff 363e
000002b0: ed70 3d3e 3f58 3d3e f494 46bd d8c0 bc3c
000002c0: d376 82bd ecc8 0e3d 4236 bdbb bc43 ab3a
000002d0: 8df3 94bd 0962 3fbd 8a6c aebc 965f bd3c
000002e0: 1d07 a93c 01d3 b43c 2ce4 bbbb ea6b 34bc
000002f0: de35 67bc 9cee 813c ec28 553c 6992 fd3b
00000300: a181 11bd 8491 72bd ef84 2b3b 1451 35be
00000310: 3f31 95bd c3d5 943d 57e6 1c3d 1372 8d3c
00000320: 0b26 b9bc f316 85be 8cd5 00be 8443 a13d
00000330: 49a5 d93e 5f3a 633e 313a 11be 8de1 0bbd
00000340: f90d 80bc 270e e0bb 7616 823d cad5 67bc
00000350: 2f6e 4c3c 0a59 02bd 2501 023d f4b7 d739
00000360: 6085 2f3c e9bb 343b 9064 993c bbd9 f2bc
00000370: dfcf 9b3c 4989 76bc f21b d63c 8714 f7bb
00000380: 7c6d df3b c68d e3bc 8b1f 37bd 534a e7bc
00000390: f7e3 453e 4c9c f13e 479e 483e 6a8b c4bc
000003a0: 424c b83c e193 673c 2d74 943c 4eb0 123d
000003b0: 038b 083c ff24 2ebe 9fa9 00bf 0fa1 32be
000003c0: 2b2e 5d3b eec4 6cbb 86e4 b4bc a4d0 733b
000003d0: e88d ed3c 9bd0 b3bd f2d5 cbbd ee24 453c
000003e0: 318e 513e aa02 a3bc 1cab bf3b 98d2 5bbd
000003f0: bd10 eb3b c214 3ebc 2f03 e9bb 2993 353e

model/tf.math.add/Add;model/tf.nn.convolution/convolution;model/tf.math.add/Add/y f4 [32]
-0.03383175 0.054197557 0.026530517 0.08322939 -0.00056147773 0.016838485 0.015093044 -0.00020158484
0.0022616335 0.07288113 4.6228077e-05 -0.47221342 0.05900486 -0.00013822963 0.008713591 0.0004213626
0.010891262 -0.0007607208 -0.00014263237 -0.00028984863 0.0021770892 0.06443729 -0.031639777 -0.0056271297
0.007822169 0.003642018 0.07446661 -0.2871832 0.116505906 0.000412367 0.00029637522 0.003791782
00000000: 2993 0abd 42fe 5d3d 8756 d93c 2c74 aa3d
00000010: 2230 13ba ddf0 893c d148 773c 8560 53b9
00000020: ea37 143b b442 953d 05e5 4138 f5c5 f1be
00000030: 15af 713d bcf1 10b9 73c3 0e3c 55ea dc39
00000040: 4471 323c 1c6b 47ba 968f 15b9 d3f6 97b9
00000050: 7fad 0e3b b3f7 833d b698 01bd c963 b8bb
00000060: 8e28 003c ecae 6e3b f381 983d ad09 93be
00000070: a69a ee3d f632 d839 cf62 9b39 8c7f 783b
