app/src/main/assets/models/qsr_s_1.5x_720p_float32.tflite (tflite, 96556 bytes, 8 tensors)

arith.constant f4 [27]
-0.08359093 0.049651243 0.050667938 -0.08295909 0.044109564 0.077307105 -0.085526384 0.050645582
0.068640865 -0.0017561222 0.06953153 -0.004425988 0.078222916 0.024320059 -0.07333317 -0.022316998
0.01750938 -0.013368432 -0.0499826 0.02979623 -0.045123175 0.05531443 0.02804876 0.016338594
0.031042207 0.03940042 0.08466699
00000000: b931 abbd 1a5f 4b3d 2f89 4f3d 75e6 a9bd
00000010: 3bac 343d 3053 9e3d 7528 afbd be71 4f3d
00000020: 9593 8c3d af2d e6ba 8c66 8e3d e107 91bb
00000030: 5633 a03d dc3a c73c b32f 96bd 23d2 b6bc
00000040: d56f 8f3c 4507 5bbc 8eba 4cbd 3917 f43c
00000050: 14d3 38bd 6291 623d 83c6 e53c 84d8 853c
00000060: 3a4c fe3c 5662 213d e365 ad3d

arith.constant1 f4 [32]
0.0065508215 -0.043565948 0.011047645 -0.035022326 -0.0043956987 -0.05505479 -0.036288317 0.034181852
0.05086632 -0.016099654 -0.033804752 -0.00084141264 -0.008540469 -0.031060401 -0.025170548 -0.05241472
-0.0073000873 -0.030927751 0.04279197 0.057261754 -0.04283592 0.0017969309 0.023447065 -0.021570154
0.056191023 0.04316688 0.0054278607 -0.0036328756 0.015158416 -0.046398953 -0.027478445 -0.0057732193
00000000: 46a8 d63b 3572 32bd 2e01 353c 9273 0fbd
00000010: cb09 90bb 2281 61bd 0fa3 14bd 4502 0c3d
00000020: 3459 503d 6ce3 83bc da76 0abd 3f92 5cba
00000030: 53ed 0bbc 6272 febc 7732 cebc d1b0 56bd
00000040: 9235 efbb 325c fdbc a246 2f3d 4d8b 6a3d
00000050: b874 2fbd ff86 eb3a 0f14 c03c e4b3 b0bc
00000060: 8f28 663d c1cf 303d 32dc b13b 8a15 6ebb
00000070: 015b 783c d40c 3ebd 7a1a e1bc 462d bdbb

arith.constant2 f4 [32]
-0.03008546 0.039053544 0.029603967 0.0116563225 0.02771633 -0.03825076 -0.054320265 0.04543819
-0.04457535 -0.014132836 -0.01490602 -0.029889576 0.05588126 0.056220684 -0.04429021 -0.025654597
0.053436417 -0.017220205 0.03662202 -0.035640765 0.011099927 0.046801716 -0.057860542 -0.020195512
-0.037772365 0.036345102 -0.020952448 -0.051805507 0.012977212 -0.04022464 -0.036390416 -0.04034341
00000000: c875 f6bc 9cf6 1f3d 0584 f23c 29fa 3e3c
00000010: 5b0d e33c d4ac 1cbd ed7e 5ebd 651d 3a3d
00000020: a494 36bd 698d 67bc 6138 74bc fcda f4bc
00000030: c0e3 643d a947 663d a769 35bd 9729 d2bc
00000040: 25e0 5a3d 6311 8dbc f900 163d 0dfc 11bd
00000050: 78dc 353c 28b3 3f3d 2dff 6cbd 0f71 a5bc
00000060: 32b7 1abd 9ade 143d 78a4 abbc 0332 54bd
00000070: 5f9e 543c 98c2 24bd 1e0e 15bd 223f 25bd

arith.constant3 f4 [27, 1, 1, 128]
0.9629564 0.021977821 0.05840897 -0.081620544 0.030930666 -0.021353448 0.065289505 -0.044610847
-0.07009612 0.02260758 -0.06603855 -0.008012443 0.023672484 0.08245418 -0.011517585 -0.06881302
0.0679931 0.046801746 0.07090642 -0.036543563 -0.08247494 -0.022098372 -0.007303722 -0.03188411
0.036511984 -0.041022602 0.032290407 0.03405205 0.0564197 0.02403816 -0.045182053 0.08670557
-0.07436313 -0.015841568 -0.03433788 0.039768375 0.009706651 -0.053144436 -0.06571055 0.0016409243
0.010953997 0.055990655 0.08297817 0.07649523 -0.057789747 -0.06399806 0.031918515 0.0797938
0.003660949 -0.06735649 0.041971624 -0.08365446 -0.04430324 0.0549218 -0.026889436 -0.04871575
-0.032864794 0.06726225 -0.03657319 0.045599833 0.0619689 0.05690229 -0.041973602 0.023577705
0.00385493 -0.08446513 0.03293514 -0.034335416 0.007544581 0.026153563 0.020382436 -0.0780014
0.060603026 0.03047096 0.08291954 0.08097003 0.046243805 -0.05900271 0.06337154 0.047352225
-0.05780593 0.044029135 0.054627478 0.037448898 -0.08209303 -0.014289088 -0.00766177 0.013084489
0.07149742 0.011989977 -0.034376793 -0.06512875 0.062995836 -0.051788278 -0.007600046 0.07090246
-0.027363325 0.07628157 0.016294077 -0.042440843 -0.065709434 0.08421967 -0.010905739 0.06182603
-0.07396008 0.010212286 -0.04100453 0.059302744 0.05159142 -0.08321755 -0.05012733 0.051017094
0.01357667 0.025331015 -0.01012519 -0.04734426 0.06074092 0.0788723 0.023169693 -0.060526498
0.055941056 -0.063780695 0.0026595714 0.0029314081 0.04676612 0.032390095 0.082584016 0.021110576
1.0749624 0.0023641852 0.034565642 0.0468615 -0.026250184 -0.016385252 0.0034162127 0.005425237
0.015443153 -0.020612843 0.08674809 0.083020605 0.022542115 -0.01993016 0.050355926 0.013944137
0.035891265 -0.061380666 -0.079766534 0.07644419 0.026555095 0.011072082 0.025979474 -0.0060960357
0.02625656 -0.05289487 0.0542742 -0.008644792 -0.029339874 -0.03742775 -0.002960342 0.08643603
-0.06502183 0.0010750291 0.06905851 -0.032145843 -0.004304721 0.08781361 0.045953237 0.051106647
-0.059916887 -0.06022361 0.04408989 0.071819074 -0.050244953 0.07558994 0.044056438 0.06406101
0.006157117 0.085776925 0.032182544 0.068779685 0.084282614 0.03153384 0.08225751 0.0013094182
0.0077737966 0.019370522 0.036821887 0.017714193 0.04627827 0.027624993 -0.06508374 -0.084491625
-0.039601788 -0.054126237 -0.07664107 0.003552168 -0.053699624 0.08139881 0.0867633 -0.06829846
0.058342975 -0.023174582 -0.059602987 0.022483353 -0.06266368 -0.044436686 0.088114426 0.063764796
0.014029442 -0.01689525 -0.05607184 -0.052969854 -0.08707731 -0.018522497 -0.048462976 0.018626051
-0.037217963 0.0421695 0.0040352764 0.05185194 -0.055401377 -0.063066944 -0.04979667 -0.035497043
0.036711864 -0.018921185 0.006441693 -0.045011263 -0.07234167 0.07337148 -0.036320362 -0.0057523916
-0.05116701 -0.06888001 0.077349834 0.031011935 -0.028508307 0.080412306 0.025371602 -0.04829664
-0.035459355 0.029697038 -0.07158287 -0.05405837 0.02175026 -0.06493806 0.013494736 -0.0073497463
-0.08198794 -0.010998989 -0.038164668 -0.059412085 -0.00927768 -0.031622738 0.01551436 -0.043983176
00000000: 5084 763f d50a b43c 3e3e 6f3d ac28 a7bd
00000010: 4f62 fd3c 6ded aebc 81b6 853d ddb9 36bd
00000020: 8e8e 8fbd 8833 b93c 383f 87bd 9f46 03bc
00000030: ccec c13c bddd a83d 41b4 3cbc d7ed 8cbd
00000040: f73f 8b3d 30b3 3f3d 6337 913d b4ae 15bd
00000050: 9fe8 a8bd a507 b5bc 1054 efbb ea98 02bd
00000060: 978d 153d 5107 28bd f242 043d 2a7a 0b3d
00000070: 5818 673d adeb c43c d110 39bd b192 b13d
00000080: b24b 98bd 2dc6 81bc e0a5 0cbd 2ae4 223d
00000090: a508 1f3c fbad 59bd 4193 86bd 4814 d73a
000000a0: 6578 333c 7556 653d 75f0 a93d 88a9 9c3d
000000b0: f1b4 6cbd 6a11 83bd fdbc 023d ef6a a33d
000000c0: 88ec 6f3b 33f2 89bd 70ea 2b3d 0853 abbd
000000d0: 5077 35bd aef5 603d 3c47 dcbc 2b8a 47bd
000000e0: 3c9d 06bd cac0 893d c5cd 15bd e4c6 3a3d
000000f0: 1ad3 7d3d 6012 693d 83ec 2bbd 0826 c13c
00000100: fea2 7c3b 0efc acbd ffe6 063d 4ba3 0cbd
00000110: 8838 f73b ff3f d63c 11f9 a63c 33bf 9fbd
00000120: e13a 783d 3c9e f93c b8d1 a93d 9dd3 a53d
00000130: 256a 3d3d d3ac 71bd f0c8 813d 68f4 413d
00000140: e9c5 6cbd e557 343d 10c1 5f3d 0464 193d
00000150: 6420 a8bd c71c 6abc 960f fbbb 5360 563c
00000160: 3d6d 923d 9c71 443c aece 0cbd 3962 85bd
00000170: f603 813d f21f 54bd cf09 f9bb 4f35 913d
00000180: 0d29 e0bc 8339 9c3d 287b 853c 73d6 2dbd
00000190: ab92 86bd 5d7b ac3d fcad 32bc 4b3d 7d3d
000001a0: 6278 97bd 6f51 273c 5ef4 27bd 6fe7 723d
000001b0: 8651 533d f66d aabd 5152 4dbd 4df7 503d
000001c0: ae70 5e3c fd82 cf3c 20e4 25bc 0eec 41bd
000001d0: 79cb 783d cd87 a13d 5ece bd3c a2ea 77bd
000001e0: 7322 653d 749f 82bd 344c 2e3b de1c 403b
000001f0: d58d 3f3d 7aab 043d cf21 a93d 16f0 ac3c
00000200: 5e98 893f 72f0 1a3b b494 0d3d d8f1 3f3d
00000210: a00a d7bc 5d3a 86bc 8ae2 5f3b 30c6 b13b
00000220: 4705 7d3c 44dc a8bc fca8 b13d b506 aa3d
00000230: 3eaa b83c 9344 a3bc 0442 4e3d f375 643c
00000240: b802 133d 4b6a 7bbd a35c a3bd c68e 9c3d
00000250: 128a d93c ae67 353c e8d2 d43c 41c1 c7bb
00000260: ff17 d73c 4ba8 58bd a04e 5e3d e3a2 0dbc
00000270: 2d5a f0bc d74d 19bd 4c02 42bb 6005 b13d
00000280: 2a2a 85bd fee7 8c3a 8c6e 8d3d 5cab 03bd
00000290: 9e0e 8dbb 9fd7 b33d 7639 3c3d 3455 513d
000002a0: 696b 75bd 08ad 76bd 9a97 343d e115 933d
000002b0: a7cd 4dbd e6ce 9a3d 8674 343d 6b32 833d
000002c0: a4c1 c93b d0ab af3d d8d1 033d 5ddc 8c3d
000002d0: 5d9c ac3d a129 013d a076 a83d c9a0 ab3a
000002e0: 55bb fe3b eeae 9e3c 8cd2 163d 5b1d 913c
000002f0: 498e 3d3d cf4d e23c a04a 85bd f209 adbd
00000300: 7c35 22bd 79b3 5dbd fef5 9cbd 7dcb 683b
00000310: 23f4 5bbd 6bb4 a63d f5b0 b13d 10e0 8bbd
00000320: 0bf9 6e3d 9fd8 bdbc 4322 74bd 022f b83c
00000330: d155 80bd 3e03 36bd 5675 b43d 1e97 823d
00000340: bfdb 653c e867 8abc 96ab 65bd ebf6 58bd
00000350: 9755 b2bd 7ebc 97bc 1d81 46bd a995 983c
00000360: dd71 18bd edb9 2c3d 5a3a 843b b362 543d
00000370: 8eec 62bd 3e29 81bd 98f7 4bbd 5965 11bd
00000380: 2e5f 163d 9a00 9bbc d614 d33b bb5d 38bd
00000390: df27 94bd c943 963d a9c4 14bd 8f7e bcbb
000003a0: 8094 51bd f610 8dbd 9769 9e3d be0c fe3c
000003b0: 418a e9bc 35af a43d 1bd8 cf3c b3d2 45bd
000003c0: d43d 11bd 3447 f33c 0a9a 92bd 4f6c 5dbd
000003d0: 9a2d b23c 3ffe 84bd 0619 5d3c 24d6 f0bb
000003e0: 4be9 a7bd 1b35 34bc 8e52 1cbd 165a 73bd
000003f0: 6901 18bc d886 01bd f12f 7e3c b427 34bd

arith.constant4 f4 [32, 3, 3, 32]
-0.058517717 0.05228802 -0.015454378 0.02857907 -0.036536437 -0.012556143 0.03081902 -0.03399966
0.051266294 0.01846589 -0.05818709 -0.05353002 -0.013586241 -0.04983115 -0.01655753 -0.029713016
-0.025210194 0.017017042 0.047583897 0.028614296 0.051491775 0.04845147 0.022317171 -0.009418844
-0.051444527 0.0038630958 -0.025217 -0.03810407 0.032897588 0.018401336 0.033388495 0.03646909
-0.017882114 0.04451688 0.052852526 -0.015928537 -0.042619616 0.0012896023 0.028663496 0.03403666
0.043016028 -0.035499196 0.03809138 -0.05754857 -0.04949249 -0.036040902 0.015163284 0.013267842
0.05353076 0.027967293 0.018097365 0.030566743 -0.00033212418 0.03564642 0.05752718 -0.0052400124
-0.046683248 -0.0533135 0.017174173 -0.015959065 0.054159537 -0.042275313 -0.0063372846 0.041147567
-0.0026737119 0.040638518 -0.02017975 -0.023792023 0.05884965 -0.031925373 0.0077542826 -0.026160745
0.020154623 -0.025151603 -0.0016565328 -0.017063973 0.048418082 0.011437475 -0.012465626 0.05081861
-0.047168918 -0.00597145 0.012799464 0.002555525 0.02753677 0.020733679 0.035421785 0.025605833
0.036522865 0.010151097 -0.0090838615 -0.0016673013 -0.01911673 -0.058032215 -0.00514554 0.050015498
0.015592072 0.026604777 -0.02530192 0.045802988 0.0022660324 -0.009792785 -0.010029967 -0.027327055
-0.052042298 0.0031342292 0.027678419 0.02187786 0.020423127 -0.01560577 -0.046566464 0.02232253
0.01958944 -0.037575856 0.013168888 0.049571972 -0.0023225583 0.048352305 -0.035090018 0.038732406
0.04456317 -0.036583655 0.044543304 0.035864532 0.014209873 0.020022247 0.014980029 -0.04989428
1.0158323 -0.020070069 0.04801211 0.035869632 0.056593917 0.040962957 -0.050271947 -0.013310628
0.041980747 0.058347765 -0.03598795 0.042106565 -0.049693074 -0.016410107 -0.044172898 -0.016918272
-0.0019449646 0.040943548 -0.04562326 -0.01482141 0.044663057 0.028651617 0.033437934 0.0059360885
0.03370558 0.042037077 -0.031812463 0.03808935 0.057090174 -0.0042306865 -0.023344029 -0.033760756
0.051362153 0.058263753 0.05582435 -0.008443201 0.009157956 -0.05047615 0.024744675 -0.00040272015
0.048977453 0.051143136 -0.020437077 0.037474997 0.03160574 0.04474516 0.04679082 -0.057334296
-0.024569668 -0.018572964 -0.0073273913 0.0061837016 0.009804397 -0.013383781 0.007830898 -0.015244712
-0.02641327 -0.035896197 0.0059937667 0.008894256 -0.008896399 -0.034841318 0.005942298 0.016713804
-0.0051330295 -0.03224303 0.046532206 -0.04554085 -0.017586285 0.007841786 -0.015304638 -0.012253409
-0.053271797 -0.04172777 -0.05735936 -0.00869068 0.0031597211 0.03498934 0.038188692 0.020685097
0.028385377 0.0343854 0.020072212 0.03838865 -0.0106089795 0.05586444 0.02438066 0.04516313
0.018070834 0.024440017 0.044432845 -0.008771202 0.054504227 -0.021382656 0.058233943 0.033551827
0.04303626 -0.020523766 0.034266096 -0.0051800446 0.04264192 -0.048385244 -0.009165893 -0.03135939
0.030741883 -0.010682231 0.016273713 -0.009000192 0.048302215 -0.0046349242 -0.04172114 -0.008477494
-0.019781047 0.033805143 0.050697137 0.030187948 -0.058705643 -0.019305877 -0.039279684 0.012077032
0.058543667 -0.037440725 0.032233797 0.011515123 0.0077855205 0.048285495 -0.025883462 -0.036962617
00000000: 46b0 6fbd f62b 563d 5c34 7dbc a71e ea3c
00000010: 3ba7 15bd 48b8 4dbc 2b78 fc3c 3a43 0bbd
00000020: 9bfc 513d c745 973c 9655 6ebd 4b42 5bbd
00000030: d398 5ebc bf1b 4cbd a8a3 87bc b668 f3bc
00000040: 9c85 cebc 5367 8b3c 55e7 423d 8768 ea3c
00000050: 0ae9 523d 0c75 463d 80d2 b63c 7f51 1abc
00000060: 7fb7 52bd fe2b 7d3b e293 cebc 0313 1cbd
00000070: 9fbf 063d 66be 963c 60c2 083d 9d60 153d
00000080: 837d 92bc 5557 363d e47b 583d 907c 82bc
00000090: e891 2ebd df07 a93a b5cf ea3c 066a 0b3d
000000a0: 9331 303d 9b67 11bd b505 1c3d 0db8 6bbd
000000b0: a3b8 4abd a09f 13bd 6c6f 783c 5d61 593c
000000c0: 1243 5b3d aa1b e53c ed40 943c 1b67 fa3c
000000d0: f420 aeb9 fb01 123d 9fa1 6b3d 69b4 abbb
000000e0: ef36 3fbd 425f 5abd dab0 8c3c 96bc 82bc
000000f0: 64d6 5d3d e128 2dbd ffa8 cfbb 5a8a 283d
00000100: 7139 2fbb 9374 263d 0150 a5bc 7de7 c2bc
00000110: 550c 713d 2ec4 02bd a317 fe3b 0f4f d6bc
00000120: 4f1b a53c bc0a cebc 0420 d9ba bfc9 8bbc
00000130: 0a52 463d 3f64 3b3c a03c 4cbc 2d27 503d
00000140: 3234 41bd 27ac c3bb d8b4 513c 987a 273b
00000150: cb94 e13c add9 a93c 6f16 113d 53c3 d13c
00000160: 0099 153d c950 263c 7ad4 14bc 5989 daba
00000170: b09a 9cbc 30b3 6dbd eb9b a8bb 0ddd 4c3d
00000180: e475 7f3c 43f2 d93c f945 cfbc ea9b 3b3d
00000190: b781 143b eb71 20bc bb54 24bc fddc dfbc
000001a0: 4e2a 55bd a467 4d3b dabd e23c 3339 b33c
000001b0: 674e a73c 58af 7fbc 7abc 3ebd bddd b63c
000001c0: 097a a03c 24e9 19bd 52c2 573c fb0b 4b3d
000001d0: 1036 18bb 110d 463d 8dba 0fbd dfa5 1e3d
000001e0: df87 363d bed8 15bd 0a73 363d b0e6 123d
000001f0: 87d0 683c b205 a43c cc6e 753c f25d 4cbd
00000200: cb06 823f fc69 a4bc 59a8 443d 09ec 123d
00000210: 06cf 673d c6c8 273d f5e9 4dbd d214 5abc
00000220: 01f4 2b3d 11fe 6e3d 1a68 13bd ef77 2c3d
00000230: f78a 4bbd 7d6e 86bc a4ee 34bd 3098 8abc
00000240: 2fee feba 6cb4 273d 75df 3abd 80d5 72bc
00000250: 9cf0 363d ccb6 ea3c 37f6 083d 8583 c23b
00000260: dd0e 0a3d 122f 2c3d c94d 02bd 9403 1c3d
00000270: 63d7 693d 92a1 8abb fa3b bfbc b848 0abd
00000280: 1f61 523d f9a5 6e3d 13a8 643d 5a55 0abc
00000290: 400b 163c 14c0 4ebd 58b5 ca3c 2f24 d3b9
000002a0: 959c 483d 777b 513d a86b a7bc 627f 193d
000002b0: 0575 013d b346 373d bba7 3f3d 5ed7 6abd
000002c0: 5446 c9bc 5426 98bc 9d1a f0bb a6a0 ca3b
000002d0: 9fa2 203c a547 5bbc 2b4d 003c f5c4 79bc
000002e0: a460 d8bc e407 13bd 5c67 c43b 37b9 113c
000002f0: 34c2 11bc c5b5 0ebd 9cb7 c23b 63eb 883c
00000300: f932 a8bb 4411 04bd 8e98 3e3d 0b89 3abd
00000310: 1d11 90bc d67a 003c 4ec0 7abc 86c2 48bc
00000320: 8733 5abd bdea 2abd a6f1 6abd 5b63 0ebc
00000330: 5313 4f3b fb50 0f3d bf6b 1c3d cb73 a93c
00000340: 7388 e83c b5d7 0c3d 7b6e a43c 6b3d 1d3d
00000350: 49d1 2dbc 1cd2 643d f3b9 c73c f9fc 383d
00000360: 4909 943c 6e36 c83c 37ff 353d 16b5 0fbc
00000370: d33f 5f3d ae2a afbc b786 6e3d a46d 093d
00000380: ca46 303d 7521 a8bc 9b5a 0c3d 5dbd a9bb
00000390: 4ba9 2e3d 9b2f 46bd 8b2c 16bc b472 00bd
000003a0: 67d6 fb3c 8604 2fbc 7350 853c 8b75 13bc
000003b0: 8bd8 453d 90e0 97bb c9e3 2abd 30e5 0abc
000003c0: dd0b a2bc 4377 0a3d cda7 4f3d b74c f73c
000003d0: 5475 70bd 5c27 9ebc bce3 20bd bede 453c
000003e0: 7ccb 6f3d 725b 19bd 9607 043d eda9 3c3c
000003f0: ae1d ff3b 03c7 453d 8e09 d4bc 1d66 17bd

arith.constant5 f4 [32, 3, 3, 32]
0.009689926 -7.405201e-05 -0.054754727 -0.036521208 -0.023434926 -0.014372146 -0.014643445 0.05831798
-0.053218424 0.05547495 0.03828539 0.033085003 0.047793347 -0.052150473 -0.027749175 0.014436209
0.055739045 0.050146278 -0.025343483 0.04362956 -0.050695382 -0.010428275 0.008235852 -0.054127183
0.058069598 -0.025286332 0.052976396 -0.058830637 0.04991836 -0.055544965 0.0012298591 -0.023461359
0.010033606 -0.02504282 -0.00030409652 0.023681212 -0.0274418 -0.0042817825 -0.041489612 -0.042205404
-0.035183445 0.016285254 -0.02407586 -0.008738833 -0.0022861646 0.022876488 -0.057351902 -0.055421814
-0.035613313 0.027991444 -0.0038926338 -0.05815788 -0.025871372 0.018741678 -0.024653265 -0.004509727
0.037416674 0.04491339 0.01828522 0.01786867 -0.051521096 0.051624697 0.0140744345 -0.04380855
-0.05162847 0.011956745 0.021781787 -0.015875382 0.04683537 0.02145802 0.044042278 -0.034346364
0.01092178 0.013362005 0.0035376518 -0.014618283 0.0028991553 0.058294803 -0.04393977 -0.05761947
0.025588363 0.03999738 0.012705771 0.017709235 0.001212045 -0.04109919 0.013150639 0.019466836
-0.050202087 -0.03561198 -0.046117917 -0.046451993 -0.02872999 -0.009999143 -0.0560207 0.05778009
0.022038503 0.018191682 -0.05396824 0.05588843 -0.04485635 -0.055926185 0.042984392 0.0104842605
-0.025988324 -0.05006261 0.0024617903 -0.020860765 -0.052007236 0.038103152 0.042822815 -0.027936688
-0.0004001773 0.014076647 0.046840787 -0.019891866 -0.046401925 0.0096170185 -0.040109653 0.013800311
-0.013103947 -0.042998426 0.049525294 0.037536692 0.009163343 0.03482394 -0.013969805 0.057484467
1.0335144 0.032058213 0.05779117 -0.0067931097 0.043892324 -0.008668743 0.0126659 -0.04760509
-0.027518576 -0.005881445 0.03212277 -0.018061204 0.04443854 -0.023398448 0.015839305 -0.010467394
-0.03278502 -0.037362393 0.020711826 0.0031956444 0.01669318 -0.039235428 -0.03485094 0.025368849
0.024730977 0.05125486 0.04052074 -0.017485239 0.021205224 -0.033637766 -0.0154744405 0.054112572
-0.028626835 0.012845173 0.019192038 0.011228419 0.00511275 0.056032818 0.040752735 0.03589101
0.0030339197 0.050237224 0.0075614606 0.047107384 0.04131352 0.032794703 -0.053058416 -0.017937608
0.05270126 -0.023804273 0.012514938 0.05596678 0.045353148 0.05447887 -0.049380366 0.007884552
0.043577027 0.02262204 0.011869058 0.05326442 -0.034821346 0.037721224 -0.007840339 -0.02309478
0.0057953675 0.030390583 0.0030409936 -0.008518721 -0.0299021 -0.04561326 -0.02267624 -0.007956644
0.058502045 0.020815922 0.048898913 0.047345676 0.011524662 -0.014958437 -0.031186188 -0.025068495
-0.056005154 0.0098478645 -0.052879255 0.01995359 -0.0054463986 0.047957923 0.039014023 -0.019395951
0.0525282 -0.00033313571 -0.031679608 -0.044270128 -0.042211987 -0.03488907 0.04882574 -0.025356106
-0.026067488 -0.049522083 0.015066389 -0.0006957602 -0.042016715 0.030975215 -0.009712601 -0.025959648
0.040078584 -0.0008010922 0.005620992 -0.0023414823 0.015550227 0.0058363904 -0.029400729 0.03924634
-0.0497928 0.055296294 -0.03791607 -0.011569542 0.032782212 -0.053427305 0.008803303 0.008622037
0.057380814 -0.043797802 -0.006727178 0.023238746 -0.009054421 -0.04531479 0.047498416 -0.045396313
00000000: 7fc2 1e3c 5f4c 9bb8 7e46 60bd 4397 15bd
00000010: 9afa bfbc 2679 6bbc 0feb 6fbc d6de 6e3d
00000020: 90fb 59bd b339 633d 24d1 1c3d 2484 073d
00000030: f5c2 433d bc9b 55bd 3d52 e3bc d985 6c3c
00000040: a04e 643d 2f66 4d3d 239d cfbc e9b4 323d
00000050: f6a5 4fbd 5bdb 2abc abef 063c 77b4 5dbd
00000060: 63da 6d3d 4825 cfbc c7fd 583d 65f8 70bd
00000070: 3277 4c3d 1e83 63bd 3933 a13a 0932 c0bc
00000080: fe63 243c 9a26 cdbc 256f 9fb9 1aff c13c
00000090: a0cd e0bc 324e 8cbb 03f1 29bd 93df 2cbd
000000a0: 841c 10bd a768 853c bd3a c5bc 522d 0fbc
000000b0: 7ad3 15bb 7967 bb3c d4e9 6abd fc01 63bd
000000c0: 44df 11bd 504e e53c 8f1b 7fbb f536 6ebd
000000d0: 33f0 d3bc 2688 993c a5f5 c9bc 55c6 93bb
000000e0: 3a42 193d 1af7 373d e3ca 953c 5161 923c
000000f0: c907 53bd 6b74 533d 7598 663c 9870 33bd
00000100: 6078 53bd 39e6 433c b86f b23c 170d 82bc
00000110: 72d6 3f3d bbc8 af3c ad65 343d c6ae 0cbd
00000120: 44f1 323c 50ec 5a3c f3d7 673b 8681 6fbc
00000130: c1ff 3d3b 88c6 6e3d 30fa 33bd 6502 6cbd
00000140: b09e d13c 4bd4 233d de2b 503c f512 913c
00000150: 7bdd 9e3a a057 28bd c775 573c ea78 9f3c
00000160: b4a0 4dbd dedd 11bd 24e6 3cbd 7244 3ebd
00000170: 285b ebbc 72d3 23bc f675 65bd d1aa 6c3d
00000180: 178a b43c b906 953c cd0d 5dbd 44eb 643d
00000190: 4bbb 37bd db12 65bd 6710 303d 2dc6 2b3c
000001a0: 77e5 d4bc 740e 4dbd fd55 213b 32e4 aabc
000001b0: 8a05 55bd 0d12 1c3d fa66 2f3d 7bdb e4bc
000001c0: e3ce d1b9 bda1 663c 20dc 3f3d 44f4 a2bc
000001d0: f20f 3ebd b390 1d3c 054a 24bd b31a 623c
000001e0: f0b1 56bc 1e1f 30bd 09db 4a3d 13c0 193d
000001f0: d921 163c 8ca3 0e3d 9ce1 64bc d574 6b3d
00000200: 334a 843f 794f 033d 6fb6 6c3d bc98 debb
00000210: 70c8 333d 5807 0ebc a384 4f3c 8efd 42bd
00000220: a36e e1bc 23b9 c0bb 2a93 033d 17f5 93bc
00000230: 3005 363d 1aae bfbc 6ec1 813c 6f7f 2bbc
00000240: 9649 06bd 4f09 19bd d9ab a93c 046e 513b
00000250: 23c0 883c 54b5 20bd dcbf 0ebd 55d2 cf3c
00000260: 9e98 ca3c 9ef0 513d 13f9 253d 343d 8fbc
00000270: 94b6 ad3c c1c7 09bd 8288 7dbc 25a5 5d3d
00000280: d382 eabc 8f74 523c 9f38 9d3c 67f7 373c
00000290: db88 a73b ab82 653d 57ec 263d 7402 133d
000002a0: bad4 463b 8cc5 4d3d 21c6 f73b acf3 403d
000002b0: 5e38 293d bd53 063d c853 59bd e4f1 92bc
000002c0: 47dd 573d 2e01 c3bc 740b 4d3c 6c3d 653d
000002d0: 39c4 393d 3c25 5f3d 1143 4abd 352e 013c
000002e0: d37d 323d db51 b93c 7076 423c cb2b 5a3d
000002f0: d4a0 0ebd 9281 1a3d c474 00bc 4431 bdbc
00000300: 11e7 bd3b acf5 f83c 684b 473b 1b92 0bbc
00000310: 40f5 f4bc f8d4 3abd 86c3 b9bc 955c 02bc
00000320: d79f 6f3d 2786 aa3c 3a4a 483d 8aed 413d
00000330: f0d1 3c3c 3b14 75bc 2d7a ffbc 725c cdbc
00000340: a965 65bd f058 213c eb97 58bd b675 a33c
00000350: b477 b2bb 876f 443d 2bcd 1f3d 42e4 9ebc
00000360: cf27 573d b8a8 aeb9 7ac2 01bd 9854 35bd
00000370: 7ae6 2cbd d7e7 0ebd 80fd 473d 9cb7 cfbc
00000380: 7c8b d5bc abd7 4abd 04d9 763c ad63 36ba
00000390: b819 2cbd bcbf fd3c 9a21 1fbc 54a9 d4bc
000003a0: 7129 243d 6300 52ba 4c30 b83b 8e73 19bb
000003b0: 61c6 7e3c 313f bf3b ccd9 f0bc c5c0 203d
000003c0: 89f3 4bbd 5e7e 623d e24d 1bbd 2d8e 3dbc
000003d0: a446 063d 97d6 5abd bb3b 103c 7243 0d3c
000003e0: 2508 6b3d 5365 33bd a96f dcbb 2f5f be3c
000003f0: ff58 14bc 009c 39bd b38d 423d 7cf1 39bd

model/tf.nn.convolution/convolution f4 [32, 3, 3, 3]
-0.0923874 0.06613696 -0.0830891 -0.08994692 -0.15044056 0.043199528 -0.024743324 0.16551621
0.010658938 -0.14505044 -0.0059850896 -0.03328652 0.8625725 0.19158475 0.1341555 0.16297942
0.054804612 0.0700412 0.17725477 0.04285689 -0.11436814 0.17726684 0.08928638 -0.082605004
-0.18347141 0.096085444 0.10838803 0.09635361 0.13533473 0.1829056 -0.12364773 -0.10235288
-0.07754589 0.07077933 0.12113789 -0.13320334 0.1042936 0.13888106 -0.19087422 0.07391195
1.0056643 -0.15885676 -0.109162636 0.024985956 -0.13933645 -0.18285513 0.093670264 0.084325574
0.113587864 -0.05822898 -0.016465174 0.088237755 0.08866326 0.15949723 0.06878427 0.13964878
-0.16373198 -0.15879928 0.18372832 0.16585504 0.0073366393 0.18209179 0.13485505 -0.028644882
0.020095835 -0.12732555 0.044918194 0.0038329847 0.84542185 0.002997443 -0.1649518 -0.013184056
-0.17096986 0.00022232936 -0.10131006 0.019608274 0.03564361 0.0034716278 -0.013641011 0.17381173
0.08145957 0.0034059682 0.17283815 -0.070378475 -0.13172296 0.15330218 0.08326958 -0.12513013
0.08754285 -0.11698732 -0.025750058 0.15201397 0.06417376 0.003761865 0.022342758 -0.15568109
-0.011303283 -0.12158064 0.11419619 0.017535962 0.15506038 -0.08694994 0.021667717 0.017524352
-0.027284866 -0.096925825 0.13854772 -0.09619554 -0.11745464 0.04565458 0.049148254 -0.17139953
-0.039969847 -0.17126316 -0.006269454 0.16499572 0.020790927 0.11236592 -0.08278863 0.111775346
0.18099432 -0.0072416374 0.17970487 -0.1418172 0.15974632 0.13684197 0.017032709 0.1866867
-0.001737936 -0.11629519 0.18628521 -0.110039264 -0.092490025 0.14232506 -0.18233182 -0.030052202
-0.19125524 0.089188166 0.10091571 -0.04143544 -0.09197528 0.15486358 -0.004299209 -0.004852061
0.14473684 -0.18896562 0.1722523 -0.13985434 0.18520194 0.061138533 -0.069366485 0.044417463
0.042658813 0.11387535 -0.1299483 -0.14915462 0.16745092 0.056095894 0.0971295 -0.12912408
0.16568811 0.1830565 -0.01863804 -0.06978784 -0.078246765 -0.057980724 0.050320424 0.049090717
-0.17117748 0.036457907 -0.16126403 -0.089273624 -0.0073113116 0.116776966 -0.10736542 -0.15905485
0.15692002 0.14709628 -0.03000017 0.0108041605 -0.0036242828 -0.037658524 0.16005908 0.17350967
-0.13094506 0.009673839 -0.006324813 0.13280657 0.047528286 -0.056928154 0.10163959 0.17299262
-0.14075385 -0.18114348 0.15159914 -0.105279155 -0.05282395 0.11640404 -0.05134122 -0.04777335
0.012620971 -0.02594403 -0.0842584 0.028899582 0.04763568 0.16586246 0.14141311 0.015028235
-0.035122875 0.11465998 -0.048405007 0.06462562 0.09573776 0.034325488 0.033406988 0.1912674
0.0563321 0.062276147 0.18283944 0.15248975 0.0036795498 -0.04590937 -0.11803248 0.029910812
-0.03123545 -0.1915076 0.12960781 -0.14185171 0.0095376335 -0.18077987 0.007861664 0.15583271
0.17389466 -0.11992119 -0.08309554 0.018684544 0.035398364 0.086563736 -0.087564774 0.094745986
-0.049723476 -0.14090072 -0.06863542 -0.034294147 -0.11919898 0.17907259 -0.16951229 0.1776091
-0.09191769 -0.06979949 -0.07096218 -0.0110514965 -0.06319637 0.07060441 -0.13569948 0.026086591
00000000: 9b35 bdbd d172 873d 9e2a aabd 1736 b8bd
00000010: 170d 1abe fdf1 303d 83b2 cabc 157d 293e
00000020: d4a2 2e3c 1a88 14be 921e c4bb 7257 08bd
00000030: 8dd1 5c3f cb2e 443e 0f60 093e 14e4 263e
00000040: cd7a 603d c371 8f3d 4682 353e b58a 2f3d
00000050: d839 eabd 7085 353e c7db b63d d02c a9bd
00000060: eedf 3bbe 72c8 c43d 8bfa dd3d 0b55 c53d
00000070: 3095 0a3e 9b4b 3b3e 053b fdbd 639e d1bd
00000080: 61d0 9ebd c1f4 903d 2417 f83d 7566 08be
00000090: e297 d53d d636 0e3e 8874 43be 265f 973d
000000a0: 9cb9 803f 59ab 22be a990 dfbd 59af cc3c
000000b0: 37ae 0ebe 603e 3bbe 32d6 bf3d e3b2 ac3d
000000c0: c1a0 e83d 8381 6ebd f9e1 86bc ffb5 b43d
000000d0: 1595 b53d 3e53 233e c4de 8c3d 1700 0f3e
000000e0: 5ba9 27be 479c 22be 4723 3c3e e7d5 293e
000000f0: 3168 f03b 4576 3a3e 7117 0a3e aca8 eabc
00000100: 05a0 a43c a161 02be 24fc 373d d032 7b3b
00000110: 916d 583f c070 443b 20e9 28be f001 58bc
00000120: b912 2fbe 1521 6939 a67b cfbd 88a1 a03c
00000130: 09ff 113d 4084 633b 8c7e 5fbc b4fb 313e
00000140: 46d4 a63d aa36 5f3b 7cfc 303e 9722 90bd
00000150: 62e2 06be 3ffb 1c3e 3e89 aa3d 1d22 00be
00000160: aa49 b33d 0c97 efbd c9f1 d2bc 8da9 1b3e
00000170: 886d 833d 9f89 763b 2908 b73c dd6a 1fbe
00000180: 6831 39bc 45ff f8bd b1df e93d 94a7 8f3c
00000190: 26c8 1e3e cf12 b2bd 7f80 b13c 3b8f 8f3c
000001a0: 8384 dfbc 0c81 c6bd 74df 0d3e 2b02 c5bd
000001b0: 0f8c f0bd 4c00 3b3d ae4f 493d 5c83 2fbe
000001c0: 6cb7 23bd 9c5f 2fbe fe6f cdbb a3f4 283e
000001d0: bc51 aa3c 1a20 e63d 168d a9bd 79ea e43d
000001e0: 9356 393e 424b edbb 8e04 383e 8738 11be
000001f0: 8a94 233e 4d20 0c3e 2e88 8b3c cc2a 3f3e
00000200: 75cb e3ba 2c2c eebd 8dc1 3e3e 445c e1bd
00000210: 696b bdbd a9bd 113e 31b5 3abe 0930 f6bc
00000220: 6ad8 43be 49a8 b63d e5ac ce3d 35b8 29bd
00000230: 895d bcbd 8f94 1e3e 61e0 8cbb 0afe 9ebb
00000240: e535 143e 3480 41be e862 303e fa35 0fbe
00000250: 94a5 3d3e 666c 7a3d 0410 8ebd 16ef 353d
00000260: 02bb 2e3d 7b37 e93d 2b11 05be fdbb 18be
00000270: 4178 2b3e cfc4 653d d5eb c63d 1a39 04be
00000280: 25aa 293e 2a73 3b3e ceae 98bc edec 8ebd
00000290: d73f a0bd 327d 6dbd ca1c 4e3d 5913 493d
000002a0: 2649 2fbe e354 153d 6622 25be 17d5 b6bd
000002b0: ba93 efbb c328 ef3d 67e2 dbbd 46df 22be
000002c0: a4af 203e 68a0 163e ebc2 f5bc ef03 313c
000002d0: 6085 6dbb d33f 1abd 87e6 233e 85ac 313e
000002e0: 7616 06be 067f 1e3c 6040 cfbb 72fe 073e
000002f0: 05ad 423d 7f2d 69bd 6b28 d03d fa24 313e
00000300: c721 10be ad7d 39be ce3c 1b3e 999c d7bd
00000310: ed5d 58bd 3e65 ee3d 2c4b 52bd fdad 43bd
00000320: 30c8 4e3c 9388 d4bc ab8f acbd d1be ec3c
00000330: a11d 433d d9d7 293e 99ce 103e fc38 763c
00000340: 01dd 0fbd dad2 ea3d 5444 46bd 705a 843d
00000350: 2912 c43d e298 0c3d c4d5 083d 9adb 433e
00000360: 7dbc 663d 4615 7f3d 433a 3b3e 4626 1c3e
00000370: 9a24 713b 770b 3cbd 03bb f1bd 8507 f53c
00000380: 7de1 ffbc 911a 44be e9b7 043e 9341 11be
00000390: bc43 1c3c 5c1e 39be 35ce 003c 9c92 1f3e
000003a0: 7111 323e 3e99 f5bd ff2d aabd 5410 993c
000003b0: e0fd 103d 5448 b13d 2955 b3bd 2f0a c23d
000003c0: d8aa 4bbd 4748 10be ba90 8cbd 0578 0cbd
000003d0: 981e f4bd ce5e 373e a194 2dbe 29df 353e
000003e0: 583f bcbd 09f3 8ebd 9f54 91bd 5611 35bc
000003f0: 196d 81bd 0b99 903d cef4 0abe 8cb3 d53c

model/tf.math.add/Add;model/tf.nn.convolution/convolution;model/tf.math.add/Add/y f4 [32]
-0.003275888 -0.07354061 -0.030147 0.12241749 0.028271915 0.077786736 0.18407705 -0.0005846039
0.16458014 -0.09226941 -0.12979616 -0.09164819 -0.16570175 0.0029661504 -0.06407389 -0.046916887
0.1578898 -0.09396039 0.14300475 -0.10962039 0.13609684 -0.08349274 -0.18309118 0.0586158
-0.1002618 0.16789016 0.1621618 -0.07921927 -0.07877463 0.1500046 0.084657334 0.08585462
00000000: 48b0 56bb 769c 96bd d7f6 f6bc 05b6 fa3d
00000010: 819a e73c a74e 9f3d b27e 3c3e 1b40 19ba
00000020: b287 283e bff7 bcbd 49e9 04be 0cb2 bbbd
00000030: b8ad 29be bf63 423b 2c39 83bd ec2b 40bd
00000040: ddad 213e 4e6e c0bd d66f 123e a880 e0bd
00000050: f85c 0b3e 3efe aabd 417c 3bbe 1f17 703d
00000060: 0f56 cdbd 66eb 2b3e be0d 263e b63d a2bd
00000070: 9854 a1bd ce9a 193e d360 ad3d 8cd4 af3d
