app/src/main/assets/models/qsr_s_1.5x_720p_full_integer_quant.tflite (tflite, 32432 bytes, 4 tensors)

tfl.pseudo_qconst1 i1 [27, 1, 1, 128]
000000 7f 03 08 f5 04 fd 09 fa f7 03 f7 ff 03 0b fe f7
       127 3 8 -11 4 -3 9 -6 -9 3 -9 -1 3 11 -2 -9
000010 09 06 09 fb f5 fd ff fc 05 fb 04 04 07 03 fa 0b
       9 6 9 -5 -11 -3 -1 -4 5 -5 4 4 7 3 -6 11
000020 f6 fe fb 05 01 f9 f7 00 01 07 0b 0a f8 f8 04 0b
       -10 -2 -5 5 1 -7 -9 0 1 7 11 10 -8 -8 4 11
000030 00 f7 06 f5 fa 07 fc fa fc 09 fb 06 08 08 fa 03
       0 -9 6 -11 -6 7 -4 -6 -4 9 -5 6 8 8 -6 3
000040 01 f5 04 fb 01 03 03 f6 08 04 0b 0b 06 f8 08 06
       1 -11 4 -5 1 3 3 -10 8 4 11 11 6 -8 8 6
000050 f8 06 07 05 f5 fe ff 02 09 02 fb f7 08 f9 ff 09
       -8 6 7 5 -11 -2 -1 2 9 2 -5 -9 8 -7 -1 9
000060 fc 0a 02 fa f7 0b ff 08 f6 01 fb 08 07 f5 f9 07
       -4 10 2 -6 -9 11 -1 8 -10 1 -5 8 7 -11 -7 7
000070 02 03 ff fa 08 0a 03 f8 07 f8 00 00 06 04 0b 03
       2 3 -1 -6 8 10 3 -8 7 -8 0 0 6 4 11 3
000080 7f 00 04 06 fd fe 00 01 02 fe 0a 0a 03 fe 06 02
       127 0 4 6 -3 -2 0 1 2 -2 10 10 3 -2 6 2
000090 04 f9 f7 09 03 01 03 ff 03 fa 06 ff fd fc 00 0a
       4 -7 -9 9 3 1 3 -1 3 -6 6 -1 -3 -4 0 10
0000a0 f8 00 08 fc ff 0a 05 06 f9 f9 05 08 fa 09 05 08
       -8 0 8 -4 -1 10 5 6 -7 -7 5 8 -6 9 5 8
0000b0 01 0a 04 08 0a 04 0a 00 01 02 04 02 05 03 f8 f6
       1 10 4 8 10 4 10 0 1 2 4 2 5 3 -8 -10
0000c0 fb fa f7 00 fa 0a 0a f8 07 fd f9 03 f9 fb 0a 08
       -5 -6 -9 0 -6 10 10 -8 7 -3 -7 3 -7 -5 10 8
0000d0 02 fe f9 fa f6 fe fa 02 fc 05 00 06 f9 f9 fa fc
       2 -2 -7 -6 -10 -2 -6 2 -4 5 0 6 -7 -7 -6 -4
0000e0 04 fe 01 fb f7 09 fc ff fa f8 09 04 fd 0a 03 fa
       4 -2 1 -5 -9 9 -4 -1 -6 -8 9 4 -3 10 3 -6
0000f0 fc 04 f8 fa 03 f8 02 ff f6 ff fb f9 ff fc 02 fb
       -4 4 -8 -6 3 -8 2 -1 -10 -1 -5 -7 -1 -4 2 -5

tfl.pseudo_qconst3 i1 [32, 3, 3, 32]
000000 f9 07 fe 04 fb fe 04 fc 06 02 f9 f9 fe fa fe fc
       -7 7 -2 4 -5 -2 4 -4 6 2 -7 -7 -2 -6 -2 -4
000010 fd 02 06 04 06 06 03 ff fa 00 fd fb 04 02 04 05
       -3 2 6 4 6 6 3 -1 -6 0 -3 -5 4 2 4 5
000020 fe 06 07 fe fb 00 04 04 05 fc 05 f9 fa fb 02 02
       -2 6 7 -2 -5 0 4 4 5 -4 5 -7 -6 -5 2 2
000030 07 03 02 04 00 04 07 ff fa f9 02 fe 07 fb ff 05
       7 3 2 4 0 4 7 -1 -6 -7 2 -2 7 -5 -1 5
000040 00 05 fd fd 07 fc 01 fd 03 fd 00 fe 06 01 fe 06
       0 5 -3 -3 7 -4 1 -3 3 -3 0 -2 6 1 -2 6
000050 fa ff 02 00 03 03 04 03 05 01 ff 00 fe f9 ff 06
       -6 -1 2 0 3 3 4 3 5 1 -1 0 -2 -7 -1 6
000060 02 03 fd 06 00 ff ff fd f9 00 03 03 03 fe fa 03
       2 3 -3 6 0 -1 -1 -3 -7 0 3 3 3 -2 -6 3
000070 02 fb 02 06 00 06 fc 05 06 fb 06 04 02 03 02 fa
       2 -5 2 6 0 6 -4 5 6 -5 6 4 2 3 2 -6
000080 7f fd 06 04 07 05 fa fe 05 07 fc 05 fa fe fa fe
       127 -3 6 4 7 5 -6 -2 5 7 -4 5 -6 -2 -6 -2
000090 00 05 fa fe 06 04 04 01 04 05 fc 05 07 ff fd fc
       0 5 -6 -2 6 4 4 1 4 5 -4 5 7 -1 -3 -4
0000a0 06 07 07 ff 01 fa 03 00 06 06 fd 05 04 06 06 f9
       6 7 7 -1 1 -6 3 0 6 6 -3 5 4 6 6 -7
0000b0 fd fe ff 01 01 fe 01 fe fd fc 01 01 ff fc 01 02
       -3 -2 -1 1 1 -2 1 -2 -3 -4 1 1 -1 -4 1 2
0000c0 ff fc 06 fa fe 01 fe fe f9 fb f9 ff 00 04 05 03
       -1 -4 6 -6 -2 1 -2 -2 -7 -5 -7 -1 0 4 5 3
0000d0 04 04 03 05 ff 07 03 06 02 03 06 ff 07 fd 07 04
       4 4 3 5 -1 7 3 6 2 3 6 -1 7 -3 7 4
0000e0 05 fd 04 ff 05 fa ff fc 04 ff 02 ff 06 ff fb ff
       5 -3 4 -1 5 -6 -1 -4 4 -1 2 -1 6 -1 -5 -1
0000f0 fe 04 06 04 f9 fe fb 02 07 fb 04 01 01 06 fd fb
       -2 4 6 4 -7 -2 -5 2 7 -5 4 1 1 6 -3 -5

tfl.pseudo_qconst5 i1 [32, 3, 3, 32]
000000 01 00 f9 fc fd fe fe 07 f9 07 05 04 06 fa fd 02
       1 0 -7 -4 -3 -2 -2 7 -7 7 5 4 6 -6 -3 2
000010 07 06 fd 05 fa ff 01 f9 07 fd 07 f9 06 f9 00 fd
       7 6 -3 5 -6 -1 1 -7 7 -3 7 -7 6 -7 0 -3
000020 01 fd 00 03 fd ff fb fb fc 02 fd ff 00 03 f9 f9
       1 -3 0 3 -3 -1 -5 -5 -4 2 -3 -1 0 3 -7 -7
000030 fc 03 00 f9 fd 02 fd ff 05 06 02 02 fa 06 02 fb
       -4 3 0 -7 -3 2 -3 -1 5 6 2 2 -6 6 2 -5
000040 fa 01 03 fe 06 03 05 fc 01 02 00 fe 00 07 fb f9
       -6 1 3 -2 6 3 5 -4 1 2 0 -2 0 7 -5 -7
000050 03 05 02 02 00 fb 02 02 fa fc fa fa fc ff f9 07
       3 5 2 2 0 -5 2 2 -6 -4 -6 -6 -4 -1 -7 7
000060 03 02 f9 07 fa f9 05 01 fd fa 00 fd fa 05 05 fd
       3 2 -7 7 -6 -7 5 1 -3 -6 0 -3 -6 5 5 -3
000070 00 02 06 fe fa 01 fb 02 fe fb 06 05 01 04 fe 07
       0 2 6 -2 -6 1 -5 2 -2 -5 6 5 1 4 -2 7
000080 7f 04 07 ff 05 ff 02 fa fd ff 04 fe 05 fd 02 ff
       127 4 7 -1 5 -1 2 -6 -3 -1 4 -2 5 -3 2 -1
000090 fc fb 03 00 02 fb fc 03 03 06 05 fe 03 fc fe 07
       -4 -5 3 0 2 -5 -4 3 3 6 5 -2 3 -4 -2 7
0000a0 fc 02 02 01 01 07 05 04 00 06 01 06 05 04 f9 fe
       -4 2 2 1 1 7 5 4 0 6 1 6 5 4 -7 -2
0000b0 06 fd 02 07 06 07 fa 01 05 03 01 07 fc 05 ff fd
       6 -3 2 7 6 7 -6 1 5 3 1 7 -4 5 -1 -3
0000c0 01 04 00 ff fc fa fd ff 07 03 06 06 01 fe fc fd
       1 4 0 -1 -4 -6 -3 -1 7 3 6 6 1 -2 -4 -3
0000d0 f9 01 fa 02 ff 06 05 fe 06 00 fc fb fb fc 06 fd
       -7 1 -6 2 -1 6 5 -2 6 0 -4 -5 -5 -4 6 -3
0000e0 fd fa 02 00 fb 04 ff fd 05 00 01 00 02 01 fc 05
       -3 -6 2 0 -5 4 -1 -3 5 0 1 0 2 1 -4 5
0000f0 fa 07 fb ff 04 f9 01 01 07 fb ff 03 ff fa 06 fa
       -6 7 -5 -1 4 -7 1 1 7 -5 -1 3 -1 -6 6 -6

tfl.pseudo_qconst11 i1 [32, 3, 3, 3]
000000 f2 0a f4 f3 ea 06 fc 18 02 eb ff fb 7f 1c 14 18
       -14 10 -12 -13 -22 6 -4 24 2 -21 -1 -5 127 28 20 24
000010 08 0a 1a 06 ef 1a 0d f4 e5 0e 10 0c 11 17 f0 f3
       8 10 26 6 -17 26 13 -12 -27 14 16 12 17 23 -16 -13
000020 f6 09 0f ef 0d 12 e8 09 7f ec f2 03 ee e9 0c 0b
       -10 9 15 -17 13 18 -24 9 127 -20 -14 3 -18 -23 12 11
000030 0e f9 fe 0b 0b 14 0a 15 e7 e8 1c 19 01 1b 14 fc
       14 -7 -2 11 11 20 10 21 -25 -24 28 25 1 27 20 -4
000040 03 ed 07 01 7f 00 e7 fe e6 00 f1 03 05 01 fe 1a
       3 -19 7 1 127 0 -25 -2 -26 0 -15 3 5 1 -2 26
000050 0c 03 7f cc 9f 71 3d a4 40 aa ed 70 2f 03 10 8e
       12 3 127 -52 -97 113 61 -92 64 -86 -19 112 47 3 16 -114
000060 f8 a7 54 0d 72 c0 10 0d ec b9 66 b9 b0 1f 21 8b
       -8 -89 84 13 114 -64 16 13 -20 -71 102 -71 -80 31 33 -117
000070 e5 8b fc 70 0e 4c c8 4c 7b fb 7a a0 6d 5d 0c 7f
       -27 -117 -4 112 14 76 -56 76 123 -5 122 -96 109 93 12 127
000080 ff b1 7f b5 c1 61 84 ec 81 3b 43 e4 c3 67 fd fd
       -1 -79 127 -75 -63 97 -124 -20 -127 59 67 -28 -61 103 -3 -3
000090 60 83 72 a3 7b 29 d2 1d 1c 4c aa 9d 6f 25 40 aa
       96 -125 114 -93 123 41 -46 29 28 76 -86 -99 111 37 64 -86
0000a0 6e 7a f2 cd c7 d6 25 24 83 1b 8a bf fb 55 b1 8c
       110 122 -14 -51 -57 -42 37 36 -125 27 -118 -65 -5 85 -79 -116
0000b0 73 6c ea 08 fd e4 75 7f a0 07 fb 61 23 da 43 73
       115 108 -22 8 -3 -28 117 127 -96 7 -5 97 35 -38 67 115
0000c0 a3 88 65 ba dd 4d de e0 08 ef c8 13 20 6e 5e 0a
       -93 -120 101 -70 -35 77 -34 -32 8 -17 -56 19 32 110 94 10
0000d0 e9 4c e0 2b 40 17 16 7f 25 29 79 65 02 e2 b2 14
       -23 76 -32 43 64 23 22 127 37 41 121 101 2 -30 -78 20
0000e0 eb 81 56 a2 06 88 05 67 73 b0 c9 0c 17 39 c6 3f
       -21 -127 86 -94 6 -120 5 103 115 -80 -55 12 23 57 -58 63
0000f0 df a3 d2 e9 b1 77 90 76 c3 d2 d1 f9 d6 2f a6 11
       -33 -93 -46 -23 -79 119 -112 118 -61 -46 -47 -7 -42 47 -90 17
