app/src/main/assets/models/qsr_s_3x_720p_full_integer_quant_with_int16_act.tflite (tflite, 38416 bytes, 4 tensors)

arith.constant3 i1 [27, 3, 3, 32]
00000000: 1003 fdf2 0802 07ff f90d f500 ffff 0e03
00000010: 02ff 0300 0704 fdfb fbfd f7fc 0000 02f6
00000020: 0e02 04ff f700 fff1 1021 e50e fe0f 12ff
00000030: f202 06f9 0ff8 10fe 05ee eb02 0a02 f308
00000040: fb00 fe00 04fe 01ff 01fa 0cfe 0100 fffe
00000050: 0601 0304 01ff fcfe fe01 ffff fc00 01fd
00000060: 0aff 03ef 0604 f700 0e0c f6fa 2908 09e2
00000070: 3903 0902 fc0c ffdd eff7 07fd 12ec f9f8
00000080: 7f00 f9fd eefa f0f2 f8f3 0dee 0405 dc0b
00000090: f725 d5f3 f7fe 1009 08fd 19fd 13eb 2708
000000a0: fafe 0010 0602 ff00 00ea 0806 0000 0300
000000b0: 05fd 0e07 0001 fd08 fdff f800 f501 fbfc
000000c0: fc03 0201 0004 0300 0100 ff01 00fd 0206
000000d0: f7fe 0200 01f9 0001 0004 fe02 fbfd ffff
000000e0: f9fb fe12 0004 05ff 02f6 02fd fffd fdfd
000000f0: ff03 06fe 0300 0108 0105 fd00 f100 fe00
16 3 -3 -14 8 2 7 -1
-7 13 -11 0 -1 -1 14 3
2 -1 3 0 7 4 -3 -5
-5 -3 -9 -4 0 0 2 -10
14 2 4 -1 -9 0 -1 -15
16 33 -27 14 -2 15 18 -1
-14 2 6 -7 15 -8 16 -2
5 -18 -21 2 10 2 -13 8
-5 0 -2 0 4 -2 1 -1
1 -6 12 -2 1 0 -1 -2
6 1 3 4 1 -1 -4 -2
-2 1 -1 -1 -4 0 1 -3
10 -1 3 -17 6 4 -9 0
14 12 -10 -6 41 8 9 -30
57 3 9 2 -4 12 -1 -35
-17 -9 7 -3 18 -20 -7 -8
127 0 -7 -3 -18 -6 -16 -14
-8 -13 13 -18 4 5 -36 11
-9 37 -43 -13 -9 -2 16 9
8 -3 25 -3 19 -21 39 8
-6 -2 0 16 6 2 -1 0
0 -22 8 6 0 0 3 0
5 -3 14 7 0 1 -3 8
-3 -1 -8 0 -11 1 -5 -4
-4 3 2 1 0 4 3 0
1 0 -1 1 0 -3 2 6
-9 -2 2 0 1 -7 0 1
0 4 -2 2 -5 -3 -1 -1
-7 -5 -2 18 0 4 5 -1
2 -10 2 -3 -1 -3 -3 -3
-1 3 6 -2 3 0 1 8
1 5 -3 0 -15 0 -2 0

arith.constant4 i1 [32, 3, 3, 32]
00000000: 0204 fc00 00ff 0001 fd02 0000 0001 00fe
00000010: 0100 0100 0000 ff01 00ff fe00 0201 0000
00000020: fffe 04ff 0100 00ff fefe ff02 0000 0100
00000030: 0000 fb01 0101 0002 fe02 0001 ff00 0000
00000040: 01fe 0000 0001 00ff ff00 00ff 0000 0100
00000050: ff00 00ff 0001 0000 ff00 0000 0101 ff00
00000060: 01fd 0301 00ff fe00 02fe 0001 0000 fd00
00000070: 0002 0200 0000 00fc ff02 03ff 0300 ff00
00000080: 7f03 f800 fcfe 0102 0009 fffb 0102 05fe
00000090: 0300 00ff 0000 0004 02fc fe00 00fd 0000
000000a0: 0501 0300 0001 00ff 00ff 0101 ff00 fe01
000000b0: ff00 0000 0000 0000 fe00 0000 0201 ff00
000000c0: ffff ffff 0000 ff00 0002 01ff ff00 00ff
000000d0: 0100 0201 0000 0000 ff00 0100 ff00 0000
000000e0: 0403 0200 0001 0101 03fb ff04 0200 0000
000000f0: ff02 fe01 ff00 00ff fe02 ffff ff02 0101
2 4 -4 0 0 -1 0 1
-3 2 0 0 0 1 0 -2
1 0 1 0 0 0 -1 1
0 -1 -2 0 2 1 0 0
-1 -2 4 -1 1 0 0 -1
-2 -2 -1 2 0 0 1 0
0 0 -5 1 1 1 0 2
-2 2 0 1 -1 0 0 0
1 -2 0 0 0 1 0 -1
-1 0 0 -1 0 0 1 0
-1 0 0 -1 0 1 0 0
-1 0 0 0 1 1 -1 0
1 -3 3 1 0 -1 -2 0
2 -2 0 1 0 0 -3 0
0 2 2 0 0 0 0 -4
-1 2 3 -1 3 0 -1 0
127 3 -8 0 -4 -2 1 2
0 9 -1 -5 1 2 5 -2
3 0 0 -1 0 0 0 4
2 -4 -2 0 0 -3 0 0
5 1 3 0 0 1 0 -1
0 -1 1 1 -1 0 -2 1
-1 0 0 0 0 0 0 0
-2 0 0 0 2 1 -1 0
-1 -1 -1 -1 0 0 -1 0
0 2 1 -1 -1 0 0 -1
1 0 2 1 0 0 0 0
-1 0 1 0 -1 0 0 0
4 3 2 0 0 1 1 1
3 -5 -1 4 2 0 0 0
-1 2 -2 1 -1 0 0 -1
-2 2 -1 -1 -1 2 1 1

arith.constant5 i1 [32, 3, 3, 32]
00000000: 0601 feff 0000 ff00 0004 0100 fdff 0000
00000010: ff00 ffff 0100 00ff 00ff f601 0200 01ff
00000020: faff 0300 ffff 01ff fe00 fd00 03ff 01ff
00000030: 0100 0001 00f9 ff01 00fe 0400 ff00 ff02
00000040: fcfc fe00 0002 0001 00fb 0000 0200 0000
00000050: 0000 01ff 0005 01ff 0101 0500 0000 00ff
00000060: ff06 0902 0001 01fd 02fd 01ff 0000 0100
00000070: 0200 fe00 0009 00ff ffff 02ff fd02 fe02
00000080: 7f04 0200 0100 0102 0004 0102 b800 fe02
00000090: ff00 ff00 01f6 0302 0003 0a01 02ff 02fe
000000a0: 0508 fa01 0000 fe02 0208 00ff fd00 ff00
000000b0: 0201 0201 0102 ffff 00ff f400 fe00 ff01
000000c0: 0400 fa00 ff00 fe00 00fd 0101 fe00 0000
000000d0: 0001 00ff 0001 0000 0001 ff00 0100 0200
000000e0: fe05 03ff 00ff 0100 fe00 01fe 0000 0301
000000f0: 0000 0100 ff00 fe00 ffff 0200 ff00 feff
6 1 -2 -1 0 0 -1 0
0 4 1 0 -3 -1 0 0
-1 0 -1 -1 1 0 0 -1
0 -1 -10 1 2 0 1 -1
-6 -1 3 0 -1 -1 1 -1
-2 0 -3 0 3 -1 1 -1
1 0 0 1 0 -7 -1 1
0 -2 4 0 -1 0 -1 2
-4 -4 -2 0 0 2 0 1
0 -5 0 0 2 0 0 0
0 0 1 -1 0 5 1 -1
1 1 5 0 0 0 0 -1
-1 6 9 2 0 1 1 -3
2 -3 1 -1 0 0 1 0
2 0 -2 0 0 9 0 -1
-1 -1 2 -1 -3 2 -2 2
127 4 2 0 1 0 1 2
0 4 1 2 -72 0 -2 2
-1 0 -1 0 1 -10 3 2
0 3 10 1 2 -1 2 -2
5 8 -6 1 0 0 -2 2
2 8 0 -1 -3 0 -1 0
2 1 2 1 1 2 -1 -1
0 -1 -12 0 -2 0 -1 1
4 0 -6 0 -1 0 -2 0
0 -3 1 1 -2 0 0 0
0 1 0 -1 0 1 0 0
0 1 -1 0 1 0 2 0
-2 5 3 -1 0 -1 1 0
-2 0 1 -2 0 0 3 1
0 0 1 0 -1 0 -2 0
-1 -1 2 0 -1 0 -2 -1

model/tf.nn.convolution/convolution i1 [32, 3, 3, 3]
00000000: f7f5 0e0a 0aed 0506 0206 feeb 7ff9 0ef3
00000010: f005 f806 0a03 eefc 020d fb0b f805 ef07
00000020: 0afe fafa fe03 0300 7fed 0704 00fa 06f8
00000030: ffff ff09 f304 fc09 ff01 fcf9 fd00 0afd
00000040: fafb 040a 7f08 f6f5 08fc 09f8 fafa 000c
00000050: fcf2 00f3 1718 23f4 e7f4 3207 2e81 a685
00000060: 2309 23ed fef1 2c0c 14ea 0bea 0a09 04e9
00000070: 07fc 9781 eb01 01fb 7c6d 2002 00f1 fbfc
00000080: 06f2 05f9 0900 0afc fa81 03fc 0dfe 05fe
00000090: 0304 04ff 0504 02fd 01fe ff06 03fe 05ff
000000a0: 02fd ae8a b91c 13f6 f5f8 057b 7f7f df10
000000b0: d418 fc01 cee0 f110 0e0f fcf8 f605 0402
000000c0: f5ee 01cb ea16 0b05 f9b2 da18 7f42 d6f6
000000d0: fbfe 13fc 04f6 0900 0301 05f9 05fc 07fe
000000e0: 02f9 f5f9 3177 32fa 0604 0509 02d5 81d4
000000f0: 01ff fa02 12ca c207 7ff4 04df 04f9 fc6e
-9 -11 14 10 10 -19 5 6
2 6 -2 -21 127 -7 14 -13
-16 5 -8 6 10 3 -18 -4
2 13 -5 11 -8 5 -17 7
10 -2 -6 -6 -2 3 3 0
127 -19 7 4 0 -6 6 -8
-1 -1 -1 9 -13 4 -4 9
-1 1 -4 -7 -3 0 10 -3
-6 -5 4 10 127 8 -10 -11
8 -4 9 -8 -6 -6 0 12
-4 -14 0 -13 23 24 35 -12
-25 -12 50 7 46 -127 -90 -123
35 9 35 -19 -2 -15 44 12
20 -22 11 -22 10 9 4 -23
7 -4 -105 -127 -21 1 1 -5
124 109 32 2 0 -15 -5 -4
6 -14 5 -7 9 0 10 -4
-6 -127 3 -4 13 -2 5 -2
3 4 4 -1 5 4 2 -3
1 -2 -1 6 3 -2 5 -1
2 -3 -82 -118 -71 28 19 -10
-11 -8 5 123 127 127 -33 16
-44 24 -4 1 -50 -32 -15 16
14 15 -4 -8 -10 5 4 2
-11 -18 1 -53 -22 22 11 5
-7 -78 -38 24 127 66 -42 -10
-5 -2 19 -4 4 -10 9 0
3 1 5 -7 5 -4 7 -2
2 -7 -11 -7 49 119 50 -6
6 4 5 9 2 -43 -127 -44
1 -1 -6 2 18 -54 -62 7
127 -12 4 -33 4 -7 -4 110
