app/src/main/assets/models/qsr_s_2x_720p_full_integer_quant.tflite (tflite, 31192 bytes, 4 tensors)

tfl.pseudo_qconst1 i1 [12, 3, 3, 32]
0	0x07	7
1	0xff	-1
2	0x04	4
3	0xff	-1
4	0x02	2
5	0xfe	-2
6	0xfc	-4
7	0x00	0
8	0x04	4
9	0x04	4
10	0xfe	-2
11	0x06	6
12	0xfc	-4
13	0x02	2
14	0x00	0
15	0x04	4
16	0xf3	-13
17	0xf9	-7
18	0x00	0
19	0xff	-1
20	0x00	0
21	0xff	-1
22	0x08	8
23	0x00	0
24	0x02	2
25	0x01	1
26	0xf8	-8
27	0xff	-1
28	0x03	3
29	0xfc	-4
30	0xff	-1
31	0x00	0
32	0x0c	12
33	0x00	0
34	0xfb	-5
35	0x01	1
36	0x00	0
37	0x02	2
38	0x03	3
39	0x00	0
40	0xf7	-9
41	0xfc	-4
42	0x07	7
43	0xff	-1
44	0x03	3
45	0xfd	-3
46	0x07	7
47	0x0a	10
48	0xe5	-27
49	0x0c	12
50	0x00	0
51	0x06	6
52	0xfd	-3
53	0x0d	13
54	0xfe	-2
55	0x02	2
56	0x08	8
57	0xf9	-7
58	0x00	0
59	0x03	3
60	0xf5	-11
61	0xf3	-13
62	0xf9	-7
63	0x04	4
64	0xfb	-5
65	0x00	0
66	0x03	3
67	0x01	1
68	0x00	0
69	0xff	-1
70	0xff	-1
71	0xff	-1
72	0x04	4
73	0xfe	-2
74	0x00	0
75	0xff	-1
76	0xff	-1
77	0x01	1
78	0x00	0
79	0x00	0
80	0x06	6
81	0xfe	-2
82	0x00	0
83	0xfd	-3
84	0xff	-1
85	0xfc	-4
86	0x01	1
87	0x00	0
88	0x00	0
89	0x01	1
90	0xff	-1
91	0x00	0
92	0x02	2
93	0x00	0
94	0x00	0
95	0xff	-1
96	0x09	9
97	0x01	1
98	0xff	-1
99	0xff	-1
100	0xfa	-6
101	0x00	0
102	0xf6	-10
103	0x01	1
104	0xff	-1
105	0xfc	-4
106	0x0c	12
107	0xfa	-6
108	0x02	2
109	0xfd	-3
110	0x02	2
111	0x0b	11
112	0xe9	-23
113	0xfa	-6
114	0xfc	-4
115	0x02	2
116	0xfd	-3
117	0x00	0
118	0x00	0
119	0x00	0
120	0xff	-1
121	0x01	1
122	0xfd	-3
123	0x02	2
124	0x03	3
125	0x06	6
126	0x13	19
127	0x00	0
128	0x7f	127
129	0x07	7
130	0x01	1
131	0x07	7
132	0xf4	-12
133	0xf0	-16
134	0x03	3
135	0xee	-18
136	0xf1	-15
137	0x14	20
138	0xff	-1
139	0xf6	-10
140	0x10	16
141	0x13	19
142	0x12	18
143	0xf7	-9
144	0x0d	13
145	0x0a	10
146	0xfd	-3
147	0x0c	12
148	0x16	22
149	0x09	9
150	0xf4	-12
151	0x16	22
152	0xeb	-21
153	0x16	22
154	0xf8	-8
155	0xf8	-8
156	0xf3	-13
157	0x0b	11
158	0xfd	-3
159	0xfb	-5
160	0xfa	-6
161	0xfb	-5
162	0x01	1
163	0x08	8
164	0x06	6
165	0x08	8
166	0xfe	-2
167	0x05	5
168	0x07	7
169	0xf9	-7
170	0xfa	-6
171	0x01	1
172	0xfa	-6
173	0xf7	-9
174	0x01	1
175	0xf9	-7
176	0x17	23
177	0xf8	-8
178	0x00	0
179	0xf8	-8
180	0x00	0
181	0xf2	-14
182	0x02	2
183	0xff	-1
184	0x00	0
185	0xfd	-3
186	0x00	0
187	0x00	0
188	0x04	4
189	0x00	0
190	0x04	4
191	0x00	0
192	0xfd	-3
193	0x01	1
194	0xff	-1
195	0xff	-1
196	0x01	1
197	0x00	0
198	0x01	1
199	0x00	0
200	0x01	1
201	0x01	1
202	0xfe	-2
203	0x06	6
204	0x00	0
205	0x01	1
206	0x01	1
207	0xfe	-2
208	0x02	2
209	0x00	0
210	0x05	5
211	0x01	1
212	0x02	2
213	0x01	1
214	0xff	-1
215	0xff	-1
216	0xff	-1
217	0xff	-1
218	0x02	2
219	0x00	0
220	0x00	0
221	0xfe	-2
222	0xfb	-5
223	0x00	0
224	0xf8	-8
225	0xfc	-4
226	0xfe	-2
227	0xff	-1
228	0xff	-1
229	0x07	7
230	0xff	-1
231	0xff	-1
232	0xff	-1
233	0xfd	-3
234	0xfa	-6
235	0x07	7
236	0x00	0
237	0xfe	-2
238	0xf5	-11
239	0xfd	-3
240	0x0b	11
241	0x02	2
242	0x09	9
243	0x00	0
244	0xff	-1
245	0x01	1
246	0x06	6
247	0xfc	-4
248	0x02	2
249	0xf5	-11
250	0x04	4
251	0xec	-20
252	0x00	0
253	0xfc	-4
254	0xf7	-9
255	0x04	4

tfl.pseudo_qconst3 i1 [32, 3, 3, 32]
0	0x02	2
1	0xfa	-6
2	0x05	5
3	0x01	1
4	0x00	0
5	0x00	0
6	0x01	1
7	0x00	0
8	0x00	0
9	0xff	-1
10	0xfe	-2
11	0x00	0
12	0x00	0
13	0xff	-1
14	0x00	0
15	0x01	1
16	0x01	1
17	0xff	-1
18	0xfd	-3
19	0x00	0
20	0x03	3
21	0x01	1
22	0x00	0
23	0xff	-1
24	0x00	0
25	0x00	0
26	0xff	-1
27	0x00	0
28	0x00	0
29	0xf9	-7
30	0x00	0
31	0x00	0
32	0xff	-1
33	0x01	1
34	0x01	1
35	0x00	0
36	0xff	-1
37	0x00	0
38	0xff	-1
39	0x00	0
40	0x00	0
41	0x01	1
42	0x02	2
43	0xff	-1
44	0x02	2
45	0x01	1
46	0x01	1
47	0xff	-1
48	0x06	6
49	0x00	0
50	0x00	0
51	0x00	0
52	0x00	0
53	0x02	2
54	0x00	0
55	0x00	0
56	0x00	0
57	0xff	-1
58	0x01	1
59	0xff	-1
60	0xfa	-6
61	0xed	-19
62	0xfe	-2
63	0x02	2
64	0x01	1
65	0x02	2
66	0xfd	-3
67	0x01	1
68	0xff	-1
69	0x00	0
70	0x00	0
71	0x00	0
72	0x01	1
73	0xff	-1
74	0xff	-1
75	0x00	0
76	0xff	-1
77	0x01	1
78	0x00	0
79	0x00	0
80	0xfe	-2
81	0x01	1
82	0xff	-1
83	0x00	0
84	0x01	1
85	0x00	0
86	0x00	0
87	0x00	0
88	0x00	0
89	0x00	0
90	0xff	-1
91	0x00	0
92	0x01	1
93	0xfc	-4
94	0x00	0
95	0x00	0
96	0x00	0
97	0xff	-1
98	0xfe	-2
99	0x00	0
100	0x00	0
101	0x01	1
102	0xff	-1
103	0xfe	-2
104	0x00	0
105	0xff	-1
106	0xfe	-2
107	0x01	1
108	0xff	-1
109	0x00	0
110	0xfd	-3
111	0x01	1
112	0x05	5
113	0x02	2
114	0x00	0
115	0x01	1
116	0xfa	-6
117	0xff	-1
118	0xff	-1
119	0xfe	-2
120	0xff	-1
121	0x00	0
122	0x01	1
123	0x01	1
124	0x00	0
125	0x03	3
126	0xff	-1
127	0x01	1
128	0x7f	127
129	0xfc	-4
130	0x05	5
131	0xfe	-2
132	0x01	1
133	0x00	0
134	0xff	-1
135	0x02	2
136	0x01	1
137	0x03	3
138	0x02	2
139	0x02	2
140	0x00	0
141	0x02	2
142	0x00	0
143	0x02	2
144	0xec	-20
145	0xfe	-2
146	0x02	2
147	0xfe	-2
148	0x02	2
149	0x00	0
150	0x01	1
151	0x03	3
152	0x01	1
153	0xff	-1
154	0x01	1
155	0xfe	-2
156	0x0b	11
157	0xfe	-2
158	0x03	3
159	0xfd	-3
160	0x03	3
161	0x07	7
162	0xfd	-3
163	0x00	0
164	0x00	0
165	0x01	1
166	0x00	0
167	0x01	1
168	0x00	0
169	0xff	-1
170	0xfe	-2
171	0x01	1
172	0xff	-1
173	0x00	0
174	0xff	-1
175	0x00	0
176	0x05	5
177	0xff	-1
178	0x00	0
179	0x00	0
180	0xfe	-2
181	0xff	-1
182	0x00	0
183	0xff	-1
184	0xff	-1
185	0x01	1
186	0xfe	-2
187	0x00	0
188	0xfc	-4
189	0x01	1
190	0xff	-1
191	0xff	-1
192	0x00	0
193	0x05	5
194	0xff	-1
195	0x00	0
196	0x00	0
197	0x00	0
198	0x00	0
199	0x00	0
200	0xff	-1
201	0xff	-1
202	0x01	1
203	0xfe	-2
204	0xff	-1
205	0xff	-1
206	0x00	0
207	0x00	0
208	0xfe	-2
209	0xfe	-2
210	0x02	2
211	0x01	1
212	0xfe	-2
213	0xfe	-2
214	0x00	0
215	0x00	0
216	0x00	0
217	0x02	2
218	0x01	1
219	0x01	1
220	0x02	2
221	0x00	0
222	0x00	0
223	0x01	1
224	0x05	5
225	0xfd	-3
226	0xfe	-2
227	0x00	0
228	0x00	0
229	0x00	0
230	0xfe	-2
231	0x00	0
232	0x00	0
233	0x01	1
234	0x01	1
235	0xff	-1
236	0x00	0
237	0xff	-1
238	0x02	2
239	0xff	-1
240	0x05	5
241	0x02	2
242	0xfe	-2
243	0xff	-1
244	0x02	2
245	0x03	3
246	0x00	0
247	0x00	0
248	0x00	0
249	0xff	-1
250	0x00	0
251	0xff	-1
252	0xfc	-4
253	0xfe	-2
254	0x02	2
255	0x01	1

tfl.pseudo_qconst5 i1 [32, 3, 3, 32]
0	0xff	-1
1	0x03	3
2	0xff	-1
3	0xfc	-4
4	0x00	0
5	0x01	1
6	0x01	1
7	0x00	0
8	0xff	-1
9	0x01	1
10	0x03	3
11	0x05	5
12	0xff	-1
13	0x01	1
14	0x00	0
15	0xfd	-3
16	0xff	-1
17	0x01	1
18	0x01	1
19	0x00	0
20	0x00	0
21	0x00	0
22	0x00	0
23	0x00	0
24	0xfe	-2
25	0xfd	-3
26	0xff	-1
27	0xfe	-2
28	0x00	0
29	0xff	-1
30	0xff	-1
31	0xfa	-6
32	0x02	2
33	0xfe	-2
34	0x07	7
35	0xff	-1
36	0x00	0
37	0xff	-1
38	0x00	0
39	0x01	1
40	0xfe	-2
41	0x03	3
42	0x02	2
43	0x07	7
44	0x03	3
45	0x03	3
46	0xff	-1
47	0x04	4
48	0x04	4
49	0xff	-1
50	0x01	1
51	0x01	1
52	0xff	-1
53	0xff	-1
54	0xff	-1
55	0x00	0
56	0x01	1
57	0xf8	-8
58	0xff	-1
59	0x01	1
60	0x00	0
61	0x01	1
62	0x04	4
63	0x02	2
64	0xf8	-8
65	0xfd	-3
66	0xfa	-6
67	0x00	0
68	0xff	-1
69	0xfe	-2
70	0x01	1
71	0x00	0
72	0xff	-1
73	0xff	-1
74	0xfe	-2
75	0x03	3
76	0xfe	-2
77	0x00	0
78	0x01	1
79	0x00	0
80	0xfe	-2
81	0x00	0
82	0x00	0
83	0x00	0
84	0x00	0
85	0x01	1
86	0x00	0
87	0xff	-1
88	0xff	-1
89	0xfb	-5
90	0x00	0
91	0x01	1
92	0x00	0
93	0xff	-1
94	0x01	1
95	0xfe	-2
96	0x03	3
97	0xff	-1
98	0xff	-1
99	0x03	3
100	0x01	1
101	0x01	1
102	0x00	0
103	0x00	0
104	0xff	-1
105	0xfe	-2
106	0x01	1
107	0xf9	-7
108	0x00	0
109	0x00	0
110	0x00	0
111	0x01	1
112	0x03	3
113	0x00	0
114	0x00	0
115	0xff	-1
116	0x02	2
117	0xfd	-3
118	0x00	0
119	0xff	-1
120	0x02	2
121	0x12	18
122	0x00	0
123	0x01	1
124	0x01	1
125	0xff	-1
126	0xfd	-3
127	0x00	0
128	0x7f	127
129	0x03	3
130	0xfc	-4
131	0x02	2
132	0x02	2
133	0xff	-1
134	0x00	0
135	0xff	-1
136	0x02	2
137	0xfc	-4
138	0x00	0
139	0x09	9
140	0xff	-1
141	0xfd	-3
142	0x00	0
143	0xfe	-2
144	0xf5	-11
145	0x00	0
146	0xff	-1
147	0xff	-1
148	0x02	2
149	0x02	2
150	0x04	4
151	0x00	0
152	0xfc	-4
153	0xfc	-4
154	0x01	1
155	0xfe	-2
156	0xff	-1
157	0x01	1
158	0x09	9
159	0xfc	-4
160	0x08	8
161	0xfb	-5
162	0x05	5
163	0x00	0
164	0x01	1
165	0x05	5
166	0x00	0
167	0xfe	-2
168	0x01	1
169	0x06	6
170	0xff	-1
171	0xf8	-8
172	0x00	0
173	0x03	3
174	0x00	0
175	0x01	1
176	0x08	8
177	0x00	0
178	0xff	-1
179	0x01	1
180	0xff	-1
181	0x00	0
182	0xfe	-2
183	0x00	0
184	0x04	4
185	0x03	3
186	0x00	0
187	0x03	3
188	0x01	1
189	0x02	2
190	0x05	5
191	0xff	-1
192	0xfb	-5
193	0x03	3
194	0x04	4
195	0xff	-1
196	0x02	2
197	0x01	1
198	0xfe	-2
199	0x01	1
200	0x01	1
201	0xff	-1
202	0x00	0
203	0x00	0
204	0xff	-1
205	0xff	-1
206	0xff	-1
207	0x03	3
208	0x00	0
209	0xff	-1
210	0x00	0
211	0xff	-1
212	0xfc	-4
213	0x00	0
214	0x00	0
215	0xff	-1
216	0xff	-1
217	0x04	4
218	0x01	1
219	0xfe	-2
220	0x00	0
221	0x00	0
222	0xf6	-10
223	0x0a	10
224	0xff	-1
225	0x02	2
226	0xfa	-6
227	0x01	1
228	0x00	0
229	0x00	0
230	0x00	0
231	0x00	0
232	0xff	-1
233	0x00	0
234	0xff	-1
235	0xf8	-8
236	0x01	1
237	0x00	0
238	0x01	1
239	0x04	4
240	0x04	4
241	0xff	-1
242	0xff	-1
243	0x03	3
244	0xfe	-2
245	0x00	0
246	0xff	-1
247	0xff	-1
248	0xfe	-2
249	0xfa	-6
250	0x00	0
251	0xff	-1
252	0xff	-1
253	0xfe	-2
254	0x01	1
255	0x02	2

tfl.pseudo_qconst11 i1 [32, 3, 3, 3]
0	0x05	5
1	0x02	2
2	0xfa	-6
3	0xfb	-5
4	0x01	1
5	0xfb	-5
6	0x08	8
7	0x02	2
8	0x06	6
9	0xf5	-11
10	0x08	8
11	0x04	4
12	0x7f	127
13	0xf9	-7
14	0xff	-1
15	0xf3	-13
16	0x01	1
17	0xfc	-4
18	0x0c	12
19	0xf3	-13
20	0x00	0
21	0xf8	-8
22	0x03	3
23	0x07	7
24	0xfc	-4
25	0x00	0
26	0x05	5
27	0x04	4
28	0x04	4
29	0x09	9
30	0x01	1
31	0xec	-20
32	0xff	-1
33	0x08	8
34	0xf5	-11
35	0xf4	-12
36	0xf5	-11
37	0x07	7
38	0xf6	-10
39	0xf9	-7
40	0x7f	127
41	0xf5	-11
42	0xf5	-11
43	0x0d	13
44	0x05	5
45	0xf5	-11
46	0x07	7
47	0xf5	-11
48	0x07	7
49	0x05	5
50	0xfc	-4
51	0xf6	-10
52	0xfc	-4
53	0xfb	-5
54	0xfc	-4
55	0xff	-1
56	0xf8	-8
57	0xfb	-5
58	0xfc	-4
59	0x09	9
60	0xfd	-3
61	0x01	1
62	0x04	4
63	0xee	-18
64	0x08	8
65	0x03	3
66	0x0c	12
67	0x17	23
68	0x7f	127
69	0x0b	11
70	0xf5	-11
71	0xfe	-2
72	0x08	8
73	0xf1	-15
74	0x0b	11
75	0xf8	-8
76	0xf7	-9
77	0xf6	-10
78	0xfc	-4
79	0x06	6
80	0x01	1
81	0x0f	15
82	0x03	3
83	0x15	21
84	0x12	18
85	0x29	41
86	0xed	-19
87	0x0e	14
88	0x02	2
89	0x20	32
90	0xb0	-80
91	0xa2	-94
92	0xaf	-81
93	0x5e	94
94	0x5d	93
95	0x4b	75
96	0x8b	-117
97	0x81	-127
98	0xb5	-75
99	0x19	25
100	0x34	52
101	0x1d	29
102	0xf3	-13
103	0xf4	-12
104	0xff	-1
105	0x2c	44
106	0x2b	43
107	0x11	17
108	0x19	25
109	0xf4	-12
110	0xfd	-3
111	0x7f	127
112	0x26	38
113	0x14	20
114	0xcc	-52
115	0xea	-22
116	0xfa	-6
117	0xea	-22
118	0x10	16
119	0x00	0
120	0xd9	-39
121	0xf8	-8
122	0xfc	-4
123	0xfe	-2
124	0x00	0
125	0xf7	-9
126	0x08	8
127	0xfa	-6
128	0xff	-1
129	0x09	9
130	0xfe	-2
131	0x00	0
132	0x06	6
133	0x00	0
134	0x04	4
135	0x05	5
136	0xfe	-2
137	0x02	2
138	0x02	2
139	0x01	1
140	0xfe	-2
141	0xff	-1
142	0x01	1
143	0x00	0
144	0x81	-127
145	0x09	9
146	0xfb	-5
147	0x15	21
148	0xfd	-3
149	0x03	3
150	0xfc	-4
151	0x01	1
152	0xfe	-2
153	0x02	2
154	0xfd	-3
155	0x02	2
156	0xff	-1
157	0x02	2
158	0x00	0
159	0x00	0
160	0x00	0
161	0x00	0
162	0x00	0
163	0x02	2
164	0xff	-1
165	0xfd	-3
166	0xfd	-3
167	0x81	-127
168	0x01	1
169	0x01	1
170	0x00	0
171	0x01	1
172	0xfe	-2
173	0x00	0
174	0x03	3
175	0x02	2
176	0x02	2
177	0xff	-1
178	0x01	1
179	0xff	-1
180	0xff	-1
181	0x02	2
182	0xff	-1
183	0x00	0
184	0x00	0
185	0x00	0
186	0x00	0
187	0x00	0
188	0x00	0
189	0x2d	45
190	0x44	68
191	0x2a	42
192	0x04	4
193	0x0a	10
194	0xf6	-10
195	0xff	-1
196	0x03	3
197	0x00	0
198	0xbb	-69
199	0x81	-127
200	0xb2	-78
201	0xed	-19
202	0xf2	-14
203	0x07	7
204	0x01	1
205	0xf9	-7
206	0x04	4
207	0x22	34
208	0x3d	61
209	0x25	37
210	0x04	4
211	0x05	5
212	0xfe	-2
213	0x01	1
214	0xff	-1
215	0xfe	-2
216	0x02	2
217	0xf0	-16
218	0x04	4
219	0x03	3
220	0x02	2
221	0xf9	-7
222	0x08	8
223	0x03	3
224	0xfe	-2
225	0xb6	-74
226	0x9d	-99
227	0x81	-127
228	0x0f	15
229	0x0d	13
230	0x0d	13
231	0x08	8
232	0x29	41
233	0x48	72
234	0x10	16
235	0x21	33
236	0x30	48
237	0x1f	31
238	0x11	17
239	0x23	35
240	0xf6	-10
241	0x05	5
242	0xdc	-36
243	0xd9	-39
244	0xc4	-60
245	0xef	-17
246	0x2d	45
247	0x3c	60
248	0x0b	11
249	0xf9	-7
250	0xfa	-6
251	0x00	0
252	0x9e	-98
253	0xb1	-79
254	0xf5	-11
255	0x7f	127
