app/src/main/assets/models/qsr_s_1.5x_720p_float16.tflite (tflite, 51852 bytes, 8 tensors)

arith.constant f2 [32]
-0.003277 -0.07355 -0.03015 0.12244 0.02827 0.07776 0.1841 -0.0005846
0.1646 -0.0923 -0.1298 -0.0917 -0.1656 0.002966 -0.0641 -0.0469
0.1578 -0.09393 0.143 -0.1096 0.1361 -0.0835 -0.1831 0.05862
-0.1003 0.1678 0.1621 -0.0792 -0.0788 0.15 0.08466 0.0859
00000000: b69a b5ac b8a7 d62f 3d27 fa2c e431 ca90
00000010: 4431 e8ad 27b0 dead 4db1 131a 1aac 01aa
00000020: 0d31 03ae 9330 04af 5b30 58ad dcb1 812b
00000030: 6bae 5f31 3031 12ad 0bad cd30 6b2d 7f2d

arith.constant1 f2 [32, 3, 3, 3]
-0.0924 0.06616 -0.08307 -0.08997 -0.1504 0.0432 -0.02475 0.1655
0.01066 -0.145 -0.005985 -0.0333 0.863 0.1915 0.1342 0.163
0.0548 0.07007 0.1772 0.04285 -0.1144 0.1772 0.0893 -0.0826
-0.1835 0.09607 0.1084 0.0964 0.1354 0.1829 -0.12366 -0.10236
-0.0776 0.0708 0.12115 -0.1332 0.1043 0.1389 -0.1909 0.0739
1.006 -0.1588 -0.1092 0.02498 -0.1393 -0.1829 0.0937 0.08435
0.1136 -0.05823 -0.01646 0.08826 0.0887 0.1595 0.0688 0.1396
-0.1637 -0.1588 0.1837 0.1659 0.007336 0.1821 0.1349 -0.02864
0.0201 -0.1273 0.04492 0.003834 0.845 0.002998 -0.1649 -0.01318
-0.171 0.0002223 -0.1013 0.0196 0.03564 0.003471 -0.01364 0.1738
0.0815 0.003407 0.1729 -0.0704 -0.1317 0.1533 0.08325 -0.1251
0.0875 -0.117 -0.02576 0.152 0.06415 0.003761 0.02234 -0.1556
-0.01131 -0.1216 0.1142 0.01753 0.155 -0.087 0.02167 0.01752
-0.02728 -0.0969 0.1385 -0.0962 -0.11743 0.04565 0.04913 -0.1714
-0.03998 -0.1713 -0.006268 0.165 0.0208 0.11237 -0.08276 0.11176
0.181 -0.00724 0.1797 -0.1418 0.1598 0.1368 0.01703 0.1866
-0.001738 -0.1163 0.1863 -0.11005 -0.09247 0.1423 -0.1824 -0.03006
-0.1913 0.0892 0.1009 -0.04144 -0.092 0.1549 -0.0043 -0.004852
0.1448 -0.189 0.1722 -0.1399 0.1852 0.06113 -0.0694 0.0444
0.04266 0.1139 -0.13 -0.1492 0.1675 0.0561 0.0971 -0.1292
0.1656 0.1831 -0.01863 -0.06976 -0.07825 -0.05798 0.05032 0.0491
-0.1711 0.03647 -0.1613 -0.0893 -0.007313 0.11676 -0.10736 -0.159
0.1569 0.1471 -0.03 0.0108 -0.003624 -0.03766 0.16 0.1735
-0.131 0.009674 -0.006325 0.1328 0.04752 -0.05692 0.1016 0.173
-0.1407 -0.1812 0.1516 -0.1053 -0.05283 0.1164 -0.05133 -0.04776
0.01262 -0.02594 -0.0842 0.0289 0.04764 0.1659 0.1414 0.01503
-0.03513 0.1147 -0.0484 0.06464 0.09576 0.03433 0.03342 0.1913
0.05634 0.0623 0.1829 0.1525 0.00368 -0.0459 -0.11804 0.0299
-0.03123 -0.1915 0.1296 -0.1418 0.00954 -0.1808 0.00786 0.1559
0.174 -0.11993 -0.08307 0.01869 0.0354 0.08655 -0.0876 0.0947
-0.0497 -0.1409 -0.06866 -0.0343 -0.1192 0.1791 -0.1696 0.1776
-0.0919 -0.0698 -0.071 -0.011055 -0.0632 0.0706 -0.1357 0.0261
00000000: eaad 3c2c 51ad c2ad d0b0 8829 56a6 4c31
00000010: 7521 a4b0 219e 43a8 e73a 2132 4b30 3731
00000020: 042b 7c2c ac31 7c29 52af ac31 b72d 49ad
00000030: dfb1 262e f02e 2b2e 5530 da31 eaaf 8dae
00000040: f7ac 882c c12f 43b0 ad2e 7230 1cb2 bb2c
00000050: 063c 15b1 fdae 6526 75b0 dab1 ff2d 662d
00000060: 452f 74ab 37a4 a62d ad2d 1b31 672c 7830
00000070: 3db1 15b1 e131 4f31 831f d431 5130 55a7
00000080: 2525 13b0 c029 da1b c33a 241a 47b1 c0a2
00000090: 79b1 490b 7cae 0525 9028 1c1b fca2 9031
000000a0: 372d fa1a 8831 81ac 37b0 e830 542d 01b0
000000b0: 9a2d 7daf 98a6 dd30 1b2c b41b b825 fbb0
000000c0: caa1 c8af 4f2f 7d24 f630 91ad 8c25 7c24
000000d0: fca6 34ae 6f30 28ae 84af d829 4a2a 7cb1
000000e0: 1ea9 7bb1 6b9e 4831 5325 312f 4cad 272f
000000f0: cb31 6a9f c031 8ab0 1d31 6130 5c24 f931
00000100: 1e97 71af f631 0baf ebad 8e30 d6b1 b2a7
00000110: 1fb2 b52d 752e 4ea9 e3ad f530 679c f89c
00000120: a230 0cb2 8331 7ab0 ed31 d32b 71ac af29
00000130: 7629 4a2f 29b0 c6b0 5c31 2e2b 372e 22b0
00000140: 4d31 dc31 c5a4 77ac 02ad 6cab 712a 492a
00000150: 7ab1 ab28 29b1 b7ad 7d9f 792f dfae 17b1
00000160: 0531 b530 aea7 8821 6c9b d2a8 1f31 8d31
00000170: 31b0 f420 7a9e 4030 152a 49ab 812e 8931
00000180: 81b0 ccb1 da30 bdae c3aa 732f 92aa 1daa
00000190: 7622 a4a6 64ad 6627 192a 4f31 8630 b223
000001a0: 7fa8 572f 32aa 232c 212e 6528 4728 1f32
000001b0: 362b f92b da31 e130 891b e0a9 8eaf a827
000001c0: ffa7 21b2 2630 8ab0 e220 c9b1 0620 fd30
000001d0: 9131 adaf 51ad c924 8828 8a2d 9bad 102e
000001e0: 5daa 82b0 65ac 64a8 a1af bb31 6db1 af31
000001f0: e2ad 78ac 8bac a9a1 0bac 852c 58b0 ae26

arith.constant9 f2 [32, 3, 3, 32]
0.00969 -7.4e-05 -0.05475 -0.03653 -0.02344 -0.01437 -0.01464 0.05832
-0.05322 0.05548 0.0383 0.03308 0.0478 -0.05215 -0.02776 0.014435
0.05573 0.05014 -0.02534 0.04364 -0.0507 -0.01043 0.00823 -0.05414
0.05807 -0.02528 0.05298 -0.05884 0.04993 -0.05554 0.00123 -0.02347
0.01003 -0.02504 -0.000304 0.02368 -0.02744 -0.00428 -0.0415 -0.0422
-0.0352 0.01628 -0.02408 -0.008736 -0.002287 0.02287 -0.05734 -0.05542
-0.0356 0.02798 -0.003893 -0.05817 -0.02588 0.01874 -0.02466 -0.00451
0.0374 0.04492 0.01828 0.01787 -0.0515 0.05164 0.01408 -0.04382
-0.05164 0.011955 0.02177 -0.01587 0.04684 0.02145 0.04404 -0.03433
0.010925 0.01336 0.003538 -0.01462 0.0029 0.0583 -0.04395 -0.05762
0.02559 0.04 0.0127 0.01772 0.001212 -0.0411 0.01315 0.01947
-0.0502 -0.0356 -0.0461 -0.04645 -0.02873 -0.01 -0.05603 0.05777
0.02203 0.01819 -0.05396 0.05588 -0.04486 -0.05594 0.043 0.01048
-0.02599 -0.05005 0.002462 -0.02086 -0.052 0.03812 0.04282 -0.02794
-0.0004 0.01408 0.04684 -0.0199 -0.0464 0.00962 -0.0401 0.0138
-0.01311 -0.043 0.04953 0.03754 0.00916 0.03482 -0.01397 0.0575
1.033 0.03204 0.0578 -0.006794 0.04388 -0.00867 0.012665 -0.0476
-0.02751 -0.005882 0.03214 -0.01807 0.04443 -0.02339 0.01584 -0.01047
-0.03278 -0.03735 0.0207 0.003195 0.0167 -0.03925 -0.03485 0.02538
0.02473 0.05127 0.04053 -0.01749 0.02121 -0.03363 -0.01547 0.0541
-0.02863 0.01285 0.0192 0.01123 0.00511 0.05603 0.04074 0.0359
0.003035 0.05023 0.00756 0.04712 0.04132 0.0328 -0.05307 -0.01794
0.0527 -0.0238 0.01251 0.05597 0.04535 0.05447 -0.04938 0.00788
0.04358 0.02263 0.01187 0.05325 -0.03482 0.03772 -0.00784 -0.0231
0.005795 0.0304 0.00304 -0.00852 -0.0299 -0.04562 -0.02267 -0.00796
0.0585 0.02081 0.0489 0.04733 0.01153 -0.01496 -0.03119 -0.02507
-0.056 0.00985 -0.0529 0.01996 -0.005447 0.04794 0.039 -0.0194
0.05252 -0.000333 -0.03168 -0.04428 -0.0422 -0.03488 0.04883 -0.02536
-0.02606 -0.04953 0.01507 -0.0006957 -0.04202 0.03098 -0.00971 -0.02596
0.04007 -0.000801 0.005623 -0.002342 0.01555 0.005836 -0.0294 0.03925
-0.0498 0.0553 -0.0379 -0.011566 0.03278 -0.05344 0.008804 0.00862
0.05737 -0.0438 -0.006725 0.02324 -0.009056 -0.04532 0.0475 -0.0454
00000000: f620 da84 02ab ada8 00a6 5ca3 7fa3 772b
00000010: d0aa 1a2b e728 3c28 1e2a adaa 1ba7 6423
00000020: 222b 6b2a 7da6 9629 7daa 57a1 3720 eeaa
00000030: 6f2b 79a6 c82a 88ab 642a 1cab 0a15 02a6
00000040: 2321 69a6 fb8c 1026 06a7 629c 50a9 67a9
00000050: 81a8 2b24 2aa6 79a0 af98 db25 57ab 18ab
00000060: 8fa8 2a27 f99b 72ab a0a6 cc24 50a6 9e9c
00000070: ca28 c029 ae24 9324 98aa 9c2a 3523 9ca9
00000080: 9caa 1f22 9325 10a4 ff29 7e25 a329 65a8
00000090: 9821 d722 3f1b 7ca3 f019 762b a0a9 60ab
000000a0: 8d26 1f29 8122 8924 f714 43a9 bc22 fc24
000000b0: 6daa 8fa8 e7a9 f2a9 5ba7 1fa1 2cab 652b
000000c0: a425 a824 e8aa 272b bea9 29ab 8129 5e21
000000d0: a7a6 68aa 0b19 57a5 a8aa e128 7b29 27a7
000000e0: 8e8e 3523 ff29 18a5 f0a9 ed20 22a9 1123
000000f0: b6a2 81a9 572a ce28 b120 7528 27a3 5c2b
00000100: 223c 1a28 662b f59e 9e29 70a0 7c22 18aa
00000110: 0ba7 069e 1d28 a0a4 b029 fda5 0e24 5ca1
00000120: 32a8 c8a8 4d25 8b1a 4624 06a9 76a8 7f26
00000130: 5526 902a 3029 7aa4 6e25 4ea8 eca3 ed2a
00000140: 54a7 9422 ea24 c021 3c1d 2c2b 3729 9828
00000150: 371a 6e2a be1f 082a 4a29 3328 cbaa 98a4
00000160: bf2a 18a6 6822 2a2b ce29 f92a 52aa 0920
00000170: 9429 cb25 1422 d12a 75a8 d428 04a0 eaa5
00000180: ef1d c827 3a1a 5da0 a8a7 d7a9 cea5 13a0
00000190: 7d2b 5425 422a 0f2a e721 a9a3 fca7 6ba6
000001a0: 2bab 0b21 c5aa 1c25 949d 232a fe28 f7a4
000001b0: b92a 758d 0ea8 aba9 67a9 77a8 402a 7ea6
000001c0: aca6 57aa b723 b391 61a9 ee27 f9a0 a5a6
000001d0: 2129 9092 c21d cc98 f623 fa1d 87a7 0629
000001e0: 60aa 142b daa8 eca1 3228 d7aa 8220 6a20
000001f0: 582b 9ba9 e39e f325 a3a0 cda9 142a d0a9

arith.constant10 f2 [32, 3, 3, 32]
-0.05853 0.05228 -0.01546 0.02858 -0.03653 -0.01256 0.03082 -0.034
0.05127 0.01846 -0.0582 -0.05353 -0.01359 -0.04984 -0.01656 -0.02971
-0.0252 0.01701 0.04758 0.02861 0.05148 0.04846 0.02232 -0.00942
-0.05145 0.003862 -0.02522 -0.03812 0.0329 0.0184 0.0334 0.03647
-0.01788 0.04453 0.05286 -0.01593 -0.04263 0.001289 0.02866 0.03403
0.04303 -0.0355 0.0381 -0.05756 -0.0495 -0.03604 0.01516 0.01327
0.05353 0.02797 0.0181 0.03056 -0.000332 0.03564 0.05753 -0.00524
-0.0467 -0.0533 0.01718 -0.01596 0.05417 -0.04227 -0.006336 0.04114
-0.002674 0.04065 -0.02019 -0.02379 0.05884 -0.03192 0.007755 -0.02615
0.02016 -0.02515 -0.001657 -0.01706 0.04843 0.01144 -0.01247 0.0508
-0.04718 -0.00597 0.0128 0.002556 0.02754 0.02074 0.03543 0.0256
0.03653 0.010155 -0.00909 -0.001667 -0.01912 -0.05804 -0.005146 0.05002
0.015594 0.02661 -0.0253 0.0458 0.002266 -0.009796 -0.01003 -0.02733
-0.05203 0.003134 0.02768 0.02188 0.02042 -0.0156 -0.04657 0.02232
0.01959 -0.03757 0.01317 0.04956 -0.002323 0.04834 -0.0351 0.03873
0.04456 -0.0366 0.04456 0.03586 0.01421 0.02002 0.01498 -0.0499
1.016 -0.02007 0.048 0.03586 0.05658 0.04095 -0.05026 -0.01331
0.042 0.05835 -0.03598 0.0421 -0.04968 -0.0164 -0.04416 -0.01692
-0.001945 0.04095 -0.04562 -0.014824 0.04468 0.02866 0.03345 0.005936
0.0337 0.04202 -0.0318 0.0381 0.0571 -0.00423 -0.02335 -0.03375
0.05136 0.05826 0.05582 -0.008446 0.009155 -0.05048 0.02475 -0.0004027
0.04898 0.05115 -0.02043 0.03748 0.03162 0.04474 0.04678 -0.05734
-0.02457 -0.01857 -0.007328 0.006184 0.0098 -0.01338 0.00783 -0.01524
-0.02641 -0.0359 0.005993 0.008896 -0.008896 -0.03485 0.005943 0.01671
-0.005135 -0.03226 0.04654 -0.04553 -0.0176 0.00784 -0.015305 -0.01225
-0.05328 -0.04172 -0.05737 -0.00869 0.00316 0.035 0.03818 0.02069
0.02838 0.0344 0.02007 0.0384 -0.01061 0.05588 0.02438 0.04517
0.01807 0.02444 0.04443 -0.00877 0.0545 -0.02138 0.05823 0.03354
0.04303 -0.02052 0.03427 -0.00518 0.04263 -0.04837 -0.00916 -0.03137
0.03075 -0.01068 0.01628 -0.009 0.0483 -0.004635 -0.04172 -0.00848
-0.01978 0.0338 0.0507 0.03018 -0.05872 -0.0193 -0.03928 0.01208
0.05853 -0.03745 0.03223 0.01151 0.007786 0.04828 -0.02588 -0.03696
00000000: 7eab b12a eaa3 5127 ada8 6ea2 e427 5aa8
00000010: 902a ba24 73ab daaa f5a2 61aa 3da4 9ba7
00000020: 74a6 5b24 172a 5327 972a 342a b725 d3a0
00000030: 96aa e91b 75a6 e1a8 3628 b624 4628 ab28
00000040: 94a4 b329 c42a 14a4 75a9 4815 5627 5b28
00000050: 8229 8ba8 e028 5eab 56aa 9da8 c323 cb22
00000060: da2a 2927 a224 d327 718d 9028 5d2b 5e9d
00000070: faa9 d3aa 6624 16a4 ef2a 69a9 7d9e 4429
00000080: 7a99 3429 2ba5 17a6 882b 16a8 f11f b2a6
00000090: 2925 70a6 c996 5ea4 332a db21 62a2 812a
000000a0: 0aaa 1d9e 8e22 3c19 0d27 4f25 8928 8e26
000000b0: ad28 3321 a7a0 d496 e5a4 6eab 459d 672a
000000c0: fc23 d026 7aa6 dd29 a418 04a1 23a1 ffa6
000000d0: a9aa 6b1a 1627 9a25 3a25 fda3 f6a9 b725
000000e0: 0425 cfa8 be22 582a c298 302a 7ea8 f528
000000f0: b429 afa8 b429 9728 4723 2025 ab23 63aa
00000100: 103c 23a5 252a 9728 3e2b 3e29 6faa d1a2
00000110: 6029 782b 9ba8 6429 5caa 33a4 a7a9 55a4
00000120: f797 3e29 d7a9 97a3 b829 5627 4828 141e
00000130: 5028 6129 12a8 e028 4f2b 559c faa5 52a8
00000140: 932a 752b 252b 53a0 b020 76aa 5626 998e
00000150: 452a 8c2a 3ba5 cc28 0c28 ba29 fd29 57ab
00000160: 4aa6 c1a4 819f 551e 0521 daa2 0220 cea3
00000170: c3a6 98a8 231e 8e20 8ea0 76a8 161e 4724
00000180: 429d 21a8 f529 d4a9 81a4 0420 d6a3 46a2
00000190: d2aa 57a9 58ab 73a0 791a 7b28 e328 4c25
000001a0: 4427 6728 2325 ea28 6fa1 272b 3e26 c829
000001b0: a024 4226 b029 7ea0 fa2a 79a5 742b 4b28
000001c0: 8229 41a5 6328 4e9d 7529 31aa b1a0 04a8
000001d0: df27 78a1 2b24 9ca0 2f2a bf9c 57a9 57a0
000001e0: 10a5 5428 7d2a ba27 84ab f1a4 07a9 2f22
000001f0: 7e2b cba8 2028 e521 f91f 2e2a a0a6 bba8

arith.constant11 f2 [27, 1, 1, 128]
0.963 0.02197 0.0584 -0.0816 0.03093 -0.02135 0.0653 -0.04462
-0.07007 0.02261 -0.06604 -0.00801 0.02367 0.08246 -0.01152 -0.0688
0.068 0.0468 0.0709 -0.03653 -0.08246 -0.0221 -0.007305 -0.0319
0.0365 -0.04102 0.0323 0.03406 0.05643 0.02403 -0.0452 0.08673
-0.07434 -0.01584 -0.03433 0.03976 0.009705 -0.05313 -0.06573 0.001641
0.010956 0.056 0.083 0.0765 -0.0578 -0.064 0.03192 0.0798
0.00366 -0.0674 0.04196 -0.0837 -0.0443 0.05493 -0.02689 -0.0487
-0.03287 0.06726 -0.03656 0.0456 0.06198 0.05692 -0.04196 0.02357
0.003855 -0.0845 0.03293 -0.03433 0.007545 0.02615 0.02039 -0.078
0.0606 0.03047 0.08295 0.081 0.04623 -0.059 0.06335 0.04736
-0.0578 0.04404 0.05463 0.03745 -0.0821 -0.01429 -0.00766 0.013084
0.0715 0.01199 -0.03436 -0.0651 0.063 -0.0518 -0.0076 0.0709
-0.02736 0.0763 0.0163 -0.04245 -0.06573 0.0842 -0.0109 0.06183
-0.074 0.010216 -0.04102 0.0593 0.0516 -0.0832 -0.05014 0.05103
0.01358 0.02533 -0.010124 -0.04733 0.06073 0.07886 0.02316 -0.06052
0.05594 -0.0638 0.002659 0.002932 0.04675 0.03238 0.0826 0.02112
1.075 0.002365 0.03458 0.04688 -0.02625 -0.01639 0.003416 0.005424
0.01544 -0.02061 0.08673 0.083 0.02254 -0.01993 0.05035 0.01395
0.0359 -0.06137 -0.0798 0.0764 0.02655 0.01107 0.02599 -0.006096
0.02626 -0.0529 0.05426 -0.008644 -0.02934 -0.0374 -0.00296 0.0864
-0.065 0.001075 0.06903 -0.03214 -0.004303 0.0878 0.04596 0.05112
-0.0599 -0.0602 0.0441 0.07184 -0.05023 0.07556 0.04407 0.0641
0.006157 0.08575 0.0322 0.0688 0.0843 0.03152 0.0823 0.001309
0.007774 0.01936 0.03683 0.01772 0.04626 0.02762 -0.06506 -0.0845
-0.0396 -0.05414 -0.07666 0.003551 -0.0537 0.0814 0.0868 -0.0683
0.05835 -0.02318 -0.0596 0.02248 -0.0627 -0.04443 0.08813 0.0638
0.01403 -0.01689 -0.05606 -0.05298 -0.0871 -0.01852 -0.04846 0.01863
-0.03723 0.04218 0.004036 0.05185 -0.0554 -0.06305 -0.0498 -0.0355
0.0367 -0.01892 0.006443 -0.045 -0.0723 0.07336 -0.03632 -0.005753
-0.05118 -0.0689 0.07733 0.031 -0.0285 0.0804 0.02538 -0.0483
-0.03546 0.0297 -0.0716 -0.05405 0.02174 -0.06494 0.0135 -0.00735
-0.082 -0.011 -0.03818 -0.05942 -0.00928 -0.03162 0.01551 -0.04398
00000000: b43b a025 7a2b 39ad eb27 77a5 2e2c b6a9
00000010: 7cac ca25 3aac 1aa0 0f26 472d e6a1 67ac
00000020: 5a2c fe29 8a2c ada8 47ad a8a5 7b9f 15a8
00000030: ac28 40a9 2228 5c28 392b 2726 c9a9 8d2d
00000040: c2ac 0ea4 65a8 1729 f820 cdaa 35ac b916
00000050: 9c21 2b2b 502d e52c 66ab 19ac 1628 1b2d
00000060: 7f1b 50ac 5f29 5bad aca9 082b e2a6 3caa
00000070: 35a8 4e2c aea8 d629 ef2b 492b 5fa9 0926
00000080: e51b 68ad 3728 65a8 ba1f b226 3825 feac
00000090: c22b cd27 4f2d 2f2d eb29 8dab 0e2c 102a
000000a0: 66ab a329 fe2a cb28 41ad 51a3 d89f b322
000000b0: 932c 2422 66a8 2bac 082c a1aa c89f 8a2c
000000c0: 01a7 e22c 2c24 6fa9 35ac 642d 95a1 ea2b
000000d0: bcac 3b21 40a9 972b 9b2a 53ad 6baa 882a
000000e0: f422 7c26 2fa1 0faa c62b 0c2d ee25 bfab
000000f0: 292b 15ac 7219 011a fc29 2528 492d 6825
00000100: 4d3c d818 6d28 002a b8a6 32a4 ff1a 8e1d
00000110: e823 47a5 8d2d 502d c525 1aa5 722a 2423
00000120: 9828 dbab 1bad e42c cc26 ab21 a726 3e9e
00000130: b926 c5aa f22a 6da0 83a7 caa8 109a 882d
00000140: 29ac 6714 6b2c 1da8 689c 9f2d e229 8b2a
00000150: abab b5ab a529 992c 6eaa d62c a429 1a2c
00000160: 4e1e 7d2d 1f28 672c 652d 0928 442d 5d15
00000170: f61f f524 b728 8924 ec29 1227 2aac 68ad
00000180: 12a9 eeaa e8ac 461b e0aa 362d 8e2d 5fac
00000190: 782b efa5 a1ab c125 03ac b0a9 a42d 152c
000001a0: 2f23 53a4 2dab c8aa 93ad bea4 34aa c524
000001b0: c4a8 6629 221c a32a 17ab 09ac 60aa 8ba8
000001c0: b328 d8a4 991e c3a9 a1ac b22c a6a8 e49d
000001d0: 8daa 69ac f32c f027 4ca7 252d 7f26 2faa
000001e0: 8aa8 9a27 95ac ebaa 9125 28ac e922 879f
000001f0: 3fad a2a1 e3a8 9bab c0a0 0ca8 f123 a1a9

arith.constant12 f2 [32]
-0.03009 0.03906 0.0296 0.01166 0.02771 -0.03824 -0.05432 0.04544
-0.0446 -0.01413 -0.01491 -0.02989 0.05588 0.0562 -0.04428 -0.02565
0.05344 -0.01723 0.03662 -0.03564 0.0111 0.0468 -0.05786 -0.0202
-0.03778 0.03635 -0.02095 -0.05182 0.01298 -0.04022 -0.03638 -0.04034
00000000: b4a7 0029 9427 f821 1827 e5a8 f4aa d129
00000010: b5a9 3ca3 a2a3 a7a7 272b 322b aba9 91a6
00000020: d72a 69a4 b028 90a8 af21 fe29 68ab 2ca5
00000030: d6a8 a728 5da5 a2aa a522 26a9 a8a8 2aa9

arith.constant13 f2 [32]
0.00655 -0.04358 0.01105 -0.03503 -0.004395 -0.05505 -0.0363 0.03418
0.05087 -0.0161 -0.0338 -0.0008416 -0.00854 -0.03107 -0.02518 -0.05243
-0.0073 -0.03093 0.0428 0.05725 -0.04285 0.001797 0.02345 -0.02158
0.05618 0.04315 0.00543 -0.003633 0.01516 -0.0464 -0.02748 -0.00577
00000000: b51e 94a9 a821 7ca8 809c 0cab a5a8 6028
00000010: 832a 1fa4 54a8 e592 5fa0 f4a7 72a6 b6aa
00000020: 7a9f eba7 7a29 542b 7ca9 5c17 0126 86a5
00000030: 312b 8629 8f1d 719b c323 f0a9 09a7 e99d

arith.constant14 f2 [27]
-0.0836 0.04965 0.05066 -0.08295 0.0441 0.07733 -0.0855 0.05066
0.06866 -0.001756 0.0695 -0.004425 0.07825 0.02432 -0.0733 -0.02232
0.0175 -0.01337 -0.05 0.0298 -0.04514 0.05533 0.02805 0.01634
0.03104 0.0394 0.08466
00000000: 5aad 5b2a 7c2a 4fad a529 f32c 79ad 7c2a
00000010: 652c 3197 732c 889c 022d 3a26 b1ac b7a5
00000020: 7b24 d8a2 66aa a127 c7a9 152b 2e27 2f24
00000030: f227 0b29 6b2d
