app/src/main/assets/models/quicksrnet_small_2x_720p_v1_float32.tflite (tflite, 95712 bytes, 8 tensors)

arith.constant f4 [12]
00000000: 3c37 8239 21fc a5ba 3176 943a aaa5 a9b9
00000010: 0334 c83a 5973 c1b7 3630 173b 5b59 1d3a
00000020: 17c6 063b c166 323a 47a7 383b cd2a a53a
0.00024836685 -0.0012663641 0.0011326728 -0.0003235762 0.001527429 -2.3061106e-05 0.0023069507 0.000600239
0.0020564848 0.00068054727 0.0028175877 0.0012601257

arith.constant1 f4 [32]
00000000: b3f8 17bc 1f27 8ebc 6083 bf3c b483 38bc
00000010: 9aea 76bc 1cbd 2d3c 2440 f3bc dc63 2bbc
00000020: 9c86 8a3c 1e8b 57bc dff1 583c 79f1 d23b
00000030: 7ba4 53bc d536 15bc 0853 343c 4c5f be3c
00000040: 74bb e33c b5fb 9d3b 406c afbc 184f 5f3c
00000050: 1c73 3e3c c1f2 ed3c 0225 bebc 9cfc 33bd
00000060: 59f6 593c e20b e5bb 4209 efbc 1289 aabc
00000070: 899d 6d3c fd87 e8bc 3e36 163c 759a bd3b
-0.009275603 -0.017352639 0.023378074 -0.011261869 -0.015070582 0.010604169 -0.02969367 -0.01046082
0.01690989 -0.013155727 0.01324126 0.006437477 -0.012917633 -0.009107311 0.011006124 0.0232388
0.027799346 0.0048212656 -0.021413922 0.013629697 0.011624124 0.029046418 -0.023211006 -0.04394208
0.013303363 -0.006989942 -0.02917922 -0.020817313 0.014502891 -0.028385157 0.009168206 0.005786235

arith.constant2 f4 [32]
00000000: ca09 06bc 58bd d83c 7a73 6d3c d2f3 5abd
00000010: db98 94bd 292e 38bc 355f a83d 5a80 f73c
00000020: 874a 25bd 7eba b2bc 4c2d e0bb 1a81 72bc
00000030: c190 6d3a 2f71 2b3c ca7e 80bd 543d c0bc
00000040: 3f59 ab3c 343b be3a c9ed 1838 7f97 b83c
00000050: 36c6 2a3d 7082 65bc 2adf 293d 7616 b33c
00000060: 418c 8cbc 28e0 ffbb b5c6 01bd 24a5 653c
00000070: 9a29 4b3b eec2 ebbb 5542 7d3c 30b7 f13c
-0.008181045 0.026457474 0.014492864 -0.05345518 -0.07255717 -0.011241474 0.08221284 0.03021257
-0.040354278 -0.021817442 -0.0068413373 -0.014801288 0.00090624025 0.010463997 -0.06274183 -0.023466744
0.02091658 0.0014513494 3.646108e-05 0.022533176 0.041692935 -0.0140081495 0.04147259 0.021861296
-0.017156722 -0.007808704 -0.031683642 0.014016423 0.0031000138 -0.0071948683 0.015457709 0.029506296

arith.constant3 f4 [12, 3, 3, 32]
00000000: f3c8 683d 6182 ebbb 8105 ff3c 78a5 f0bb
00000010: 42fe 643c ea4c 6dbc cce7 debc c1f0 bf3a
00000020: 7fd5 e83c 7803 e83c 512f 65bc e833 373d
00000030: 681b f6bc f787 693c bf5c 3939 17d6 0c3d
00000040: 38cf cbbd 2bc1 5bbd a03c 2e3a 4797 89bb
00000050: 6957 7fb9 7bb6 21bc adb1 813d 7a5f b33a
00000060: 2e83 583c 4258 a93b acca 79bd eec4 0cbc
00000070: ead8 b93c 2e07 e5bc d714 d9bb ac31 53ba
00000080: 36ed c13d e97c 513b 81d5 27bd f8e1 9b3b
00000090: b5fc b6ba 6efc 8d3c b484 ae3c 65ed d6b8
000000a0: abc9 95bd 6510 05bd 229a 683d 74e9 0dbc
000000b0: 6613 a53c eeb0 c8bc 6b77 553d 3441 a03d
000000c0: bbf7 55be c3b5 c43d b471 38bb fb64 413d
000000d0: 483e c3bc d4c9 d43d 4f2e 81bc d7d6 7f3c
000000e0: a45e 853d 4b31 6cbd 4279 1bbb 378b a03c
000000f0: 637f b2bd c893 c9bd f5b7 6cbd 52a0 ea3c
00000100: fe61 11bd 09d9 61bb 1a8b a53c b097 273c
00000110: 03cd 49bb 3fd2 10bc d0bd 23bc 424f 8fbb
00000120: eb86 fd3c 6098 54bc 85f8 3e3b e025 e6bb
00000130: f4fb b7bb 707d bf3b 2487 a0ba d487 5dbb
00000140: 7afd 473d 3d48 8ebc bec4 37bb 9bd2 d5bc
00000150: c6ef bcbb a87f 02bd 4b83 2f3c 4dd7 af3a
00000160: 93bb f33a ec27 bf3b f50c 11bc 2e84 39bb
00000170: 6987 943c f5f8 d73a a861 49bb b098 b3bb
00000180: 57ca 943d 36bc fe3b 88cf 07bc 3e9b a1bb
00000190: 171b 4dbd 8e06 42bb f714 9abd e9c2 2d3c
000001a0: c12f 32bc a034 f6bc f81a c13d 1ea4 31bd
000001b0: 9b27 823c 6bad a3bc fa17 5f3c 3742 b63d
000001c0: 9d36 33be dc00 48bd a3c2 febc 0341 5e3c
000001d0: 2230 bdbc d539 fbba 2ab5 04bb cb8f 7dbb
000001e0: 7605 3dbc dff7 ab3b b645 cbbc 6b35 7b3c
000001f0: 90bd b33c dd75 373d bbfd 183e 0bf3 a5ba
00000200: c481 7c3f 5810 533d d94a 843b d49a 503d
00000210: c95e c4bd 2baa 00be a4be a63c fd2f 0dbe
00000220: a870 e7bd 82d8 203e 1340 3dbc 2f14 a5bd
00000230: edb2 023e 6d05 1a3e ef75 103e 96e7 8ebd
00000240: 1d5c d33d 8c25 9e3d a21f a3bc 4768 bf3d
00000250: 5808 303e 03f8 8c3d e713 c4bd 5756 2d3e
00000260: 8bf9 29be e301 2c3e 693f 7cbd 4306 70bd
00000270: cadd cbbd 6bcc ab3d 3d00 a7bc 5e5c 20bd
00000280: 94d1 49bd ca1c 2ebd 4fb3 143c 67a1 853d
00000290: 735c 4e3d 4bd3 853d d134 4dbc b1f6 2d3d
000002a0: 8b87 613d f01b 5dbd 1ccd 33bd 90b1 d33b
000002b0: ff8d 30bd df75 8fbd 9159 a93b 9d7b 6cbd
000002c0: 54d4 333e b5fd 86bd f233 c9ba f8f8 83bd
000002d0: 5800 153a 22ef debd 3b7c 833c 03d9 e8bb
000002e0: 3ab9 133b 04c3 b4bc 3d38 4d3a 9e19 9a3a
000002f0: d5fe e03c 64c1 783b 7703 e33c 4e1f fab9
00000300: b355 b3bc c3bd 113c 045a c1bb b638 23bc
00000310: 0571 3d3c b367 28bb 4662 0c3c 9a2e 353a
00000320: bbdf b23b 96f4 043c 4b06 5dbc f476 3b3d
00000330: f80e 9a3a e196 143c 3116 943b 3439 91bc
00000340: 263b 9e3c 680e 353a 7a9e 2e3d 9c21 ff3b
00000350: 1056 973c d9ea bd3b 14ff 39bc 1d60 33bc
00000360: e8fd 85bb a9c4 2bbc 2dd8 533c a346 f43a
00000370: 8f73 043b 0049 8fbc 31ad 1dbd 7165 3fbb
00000380: afb8 81bd f2ec 08bd 2b1f 48bc 9a3b 0fbc
00000390: 29fc d5bb a0a5 693d 5e80 97bb 620f 39bc
000003a0: 70cf aebb 97a5 cbbc cefd 48bd 8f11 693d
000003b0: 336d f23a facd 50bc 9100 adbd 8af7 a4bc
000003c0: 0667 b43d bd58 493c 6ec2 933d b32c feb9
000003d0: 166c 1bbc bf9e b03b 5144 393d cf74 02bd
000003e0: 7cbf 5c3c 99fd acbd cca1 e83c 082b 1fbe
000003f0: 56b0 5fba 0480 02bd fa96 96bd 709a e33c
0.056832265 -0.0071871732 0.031130554 -0.007343944 0.013976635 -0.01448367 -0.027210139 0.0014643894
0.028422115 0.028321967 -0.013988332 0.044727236 -0.030042365 0.014253608 0.00017677525 0.03438386
-0.09951633 -0.053651016 0.0006646607 -0.004198942 -0.00024351258 -0.009870167 0.06332717 0.001368507
0.013214869 0.005167992 -0.0609843 -0.008591874 0.02268644 -0.027957525 -0.0066247988 -0.0008056413
0.094690725 0.0031965321 -0.040975098 0.004757162 -0.0013960811 0.017332282 0.021303512 -0.00010248533
-0.07313856 -0.03248634 0.056787618 -0.008661617 0.020150851 -0.02449843 0.05211584 0.078249365
-0.20895283 0.09604981 -0.0028143944 0.047215443 -0.023833409 0.10390058 -0.015769152 0.015615187
0.06512192 -0.057664197 -0.0023723398 0.019597633 -0.08715703 -0.0984264 -0.057792623 0.0286409
-0.035493843 -0.0034461638 0.02020793 0.010229036 -0.0030792363 -0.008839189 -0.009993985 -0.004373462
0.030948123 -0.012975782 0.0029139828 -0.007023558 -0.005614752 0.0058438107 -0.0012247306 -0.0033802884
0.04882572 -0.01736843 -0.0028040851 -0.026101401 -0.005765888 -0.031860024 0.010712455 0.0013415605
0.001859533 0.0058336165 -0.008853187 -0.0028307545 0.018130975 0.0016477393 -0.0030728374 -0.0054808483
0.07265156 0.0077739013 -0.008289225 -0.0049318364 -0.050074663 -0.0029605958 -0.0752353 0.010605552
-0.010875643 -0.03005439 0.09428972 -0.043369405 0.015888026 -0.019980153 0.013616556 0.08899348
-0.17501302 -0.048828945 -0.03109867 0.013565305 -0.02309424 -0.0019167016 -0.0020249584 -0.0038690444
-0.0115369465 0.0052480544 -0.024813514 0.01533256 0.021940976 0.044790138 0.1494054 -0.0012660933
0.98635507 0.05152926 0.004037243 0.050928906 -0.09588391 -0.12564914 0.020354576 -0.13787837
-0.11300784 0.15707591 -0.011550921 -0.0806049 0.12763567 0.15041132 0.14107488 -0.06977765
0.103203036 0.07722005 -0.019912545 0.09346061 0.17190683 0.06883242 -0.095741086 0.16927467
-0.165991 0.16797595 -0.06158391 -0.05859972 -0.09954412 0.08388599 -0.020385856 -0.03915059
-0.049272135 -0.042507924 0.009075954 0.06524926 0.050381135 0.065344416 -0.012524799 0.04247159
0.055060904 -0.05398172 -0.04389678 0.006460376 -0.043104168 -0.07004904 0.005168148 -0.057735074
0.17561466 -0.065913595 -0.0015350564 -0.064439714 0.000568395 -0.10885455 0.016050449 -0.007105948
0.0022540824 -0.022065647 0.00078285096 0.0011756902 0.027465263 0.0037957067 0.027711613 -0.0004770704
-0.02189145 0.00889534 -0.0059006233 -0.009962251 0.0115625905 -0.0025696575 0.008568352 0.0006911546
0.0054587997 0.008114954 -0.01349027 0.04576774 0.0011753729 0.009069175 0.004519247 -0.017727472
0.019315314 0.0006906749 0.042631604 0.007785989 0.018473655 0.0057958183 -0.011352319 -0.010948208
-0.004089106 -0.010483899 0.012929958 0.0018636774 0.002021048 -0.017490864 -0.038495246 -0.002920475
-0.06334054 -0.033429094 -0.012214462 -0.008742237 -0.006530304 0.057042718 -0.004623457 -0.011295171
-0.005334787 -0.024859233 -0.049070172 0.05690151 0.0018495679 -0.012744421 -0.08447374 -0.020137567
0.08808713 0.012289223 0.07214819 -0.0004847996 -0.009486219 0.0053900178 0.045231167 -0.03184968
0.013473388 -0.084468074 0.028397463 -0.15543759 -0.0008533051 -0.031860366 -0.07353015 0.027783602

arith.constant4 f4 [32, 3, 3, 32]
00000000: 61b8 813c 63ce 38bd e3ae 1f3d a444 b73b
00000010: 2a86 4039 2d17 e2ba b444 083c b1e2 e5b8
00000020: 0466 d4ba 0c92 21bc df3a 5bbc f25d c93a
00000030: c707 a6ba f877 e1bb 9ec0 2abb 0ac2 ed3b
00000040: 1bc4 b13b 5ba3 0abc 3f41 aabc cd31 503b
00000050: b018 ad3c b858 e53b 7f54 27bb 9e08 35bc
00000060: 7777 c1ba 01a3 be3a ea5c 08bc cc8e 023a
00000070: 88e8 e33a e2f1 68bd 13d0 b7ba 5a3e 663a
00000080: d30b dbbb 46af 203c 8c1d 253c f54a 3c3b
00000090: 2f5e 36bc 6b40 43bb ca90 fdbb 79f1 39bb
000000a0: 8f64 59ba f6f7 3d3c 9baa 703c 4e78 ddbb
000000b0: 74cb 603c aaa0 cd3b 9282 393c 672f 29bc
000000c0: c8cd 4f3d cff3 27ba 3f89 7f3a e3b0 133b
000000d0: 940c dc3a a4b6 803c b3ba 483b c42b 6b3b
000000e0: 5d94 c6ba 21ba 35bc c6d4 283c 0241 20bc
000000f0: 0b22 37bd af55 17be 4059 6bbc 87b8 943c
00000100: f349 003c f4bc 8a3c 713f b2bc cc61 943b
00000110: dd3c 84bb 1ac7 8eba b894 7b3b 0b9f 73ba
00000120: 4ac1 e93b daca febb c003 84bb 8918 463b
00000130: f343 bfbb 5077 aa3b ab14 62ba 695e 90b9
00000140: d9ef 81bc 0a5a b63b dac5 31bc 4e58 09b9
00000150: 5850 183c 991f 09bb 05a5 5e3b 5c45 97b9
00000160: 5605 44ba 87d2 b4ba e339 96bb 9981 233b
00000170: 9f7c 2a3c 1382 e6bc c760 70bb fa64 65bb
00000180: e9bc cdba af7c 2ebc 92c5 59bc 97d6 4bbb
00000190: 1519 14bb 749f 893b 5bca 97bb 9831 82bc
000001a0: 85da 2e3b ea9b dabb ffb9 4cbc 19fc e33b
000001b0: 1bd1 1bbc 3d8f 23bb 4a2d cabc da6c 0b3c
000001c0: 8109 273d 21ec 833c becd dc3a b0d4 9e3b
000001d0: c883 4ebd 6d9c 24bc 2578 afbb b27b 4dbc
000001e0: 2f8b acbb 7496 5f3b c7d0 bd3b c849 183c
000001f0: 43e8 9339 1b3c cb3c 8372 cebb 9548 9c3b
00000200: c88a 7e3f 4aac e5bc c9de 283d 0030 57bc
00000210: 9b04 f43b 3df2 15ba 5b68 dabb b5d9 443c
00000220: fdb3 ba3b f623 bf3c 3095 823c 8c4a 4a3c
00000230: 6c04 34ba e587 7a3c 69fc ef3a 5fa9 633c
00000240: 0e87 1dbe fb59 9abc 661f 853c 89b9 82bc
00000250: 9450 8e3c cf6e 8eb9 d87c d43b 8907 ac3c
00000260: 4d9f f83b 60d4 a2bb b1e7 943b b59d 6ebc
00000270: 463b b63d 5d13 61bc c7b8 d63c 480d a5bc
00000280: ef27 c93c 161e 533d 3e11 ccbc 7ba4 503b
00000290: d85a 1f3b 44ef a13b 6a09 ca3a 2aa2 893b
000002a0: 992c 6e3a ec57 21bc a4d0 44bc 2c97 1f3c
000002b0: 16ba b1bb f0f6 75bb d829 29bc 4032 1fbb
000002c0: 4c1a 233d eaa9 12bc 109a 4a3b 8117 2bbb
000002d0: 7d9a 71bc b00b 29bc a106 82ba 4063 f4bb
000002e0: db3c 82bb 0ffa 3c3c 681c 45bc 4bdf 2c3b
000002f0: 4590 f3bc 3a92 833b 2a2c 2cbc 6000 10bc
00000300: 8cd3 25b9 5a3c 253d ce76 83bb db44 e039
00000310: 3d95 ab3a ebdb 6a3a 9788 5c3b 0a67 103b
00000320: f3c6 d1bb 2f14 b6bb 98e4 033c fbdc 41bc
00000330: 6294 abbb 2127 c4bb 6f04 7a3a 5383 d837
00000340: c717 62bc a750 84bc d620 853c 7953 893b
00000350: ed1f 8fbc a3c5 49bc 8e62 01bb 4c0d 6bbb
00000360: 349c deb9 de05 493c aedc 8e3b 66a6 3d3c
00000370: 98fe 603c fbf7 1bbb 8a02 2f3b e9df f23b
00000380: 8400 193d d458 a2bc 52dd 7ebc 0ea8 c4ba
00000390: f6ae b1ba 8461 eeba e221 52bc 9ed0 7e3b
000003a0: 66ef 58bb f8e4 3e3c 8f40 203c 7210 18bc
000003b0: aa6a 1e3a f6d4 aebb 4217 9f3c 2b7c dabb
000003c0: a05d 1b3d 798f 863c 797e 4fbc ec0c a5bb
000003d0: baf0 583c b508 cc3c de41 57bb 227a f0b8
000003e0: e5fb 1d3b 7532 2abc 6d78 65ba 7052 20bc
000003f0: a57d e9bc fe20 87bc 8708 7b3c a29d 323c
0.015834989 -0.0451187 0.038985144 0.0055928994 0.00018360527 -0.0017249339 0.008317161 -0.000109617955
-0.001620472 -0.00986148 -0.013380735 0.0015363081 -0.0012667113 -0.0068807565 -0.002605475 0.0072557973
0.005424989 -0.008461799 -0.020783065 0.0031767965 0.021129936 0.0069991015 -0.0025532541 -0.011049418
-0.0014760335 0.0014544429 -0.008322934 0.0004980385 0.0017388025 -0.056871302 -0.0014023803 0.0008783095
-0.006684759 0.009807413 0.010077845 0.0028731201 -0.011130854 -0.0029793035 -0.0077382075 -0.0028372689
-0.00082928775 0.011594763 0.014689113 -0.006758726 0.013720382 0.006275256 0.011322634 -0.010326243
0.050733358 -0.0006406875 0.0009747929 0.0022535853 0.0016788417 0.01571209 0.003062886 0.003588424
-0.0015150417 -0.01109174 0.010304635 -0.009781124 -0.0447102 -0.1477878 -0.014364541 0.018154396
0.007830131 0.016935803 -0.021758767 0.00452826 -0.004035576 -0.0010893077 0.0038388204 -0.00092934136
0.0071336376 -0.0077756466 -0.0040287673 0.0030227026 -0.0058369576 0.0052022114 -0.00086242956 -0.0002753616
-0.015861439 0.0055649327 -0.010850394 -0.00013098234 0.009296499 -0.0020923375 0.003397287 -0.0002885264
-0.0007477602 -0.0013795652 -0.0045845374 0.0024949072 0.010405689 -0.028138196 -0.0036678778 -0.0035002814
-0.0015696558 -0.010649844 -0.013291733 -0.0031103247 -0.0022597958 0.0041999165 -0.004632277 -0.015892789
0.002668054 -0.0066714184 -0.012495517 0.0069575426 -0.009510304 -0.0024957203 -0.024679799 0.008509839
0.040780548 0.016103806 0.0016845984 0.0048471317 -0.050418645 -0.01004706 -0.0053548985 -0.012541698
-0.0052656154 0.0034116777 0.0057927105 0.009294935 0.00028211073 0.024808934 -0.006300272 0.0047693946
0.99430513 -0.028036255 0.04122809 -0.013134003 0.007446838 -0.0005719995 -0.006665272 0.012014796
0.005697726 0.023332577 0.015940279 0.012346875 -0.0006867114 0.015291189 0.0018309477 0.013895362
-0.1538355 -0.018841734 0.016250324 -0.01595761 0.017372407 -0.0002716691 0.006484609 0.020999687
0.0075873495 -0.0049691647 0.0045442213 -0.0145639675 0.08898024 -0.013737527 0.026211156 -0.020147935
0.024555175 0.051542364 -0.024910565 0.003183632 0.0024315622 0.0049418528 0.0015414183 0.0042002397
0.0009085625 -0.009847622 -0.012012634 0.009740632 -0.0054237945 -0.003753122 -0.010324918 -0.0024291426
0.03982 -0.0089516435 0.0030914582 -0.0026106539 -0.0147463055 -0.010317728 -0.0009920188 -0.0074581206
-0.0039745397 0.011534228 -0.012030698 0.002637821 -0.029731879 0.0040152343 -0.010508576 -0.008789152
-0.00015814434 0.04034076 -0.0040119654 0.0004277591 0.0013090741 0.0008959162 0.003365075 0.0022034072
-0.0064018904 -0.0055566053 0.0080501065 -0.011832471 -0.0052361945 -0.00598611 0.0009537404 2.581036e-05
-0.013799614 -0.01615174 0.016251009 0.004190859 -0.017471278 -0.012315187 -0.001974258 -0.003586608
-0.0004245952 0.012269465 0.004359803 0.011575317 0.013732575 -0.002379893 0.0026704394 0.007411946
0.037354007 -0.019817747 -0.015555697 -0.0015003697 -0.0013556171 -0.0018187021 -0.012825461 0.003888167
-0.0033101677 0.01165127 0.009781017 -0.009281265 0.0006043116 -0.0053354455 0.01942027 -0.006667634
0.037931085 0.016425835 -0.012664431 -0.005036941 0.013240987 0.024906496 -0.0032845656 -0.00011466841
0.002410644 -0.010388006 -0.00087536016 -0.00978528 -0.028502295 -0.016495224 0.015321857 0.01090184

arith.constant5 f4 [32, 3, 3, 32]
00000000: 85d0 2ebc 0a10 ac3c fc33 2dbc e4aa f3bc
00000010: 40f3 693b 4053 263c a015 d73b 5073 823a
00000020: 82cf efbb e2b6 093c 8ddf af3c 34f6 253d
00000030: 00fb a0bb 5c94 113c a5ad 313b 43f1 cebc
00000040: 3c27 9cbb e30e 093c 636d 133c 7c8d 83b9
00000050: 38c4 253a 0be6 54b9 71d6 b33a dff7 02bb
00000060: 4525 96bc dfe9 a6bc f959 e9bb cd4e 52bc
00000070: a1d8 c43a c538 b8bb 5b4c eebb ebca 41bd
00000080: 3e84 883c b3d4 88bc fa1c 573d 020f 16bc
00000090: ac75 72bb 4dff 18bc 30ff 5a3b ffd1 833b
000000a0: d736 3bbc bd78 b33c ad90 3a3c 9f21 4a3d
000000b0: b8ee bd3c 2e7f a03c ff72 fabb 8912 e03c
000000c0: 33f9 e93c 50fc d0bb 538e 9b3b c294 043c
000000d0: 6512 ccbb f69c 13bc 2bbc f3bb 9252 be39
000000e0: c845 9c3b 747e 7abd 2b65 a3bb 4c2f 213c
000000f0: 4748 74bb 8e3a 883b 9051 f73c 66fc 3c3c
00000100: 7929 72bd f429 9ebc 990d 2fbd 9e9f 2dbb
00000110: 2c24 a8bb fb8f 96bc c7d6 be3b bbf7 1aba
00000120: 01ed c5bb fb2a 76bb 2664 68bc e6bc b63c
00000130: efc9 50bc 5780 0c3b dfc7 813b 4ffb a1ba
00000140: dcf9 95bc 39bf 153b 1dab 3e3b 4e87 b339
00000150: 9ae3 623b 8865 8d3b 609c e63a cba6 2fbc
00000160: 5045 a8bb 61c7 0abd bbb9 d03a 24b3 233c
00000170: 0986 10bb c904 0cbc fc0d 053c c926 76bc
00000180: bb48 b33c 293d 31bc d1bb c8bb f52c b93c
00000190: 3861 2d3c cf4f b43b c0bf 4a3b 36f8 013b
000001a0: fb51 76bb 7138 3ebc e1ec 073c 1ba8 49bd
000001b0: 526f 7bba defe 7f3a 1fcc 273b def9 d63b
000001c0: 2a90 af3c 6e2d 1d3b e185 cf3a 801c acbb
000001d0: aa12 983c feb3 a5bc 67f4 45bb e97c 01bc
000001e0: 4965 613c 69b6 0a3e eadf 14ba 1d6a 1c3c
000001f0: ea40 e53b 55b9 b0bb 95e3 c7bc 1ad6 6939
00000200: f3fa 733f 70e2 b13c 92b7 ebbc dd93 493c
00000210: db8d 933c c5f0 27bc 6689 c3ba d50b e3bb
00000220: 35ca 8b3c 62d4 08bd b10d d93a c40a 8f3d
00000230: 5b35 d4bb 9d5d babc e870 163b b119 91bc
00000240: 7c5d adbd 5c4b 1abb f559 90bb 6120 babb
00000250: 06b5 763c f90b 3f3c 8b03 f13c 4752 2839
00000260: 1f9c dcbc 9cb6 e8bc a477 c33b d9dc 5ebc
00000270: 923b dabb fe62 c53b d8cb 8a3d ee83 fabc
00000280: 05b1 713d 3069 27bd e372 1f3d bf9d 223b
00000290: 6606 b73b 38c9 273d 457a 47bb ec58 79bc
000002a0: b037 273c a650 3c3d c355 ebbb 29ae 7ebd
000002b0: ef49 58bb afb9 993c dbe9 0c3b 012a 863b
000002c0: 1757 743d 6885 4a3b c08c d2bb 555a a43b
000002d0: 2455 1abc 3975 28b9 0967 7abc b0dc 433b
000002e0: 63b3 ec3c 550d b83c 35d9 223b 423c cb3c
000002f0: 43dd 0c3c d8bc 7b3c 5d2a 153d 22cf f4bb
00000300: e39c 0fbd dd95 bd3c 9880 fc3c 4411 88bb
00000310: 6567 903c 322a 923b 40f9 6fbc 3b15 bf3b
00000320: 578e 913b 6930 2cbc 1b99 a5ba 9a4b d4ba
00000330: 1800 93bb 8530 a6bb 284d afbb 5322 9d3c
00000340: 85ca 42bb ed25 99bb 7fbd 0d3a d0d4 febb
00000350: b455 dbbc 02df 2f3b dd48 e338 9b9e 77bb
00000360: cec1 93bb f9c1 db3c 6fe8 963b b54a 78bc
00000370: ca23 393b 8722 3739 a90b 97bd aaac 9b3d
00000380: e034 23bc 0285 543c 87f7 46bd 4846 dc3b
00000390: 28bb 3bbb 1aa6 743a 239e 033b 2454 2cba
000003a0: 9e01 b3bb 6908 4139 3b77 fdbb 9e0d 81bd
000003b0: 53a4 c23b ff23 53bb b447 ae3b a461 dd3c
000003c0: c947 df3c 0ba0 7ebb 8506 88bb ee30 b03c
000003d0: efef 91bc 9f7e 75b9 2962 e1bb 0cf9 b0bb
000003e0: fa85 84bc 52fb 37bd c0c8 413b 91d7 dbbb
000003f0: 0978 08bc cc41 99bc a509 053c 8008 483c
-0.010669832 0.021003742 -0.010571476 -0.029744573 0.0035697967 0.010151684 0.006563857 0.0009952579
-0.007318438 0.008405419 0.021468902 0.040518 -0.004912734 0.008885469 0.0027111557 -0.025261527
-0.0047654193 0.008365366 0.008998248 -0.0002509168 0.00063234894 -0.00020303593 0.0013720525 -0.0019984168
-0.018328318 -0.02037519 -0.0071213213 -0.01283617 0.0015018174 -0.005622002 -0.007272286 -0.04731266
0.01666462 -0.016702985 0.05251787 -0.009158852 -0.0036996407 -0.009338212 0.0033416264 0.004022836
-0.011426649 0.021908158 0.011387032 0.04934847 0.023185119 0.019591894 -0.007643103 0.027352588
0.02856121 -0.0063777342 0.004747191 0.008092107 -0.0062277787 -0.00900959 -0.007438203 0.00036301144
0.0047690608 -0.06115575 -0.0049864254 0.009837937 -0.0037274526 0.004157371 0.03019026 0.011534786
-0.059121583 -0.019307114 -0.042737577 -0.0026492844 -0.005131265 -0.018379202 0.0058239433 -0.00059115485
-0.006040216 -0.003756224 -0.0141840335 0.02230687 -0.012743457 0.0021438801 0.003960594 -0.0012358221
-0.018307619 0.0022849573 0.002909369 0.0003424235 0.0034620524 0.004315082 0.0017594211 -0.010720919
-0.005135216 -0.03388155 0.0015924493 0.009991441 -0.0022052547 -0.008546063 0.00812101 -0.015023896
0.021885267 -0.010817804 -0.006125905 0.022604445 0.010582261 0.005502678 0.0030937046 0.0019831783
-0.0037585485 -0.011610136 0.008296222 -0.049232583 -0.0009591478 0.0009765456 0.0025603843 0.006560548
0.021431047 0.0023983377 0.0015832746 -0.005252421 0.018563587 -0.020227429 -0.003020549 -0.007903316
0.013757058 0.13546146 -0.0005679118 0.009546784 0.0069962637 -0.005393187 -0.024400512 0.0002230037
0.95304793 0.02171442 -0.028774057 0.01230332 0.018011978 -0.010250275 -0.0014918267 -0.0069289007
0.017064193 -0.03340567 0.0016559866 0.06984475 -0.006476087 -0.022749716 0.002295548 -0.017712446
-0.08465096 -0.0023543453 -0.004405255 -0.0056801294 0.015057808 0.011660569 0.029420635 0.00016052379
-0.026929913 -0.028407387 0.00596519 -0.013602459 -0.0066599334 0.0060237637 0.06777161 -0.030580487
0.05900671 -0.0408718 0.038927924 0.0024813262 0.0055854796 0.04096338 -0.0030437869 -0.0152189545
0.010206148 0.04597535 -0.0071818545 -0.06217781 -0.0033003052 0.018765299 0.0021501693 0.0040943627
0.059653368 0.003090227 -0.00642547 0.005015651 -0.009419713 -0.00016065397 -0.015283355 0.0029886179
0.028894132 0.022467295 0.0024848704 0.024809007 0.008597675 0.015364848 0.036417354 -0.007470981
-0.03506173 0.02314275 0.030823037 -0.004152449 0.017627427 0.0044605965 -0.014646828 0.0058313883
0.004442017 -0.010509589 -0.001263413 -0.0016196847 -0.004486095 -0.005071702 -0.005349774 0.019181406
-0.0029722762 -0.0046737106 0.000540696 -0.007776834 -0.026774265 0.0026835804 0.00010837775 -0.0037783745
-0.0045091873 0.026825892 0.004605345 -0.01515453 0.0028250092 0.00017465102 -0.07375271 0.076012924
-0.009961337 0.012971165 -0.048575904 0.0067222454 -0.002864549 0.00093326124 0.002008327 -0.0006573817
-0.0054628393 0.00018409047 -0.0077351606 -0.063014254 0.005939999 -0.00322175 0.0053186063 0.027024098
0.02725591 -0.0038852717 -0.004151168 0.021507706 -0.017814605 -0.00023412191 -0.0068781567 -0.0054007825
-0.016177166 -0.044917412 0.002956912 -0.006709047 -0.0083294 -0.018708132 0.008119975 0.012209058

model/tf.nn.convolution/convolution f4 [32, 3, 3, 3]
00000000: 3bf4 353d eaed a03c 4655 53bd 9522 2dbd
00000010: fe3c bb3b 8956 23bd f978 883d 8692 a03c
00000020: b554 533d 771b b8bd 55ff 8b3d 3f9d 093d
00000030: 05b0 873f d07f 64bd 2590 28bc e62a d8bd
00000040: 47ac cb3b 52f8 13bd 36d8 d03d 6b74 e6bd
00000050: cf77 113a f607 86bd 050a e73c 204e 663d
00000060: 1013 01bd 6909 873b 6d04 243d 5686 163d
00000070: e5dc 003d f5bc 953d 681e 1e3c c6be 29be
00000080: 88f1 49bc 0993 8c3d a3f5 b6bd 056a d8bd
00000090: ec7f c2bd 9954 7c3d 735a adbd 994a 79bd
000000a0: 8b19 8a3f 42b8 c1bd 6b31 bcbd bacd ea3d
000000b0: 4bad 3c3d 98fd babd 43ff 773d b2fe c5bd
000000c0: 7633 793d 0437 393d f917 07bd ed81 a6bd
000000d0: e88f 04bd 4467 21bd 09cc ebbc dff6 0fbc
000000e0: b478 7fbd 31a3 16bd d9bf 06bd 6fb0 823d
000000f0: 47bf c3bc 2ebb c23b 512d e73c 5e71 07be
00000100: a750 763d f3cc b23c c7b0 b63d 4bfd 2c3e
00000110: 4170 6f3f 2c8f 9e3d e70f aabd 7a2b 76bc
00000120: cefa 723d 2488 e4bd 7bad a33d 9437 76bd
00000130: 4e44 8abd 57ab 93bd aeb8 fbbc 344e 3d3d
00000140: 3a7f 313c 4191 b33c d255 993b c5fb f93c
00000150: 89e0 d33c 37be 6f3d 4b82 dbbc a012 a63c
00000160: 784d 4a3b 6091 3f3d 9b08 ecbd caa4 0abe
00000170: 9b68 eebd c13c 0b3e b497 093e 75ec dc3d
00000180: 6e39 2dbe dd9d 3bbe 56f0 debd 06e5 113d
00000190: 77cb 993d eac3 2b3d 2e64 9bbc a47a 93bc
000001a0: 51be 04bb d273 823d caff 7e3d 650e ca3c
000001b0: 7a99 f13d dd38 75bd 4bd2 5dbc f445 1c3f
000001c0: 9d6c 3a3e cdd6 c33d f72c 81be 1ba7 dbbd
000001d0: 5a1d e9bc 7e65 d6bd 3b81 993d 12e0 c03a
000001e0: 8ec6 41be 9a5e 24bd 33dc 90bc 41bc 03bc
000001f0: 210b ffba ec32 39bd 6b86 173d ddad dcbc
00000200: 817b a5bb ce35 383d 671e febb 60fc 023b
00000210: 0a05 e23c 5fc2 fe3a 5a0e a33c 2e9f b33d
00000220: 4f8a c7bc e46e 203d 1ab8 e13c 8b3e 493c
00000230: 4a82 00bd 9a73 95bc 8996 9b3c 88b0 b23b
00000240: 56bd 01c0 1cd6 143e 2671 9dbd e074 aa3e
00000250: 4e3c 2fbd 772a 513d f83b 91bd bbbc b23c
00000260: 4a0c 05bd be33 f33c 8f23 5dbd 02aa 1d3d
00000270: 57ac 38bc 4911 d53c a6ec 543a 6dfc 993a
00000280: 2e7e 38ba bb3c 253b 7833 323c b39e 223d
00000290: c180 a3bc 4279 92bd 0bed 8dbd 2108 31c0
000002a0: e8d1 fe3c 7c30 8f3c 2364 02bb 9592 033d
000002b0: 5982 0cbd 9cc8 213c 50a9 733d e97f 063d
000002c0: 8c82 4e3d acec 9fbc 14da c23c 454b 6fbc
000002d0: 1a3c b3bc 81b8 0e3d 2cd9 e2bc 7f9d 92bb
000002e0: a44e 5cbb b9d9 1bbc 7621 263c 52c7 d43a
000002f0: dd7a 18bb ec69 403e 1366 903e 0c26 343e
00000300: ee26 7c3c 3b8b 333d 901c 2bbd 65d5 abbb
00000310: d8c2 6b3c 4578 973a e167 93be 49cb 07bf
00000320: ce4b a6be 6aa7 a0bd ccea 6dbd 7819 fe3c
00000330: d18a bf3b 8286 e4bc 1448 893c 5fd4 103e
00000340: 1826 833e 2010 1e3e 510e 783c 526a bb3c
00000350: 7332 efbb 9016 a43b 9c2a 0dbb 0dec d7bb
00000360: ef37 b33b ba87 24bd 74dc 173c 5b56 dc3b
00000370: 68fb bf3b 636a 96bc 58ad 9f3c ac49 eb3b
00000380: c9dc a1bb 2e72 40be c581 80be c041 a4be
00000390: d1db 183d 9fca 063d 7776 073d aa1a a83c
000003a0: f898 d53d 276f 3b3e ee80 213d 690b ab3d
000003b0: a4f0 f83d 425b a23d 43a6 303d 04d6 b43d
000003c0: 8264 d0bc 6c9c 5e3c 4eef b9bd cb55 abbd
000003d0: a865 02be 29de 10bd 3592 c53d 4e55 043e
000003e0: 257a bf3c 941b 75bc e579 58bc d663 6cba
000003f0: c0bd 55be 51d4 2cbe a8ed bdbc 41e5 8a3e
0.04442237 0.019644696 -0.051594995 -0.042269308 0.005714058 -0.03987745 0.06663699 0.019601118
0.051594455 -0.089896135 0.0683581 0.033597227 1.0600592 -0.055785954 -0.010288273 -0.10555057
0.0062156054 -0.03612549 0.10197489 -0.11252674 0.0005549164 -0.06544487 0.02820302 0.05622685
-0.03151232 0.004120995 0.040043283 0.036749206 0.03146066 0.07311431 0.009650804 -0.1657668
-0.012325652 0.06863982 -0.0893357 -0.105670966 -0.094970554 0.061604116 -0.084645174 -0.060862157
1.0789045 -0.094589725 -0.09189113 0.114650205 0.046063703 -0.091304004 0.06054617 -0.0966772
0.060840093 0.045218483 -0.032981846 -0.0813025 -0.032363802 -0.039405122 -0.028783815 -0.008786886
-0.06237097 -0.036776725 -0.032897804 0.06381308 -0.02389492 0.0059427237 0.02821985 -0.1322684
0.06013551 0.021826243 0.08920436 0.16893499 0.9353066 0.077421516 -0.083038144 -0.015025014
0.059321217 -0.11158779 0.07992073 -0.060111597 -0.06751309 -0.07210415 -0.03072771 0.04621716
0.010833556 0.021919848 0.00467942 0.03051556 0.025863903 0.058531012 -0.026795527 0.020272553
0.003086893 0.0467695 -0.11525079 -0.13539425 -0.11641046 0.13597395 0.13436776 0.10787288
-0.16916439 -0.18321939 -0.10885684 0.035618804 0.07509511 0.041934885 -0.018968668 -0.018002816
-0.002025504 0.06369747 0.06225566 0.024665067 0.117968515 -0.059868682 -0.013538907 0.6104424
0.18205495 0.095624544 -0.25229618 -0.10725232 -0.028456379 -0.10468577 0.07495352 0.0014715216
-0.18923399 -0.04012928 -0.017683124 -0.008040489 -0.0019458273 -0.04521458 0.036993425 -0.026938373
-0.005050123 0.044973187 -0.007755089 0.0019986853 0.027590293 0.0019436589 0.019904304 0.087705955
-0.024357943 0.039168254 0.027553607 0.012282978 -0.031374253 -0.0182436 0.01899268 0.005453173
-2.0271811 0.14534801 -0.07687597 0.33292294 -0.04278212 0.05106589 -0.07091516 0.02181851
-0.032482423 0.029687759 -0.05398899 0.03849221 -0.011271558 0.026009219 0.00081224216 0.0011748202
-0.0007037845 0.00252132 0.010876529 0.03970213 -0.019958856 -0.07152034 -0.06929978 -2.7661211
0.03110595 0.017479174 -0.0019896112 0.032122213 -0.034303997 0.009874489 0.05948764 0.03283683
0.050417468 -0.019522034 0.023785628 -0.014605348 -0.021879245 0.034843925 -0.027691446 -0.0044743414
-0.003361621 -0.009512358 0.010139814 0.0016233718 -0.0023266592 0.18790406 0.28202876 0.17592639
0.015390141 0.043833952 -0.041775286 -0.0052439445 0.014389716 0.0011556229 -0.2879019 -0.53044564
-0.3247971 -0.07844432 -0.058085248 0.031018004 0.0058454056 -0.02789617 0.016758002 0.14143513
0.25615 0.15435839 0.015140132 0.022877846 -0.007299715 0.0050075725 -0.002154029 -0.0065894187
0.0054693143 -0.0401685 0.009268869 0.0067241616 0.0058588274 -0.018361276 0.019491836 0.007180413
-0.0049396497 -0.18793556 -0.25099006 -0.32081413 0.03731901 0.03290808 0.03307196 0.020520527
0.10429567 0.1830412 0.039429598 0.08351786 0.121552736 0.07927562 0.04312731 0.08829883
-0.02543855 0.013587099 -0.09078847 -0.08365973 -0.12734091 -0.03536812 0.096470274 0.12923166
0.023373673 -0.014960188 -0.013212656 -0.0009017562 -0.20873165 -0.16877867 -0.023184612 0.27128032

model/tf.math.add/Add;model/tf.nn.convolution/convolution;model/tf.math.add/Add/y f4 [32]
00000000: c7d4 813c ee1e b5bb d418 24bd 2225 1e3b
00000010: 81a3 99be e618 2e3c f44c 073d 5faf 22ba
00000020: 5e16 0a3b 6376 473a e93b 1c3c ab7f 803d
00000030: ebc4 be3a 96b1 123d 2807 9eba f788 6a3d
00000040: e93f d8be 1aa6 fb3b e9ab 35bb 022f 98ba
00000050: 2c19 5d3a 766f 51ba c0a3 f4ba fee0 02b9
00000060: 9320 713c b3c0 403d c2c7 9739 1250 1e3c
00000070: df97 44be 285a f3b9 d8e1 463d 864f 503d
0.01584853 -0.0055273687 -0.04006274 0.002413102 -0.30007556 0.010626053 0.033032373 -0.0006205942
0.002107046 0.00076088886 0.009535768 0.06274351 0.0014554536 0.03581389 -0.0012056576 0.057259526
-0.4223626 0.007679713 -0.0027720875 -0.0011610689 0.0008434232 -0.0007989326 -0.0018664524 -0.00012481582
0.014717239 0.047058772 0.00028949796 0.009662645 -0.19198559 -0.00046415743 0.048555225 0.05085709
