app/src/main/assets/models/quicksrnet_small_2x_720p_v1_float16.tflite (tflite, 51072 bytes, 8 tensors)

arith.constant f2 [32]
0.01585 -0.005527 -0.04007 0.002413 -0.3 0.01063 0.03302 -0.0006204
0.002108 0.000761 0.00954 0.06274 0.001455 0.03583 -0.001205 0.05725
-0.4224 0.00768 -0.002771 -0.001161 0.0008435 -0.0007987 -0.001866 -0.0001248
0.01472 0.04706 0.0002894 0.00967 -0.192 -0.0004642 0.04855 0.05084
00000000: 0f24 a99d 21a9 f118 cdb4 7121 3a28 1591
00000010: 5118 3c12 e220 042c f615 9628 f094 542b
00000020: c2b6 dd1f ad99 c194 e912 8b92 a597 1788
00000030: 8923 062a be0c f320 25b2 9b8f 372a 822a

arith.constant1 f2 [32, 3, 3, 3]
0.04443 0.01964 -0.0516 -0.04227 0.005714 -0.0399 0.06665 0.0196
0.0516 -0.0899 0.06836 0.0336 1.061 -0.0558 -0.01029 -0.1055
0.006214 -0.03613 0.102 -0.11255 0.000555 -0.0654 0.0282 0.0562
-0.03152 0.00412 0.04004 0.03674 0.03146 0.0731 0.00965 -0.1658
-0.01233 0.06866 -0.08936 -0.10565 -0.095 0.0616 -0.08466 -0.06085
1.079 -0.0946 -0.0919 0.1146 0.04605 -0.0913 0.06055 -0.0967
0.06085 0.04523 -0.033 -0.0813 -0.03235 -0.0394 -0.02878 -0.00879
-0.06238 -0.03677 -0.0329 0.06384 -0.0239 0.005943 0.02821 -0.1323
0.06015 0.02182 0.08923 0.169 0.9355 0.0774 -0.083 -0.01502
0.05933 -0.1116 0.0799 -0.06012 -0.0675 -0.0721 -0.03073 0.0462
0.01083 0.02193 0.00468 0.03052 0.02586 0.05853 -0.0268 0.02028
0.003086 0.04678 -0.11523 -0.1354 -0.1164 0.136 0.1344 0.10785
-0.1692 -0.1832 -0.1089 0.0356 0.0751 0.04193 -0.01897 -0.018
-0.002026 0.0637 0.06226 0.02466 0.118 -0.05988 -0.01354 0.6104
0.182 0.09564 -0.2522 -0.10724 -0.02846 -0.1047 0.07495 0.0014715
-0.1892 -0.04013 -0.01768 -0.00804 -0.0019455 -0.04523 0.037 -0.02693
-0.00505 0.04498 -0.007755 0.001999 0.02759 0.001944 0.0199 0.0877
-0.02435 0.03915 0.02756 0.01228 -0.03137 -0.01825 0.019 0.005455
-2.027 0.1454 -0.0769 0.333 -0.0428 0.05106 -0.0709 0.02182
-0.03247 0.0297 -0.054 0.03848 -0.01127 0.02602 0.000812 0.001175
-0.000704 0.002522 0.01088 0.0397 -0.01996 -0.07153 -0.0693 -2.766
0.03111 0.01749 -0.00199 0.03214 -0.0343 0.00987 0.05948 0.03284
0.0504 -0.01952 0.02379 -0.0146 -0.02188 0.03485 -0.0277 -0.004475
-0.00336 -0.009514 0.01014 0.001623 -0.002327 0.1879 0.282 0.1759
0.01539 0.04382 -0.04178 -0.005245 0.01439 0.001156 -0.2878 -0.5303
-0.3247 -0.0784 -0.05807 0.03102 0.005844 -0.0279 0.01675 0.1415
0.256 0.1544 0.01514 0.02287 -0.0073 0.00501 -0.002153 -0.006588
0.00547 -0.04016 0.00927 0.006725 0.00586 -0.01836 0.01949 0.00718
-0.00494 -0.188 -0.251 -0.3208 0.03732 0.0329 0.03308 0.02052
0.1043 0.183 0.03943 0.0835 0.1216 0.0793 0.04312 0.0883
-0.02544 0.01359 -0.09076 -0.0837 -0.1273 -0.03537 0.0965 0.1293
0.02338 -0.01496 -0.013214 -0.0009017 -0.2087 -0.1688 -0.02318 0.2712
00000000: b029 0725 9baa 69a9 da1d 1ba9 442c 0525
00000010: 9b2a c1ad 602c 4d28 3e3c 24ab 45a1 c1ae
00000020: 5d1e a0a8 872e 34af 8c10 30ac 3827 322b
00000030: 09a8 381c 2029 b428 0728 ae2c f120 4eb1
00000040: 50a2 652c b8ad c3ae 14ae e32b 6bad caab
00000050: 513c 0eae e2ad 562f e529 d8ad c02b 30ae
00000060: ca2b ca29 39a8 34ad 24a8 0ba9 5ea7 80a0
00000070: fcab b5a8 36a8 162c 1ea6 161e 3927 3cb0
00000080: b32b 9625 b62d 6831 7c3b f42c 50ad b1a3
00000090: 982b 24af 1d2d b2ab 52ac 9dac dea7 ea29
000000a0: 8c21 9d25 cb1c d027 9f26 7e2b dca6 3125
000000b0: 521a fd29 60af 55b0 73af 5a30 4d30 e72e
000000c0: 6ab1 ddb1 f8ae 8f28 ce2c 5e29 dba4 9ca4
000000d0: 2698 142c f82b 5026 8d2f aaab efa2 e238
000000e0: d331 1f2e 09b4 ddae 49a7 b3ae cc2c 0716
000000f0: 0eb2 23a9 87a4 1ea0 f897 caa9 bc28 e5a6
00000100: 2c9d c229 f19f 1818 1027 f617 1825 9d2d
00000110: 3ca6 0329 0e27 4a22 04a8 aca4 dd24 961d
00000120: 0ec0 a730 ecac 5435 7aa9 892a 8aac 9625
00000130: 28a8 9a27 e9aa ed28 c5a1 a926 a712 d014
00000140: c491 2a19 9221 1529 1ca5 94ac 6fac 88c1
00000150: f727 7a24 1398 1d28 64a8 0e21 9d2b 3428
00000160: 742a ffa4 1726 7aa3 9aa5 7628 17a7 959c
00000170: e29a dfa0 3121 a616 c498 0332 8334 a131
00000180: e123 9c29 59a9 5f9d 5e23 bc14 9bb4 3eb8
00000190: 32b5 05ad 6fab f127 fc1d 24a7 4a24 8730
000001a0: 1934 f130 c023 db25 7a9f 211d 6998 bf9e
000001b0: 9a1d 24a9 bf20 e31e 001e b3a4 fd24 5a1f
000001c0: 0f9d 04b2 04b4 22b5 c728 3628 3c28 4125
000001d0: ad2e db31 0c29 582d c82f 132d 8529 a72d
000001e0: 83a6 f522 cfad 5bad 13b0 87a8 2d2e 2330
000001f0: fc25 a9a3 c4a2 6393 aeb2 67b1 efa5 5734

arith.constant6 f2 [32, 3, 3, 32]
-0.01067 0.02101 -0.010574 -0.02974 0.00357 0.010155 0.006565 0.000996
-0.007317 0.00841 0.02147 0.04053 -0.004913 0.00889 0.00271 -0.02527
-0.004765 0.00836 0.008995 -0.0002508 0.0006323 -0.000203 0.001372 -0.001999
-0.01833 -0.02037 -0.007122 -0.01283 0.001502 -0.005623 -0.00727 -0.0473
0.01666 -0.01671 0.05252 -0.009155 -0.0037 -0.00934 0.003342 0.004025
-0.01143 0.02191 0.01139 0.04935 0.02318 0.01959 -0.007645 0.02736
0.02856 -0.00638 0.004745 0.008095 -0.00623 -0.00901 -0.00744 0.000363
0.00477 -0.06116 -0.004986 0.009834 -0.003727 0.004158 0.0302 0.011536
-0.0591 -0.0193 -0.04272 -0.00265 -0.00513 -0.01837 0.005825 -0.0005913
-0.00604 -0.003756 -0.01418 0.02231 -0.01274 0.002144 0.00396 -0.001236
-0.01831 0.002285 0.002909 0.0003424 0.003462 0.004314 0.00176 -0.01072
-0.005135 -0.03387 0.001593 0.009995 -0.002205 -0.008545 0.00812 -0.01502
0.02188 -0.01082 -0.006126 0.0226 0.01058 0.0055 0.003094 0.001984
-0.00376 -0.01161 0.00829 -0.04922 -0.000959 0.000977 0.00256 0.00656
0.02144 0.002398 0.001583 -0.005253 0.01857 -0.02023 -0.003021 -0.007904
0.013756 0.1355 -0.000568 0.009544 0.006996 -0.005394 -0.0244 0.000223
0.953 0.02171 -0.02878 0.01231 0.018 -0.010254 -0.001492 -0.006927
0.01706 -0.03342 0.001656 0.0698 -0.006477 -0.02275 0.002296 -0.01772
-0.08466 -0.002354 -0.004406 -0.00568 0.01506 0.01166 0.02942 0.0001606
-0.02693 -0.02841 0.005966 -0.0136 -0.00666 0.006023 0.06775 -0.03058
0.05902 -0.04086 0.03894 0.002481 0.005585 0.04095 -0.003044 -0.01522
0.01021 0.046 -0.007183 -0.06216 -0.0033 0.01877 0.00215 0.004093
0.05966 0.00309 -0.006424 0.005016 -0.00942 -0.0001607 -0.01528 0.002989
0.0289 0.02246 0.002485 0.02481 0.0086 0.015366 0.0364 -0.00747
-0.03506 0.02315 0.03082 -0.004154 0.01762 0.00446 -0.01465 0.005833
0.00444 -0.01051 -0.001264 -0.001619 -0.004486 -0.005074 -0.00535 0.01918
-0.002972 -0.004673 0.0005407 -0.00778 -0.02678 0.002684 0.00010836 -0.003778
-0.00451 0.02682 0.004604 -0.01515 0.002825 0.0001746 -0.0737 0.076
-0.009964 0.01297 -0.04858 0.00672 -0.002865 0.000933 0.002008 -0.0006576
-0.005463 0.000184 -0.007736 -0.063 0.00594 -0.003222 0.005318 0.02702
0.02725 -0.003885 -0.00415 0.02151 -0.0178 -0.0002341 -0.006878 -0.0054
-0.01617 -0.04492 0.002956 -0.00671 -0.00833 -0.0187 0.00812 0.01221
00000000: 77a1 6125 6aa1 9da7 501b 3321 b91e 1414
00000010: 7e9f 4e20 7f25 3029 089d 8d20 8d19 78a6
00000020: e19c 4820 9b20 1c8c 2e11 a78a 9f15 1898
00000030: b1a4 37a5 4b9f 92a2 2716 c29d 729f 0eaa
00000040: 4424 47a4 b92a b0a0 949b c8a0 d81a 1f1c
00000050: daa1 9c25 d521 512a ef25 0425 d49f 0127
00000060: 5027 889e dc1c 2520 619e 9da0 9e9f f30d
00000070: e21c d4ab 1b9d 0921 a29b 421c bb27 e821
00000080: 91ab f1a4 78a9 6d99 419d b4a4 f71d d890
00000090: 2f9e b19b 43a3 b625 86a2 6418 0e1c 1095
000000a0: b0a4 ae18 f519 9c0d 171b 6b1c 3517 7da1
000000b0: 429d 56a8 8616 1e21 8498 60a0 2820 b1a3
000000c0: 9a25 8aa1 469e c925 6b21 a21d 561a 1018
000000d0: b39b f2a1 3f20 4daa db93 0014 3e19 b81e
000000e0: 7d25 e918 7c16 619d c124 2ea5 309a 0ca0
000000f0: 0b23 5630 a790 e320 2a1f 869d 3fa6 4f0b
00000100: a03b 8f25 5ea7 4d22 9c24 40a1 1c96 189f
00000110: 5e24 47a8 c816 782c a29e d3a5 b418 89a4
00000120: 6bad d298 839c d19d b623 f821 8827 4309
00000130: e5a6 46a7 1c1e f7a2 d29e 2b1e 562c d4a7
00000140: 8e2b 3ba9 fc28 1519 b81d 3e29 3c9a cba3
00000150: 3a21 e329 5b9f f5ab c29a ce24 6718 311c
00000160: a32b 541a 949e 231d d3a0 4489 d3a3 1f1a
00000170: 6627 c025 1719 5a26 6720 de23 a928 a69f
00000180: 7da8 ed25 e427 419c 8324 911c 80a3 f91d
00000190: 8c1c 62a1 2d95 a296 989c 329d 7a9d e924
000001a0: 169a c99c 6e10 f79f dba6 7f19 1a07 bd9b
000001b0: 9e9c de26 b71c c2a3 c919 b909 b8ac dd2c
000001c0: 1aa1 a422 38aa e21e de99 a513 1d18 6391
000001d0: 989d 080a ec9f 08ac 151e 999a 721d eb26
000001e0: fa26 f59b 409c 8225 8fa4 ac8b 0b9f 889d
000001f0: 24a4 c0a9 0e1a df9e 44a0 caa4 2820 4022

arith.constant7 f2 [32, 3, 3, 32]
0.01584 -0.0451 0.03897 0.005592 0.0001836 -0.001725 0.008316 -0.0001096
-0.00162 -0.009865 -0.01338 0.001536 -0.0012665 -0.00688 -0.002605 0.007256
0.005424 -0.00846 -0.02078 0.003178 0.02113 0.007 -0.002554 -0.01105
-0.001476 0.001454 -0.00832 0.000498 0.001739 -0.0569 -0.001403 0.0008783
-0.006683 0.0098 0.01008 0.002872 -0.01113 -0.00298 -0.00774 -0.002838
-0.000829 0.0116 0.01469 -0.00676 0.01372 0.006275 0.01132 -0.01032
0.05072 -0.000641 0.0009747 0.002254 0.001678 0.01572 0.003063 0.003588
-0.001515 -0.01109 0.01031 -0.00978 -0.0447 -0.1478 -0.014366 0.01816
0.00783 0.01694 -0.02176 0.004528 -0.004036 -0.001089 0.00384 -0.0009294
0.007133 -0.007774 -0.00403 0.003023 -0.005836 0.005203 -0.0008626 -0.0002754
-0.01585 0.005566 -0.01085 -0.000131 0.0093 -0.002092 0.003397 -0.0002885
-0.0007477 -0.00138 -0.004585 0.002495 0.01041 -0.02814 -0.003668 -0.0035
-0.00157 -0.01065 -0.01329 -0.00311 -0.00226 0.0042 -0.00463 -0.0159
0.002668 -0.00667 -0.0125 0.006958 -0.009514 -0.002495 -0.02467 0.00851
0.04077 0.0161 0.001684 0.00485 -0.0504 -0.01005 -0.005356 -0.01254
-0.005264 0.003412 0.005795 0.00929 0.000282 0.02481 -0.0063 0.00477
0.994 -0.02803 0.04123 -0.01314 0.007446 -0.000572 -0.006664 0.01202
0.0057 0.02333 0.01595 0.012344 -0.0006866 0.01529 0.001831 0.01389
-0.1538 -0.01884 0.01625 -0.01596 0.01738 -0.0002716 0.006485 0.021
0.007587 -0.00497 0.004543 -0.014565 0.089 -0.01374 0.02621 -0.02014
0.02455 0.05154 -0.02492 0.003183 0.002432 0.00494 0.001541 0.0042
0.0009084 -0.00985 -0.01202 0.00974 -0.005424 -0.003754 -0.01032 -0.00243
0.03983 -0.00895 0.003092 -0.002611 -0.01475 -0.010315 -0.000992 -0.007458
-0.003975 0.011536 -0.01203 0.002638 -0.02974 0.004017 -0.010506 -0.00879
-0.0001582 0.04034 -0.004013 0.0004277 0.001309 0.000896 0.003365 0.002203
-0.0064 -0.005558 0.00805 -0.01183 -0.005238 -0.005985 0.0009537 2.58e-05
-0.0138 -0.01616 0.01625 0.004192 -0.01747 -0.012314 -0.001974 -0.003586
-0.0004246 0.01227 0.00436 0.01157 0.01373 -0.00238 0.00267 0.007412
0.03735 -0.01982 -0.01556 -0.0015 -0.001355 -0.001819 -0.012825 0.00389
-0.00331 0.01165 0.00978 -0.009285 0.000604 -0.005337 0.01942 -0.006668
0.03793 0.01642 -0.012665 -0.005035 0.013245 0.0249 -0.003284 -0.0001147
0.00241 -0.01039 -0.0008755 -0.00979 -0.0285 -0.0165 0.01532 0.0109
00000000: 0e24 c6a9 fd28 ba1d 040a 1197 4220 2f87
00000010: a396 0da1 daa2 4b16 3095 0c9f 5699 6e1f
00000020: 8e1d 55a0 52a5 821a 6925 2b1f 3b99 a8a1
00000030: 0c96 f515 43a0 1410 1f17 48ab bf95 3213
00000040: d89e 0521 2921 e219 b3a1 1a9a ed9f d099
00000050: cb92 f021 8523 ec9e 0623 6d1e cc21 49a1
00000060: 7e2a 4091 fc13 9e18 e016 0624 461a 591b
00000070: 3596 aea1 4721 02a1 b9a9 bbb0 5ba3 a624
00000080: 0220 5624 92a5 a31c 229c 7694 dd1b 9d93
00000090: 4e1f f69f 209c 311a fa9d 541d 1193 838c
000000a0: 0fa4 b31d 8ea1 4b88 c320 4998 f51a ba8c
000000b0: 2092 a795 b29c 1c19 5421 34a7 839b 2b9b
000000c0: 6e96 74a1 cea2 5f9a a198 4d1c be9c 12a4
000000d0: 7719 d59e 66a2 201f dfa0 1c99 51a6 5b20
000000e0: 3829 1f24 e616 f71c 74aa 25a1 7c9d 6ca2
000000f0: 649d fd1a ef1d c220 9f0c 5a26 749e e21c
00000100: f43b 2da7 4729 baa2 a01f b090 d39e 2722
00000110: d61d f925 1524 5222 a091 d423 8017 1d23
00000120: ecb0 d3a4 2924 16a4 7324 738c a41e 6025
00000130: c51f 179d a71c 75a3 b22d 09a3 b626 28a5
00000140: 4926 992a 61a6 851a fb18 0f1d 5016 4d1c
00000150: 7113 0ba1 27a2 fd20 8e9d b09b 49a1 fa98
00000160: 1929 95a0 551a 5999 8da3 48a1 1094 a39f
00000170: 129c e821 29a2 6719 9da7 1d1c 61a1 80a0
00000180: 2f89 2a29 1c9c 020f 5d15 5713 e41a 8318
00000190: 8e9e b19d 1f20 0fa2 5d9d 219e d013 b101
000001a0: 11a3 23a4 2924 4b1c 79a4 4ea2 0b98 589b
000001b0: f58e 4822 771c ed21 0823 e098 7819 971f
000001c0: c828 13a5 f7a3 2596 8d95 7397 91a2 f71b
000001d0: c79a f721 0221 c1a0 f310 779d f924 d49e
000001e0: db28 3424 7ca2 289d c822 6026 ba9a 8487
000001f0: f018 52a1 2c93 03a1 4ca7 39a4 d823 9521

arith.constant8 f2 [12, 3, 3, 32]
0.05682 -0.007187 0.03113 -0.007343 0.01398 -0.01448 -0.0272 0.001465
0.02843 0.02832 -0.013985 0.04474 -0.03004 0.01425 0.0001768 0.0344
-0.0995 -0.05365 0.0006647 -0.0042 -0.0002435 -0.00987 0.06335 0.0013685
0.013214 0.00517 -0.06097 -0.00859 0.02269 -0.02795 -0.006626 -0.000806
0.09467 0.003197 -0.041 0.004757 -0.001396 0.01733 0.0213 -0.00010246
-0.0731 -0.0325 0.0568 -0.00866 0.02016 -0.0245 0.05212 0.07825
-0.209 0.09607 -0.002815 0.0472 -0.02383 0.1039 -0.01576 0.01562
0.0651 -0.05768 -0.002373 0.01959 -0.08716 -0.09845 -0.0578 0.02864
-0.0355 -0.003447 0.0202 0.01023 -0.003078 -0.00884 -0.009995 -0.00437
0.03094 -0.01298 0.002914 -0.007023 -0.005615 0.005844 -0.0012245 -0.00338
0.04883 -0.01736 -0.002804 -0.02611 -0.005764 -0.03186 0.01071 0.001342
0.00186 0.005833 -0.00885 -0.00283 0.01813 0.001648 -0.003073 -0.00548
0.07263 0.007774 -0.008286 -0.004932 -0.05008 -0.00296 -0.07526 0.010605
-0.01087 -0.03006 0.0943 -0.04337 0.01588 -0.01997 0.01362 0.089
-0.175 -0.04883 -0.0311 0.013565 -0.0231 -0.001917 -0.002026 -0.003868
-0.011536 0.00525 -0.02481 0.015335 0.02194 0.0448 0.1494 -0.0012665
0.9863 0.05154 0.004036 0.05093 -0.0959 -0.1256 0.02036 -0.1378
-0.11304 0.1571 -0.01155 -0.0806 0.1277 0.1504 0.1411 -0.06976
0.1032 0.0772 -0.01991 0.09344 0.1719 0.06885 -0.09576 0.1693
-0.166 0.168 -0.06158 -0.0586 -0.09955 0.08386 -0.02039 -0.03915
-0.0493 -0.0425 0.00908 0.06525 0.05038 0.06537 -0.01253 0.04248
0.05505 -0.054 -0.04388 0.006462 -0.0431 -0.07007 0.00517 -0.05774
0.1757 -0.0659 -0.001535 -0.06445 0.0005684 -0.1088 0.01605 -0.007107
0.002254 -0.02206 0.000783 0.001176 0.02747 0.003796 0.02771 -0.000477
-0.0219 0.008896 -0.0059 -0.009964 0.011566 -0.00257 0.00857 0.000691
0.00546 0.00812 -0.01349 0.04578 0.001175 0.00907 0.00452 -0.01773
0.01932 0.0006905 0.04263 0.007786 0.01848 0.005795 -0.01135 -0.01095
-0.00409 -0.01048 0.01293 0.0018635 0.002022 -0.01749 -0.03848 -0.00292
-0.06335 -0.03342 -0.012215 -0.00874 -0.00653 0.05704 -0.004623 -0.01129
-0.005333 -0.02486 -0.04907 0.05692 0.001849 -0.01274 -0.0845 -0.02014
0.0881 0.01229 0.07214 -0.0004847 -0.00948 0.00539 0.04523 -0.03186
0.01347 -0.0845 0.0284 -0.1554 -0.0008535 -0.03186 -0.07355 0.02779
00000000: 462b 5c9f f827 859f 2823 6aa3 f7a6 0016
00000010: 4727 4027 29a3 ba29 b1a7 4c23 cb09 6728
00000020: 5eae deaa 7211 4d9c fb8b 0ea1 0e2c 9b15
00000030: c422 4b1d ceab 66a0 cf25 28a7 c99e 9a92
00000040: 0f2e 8c1a 3fa9 df1c b895 7024 7425 b786
00000050: aeac 29a8 452b 6fa0 2925 46a6 ac2a 022d
00000060: b0b2 262e c499 0b2a 1aa6 a62e 09a4 ff23
00000070: 2b2c 62ab dc98 0425 94ad 4dae 66ab 5527
00000080: 8ba8 0f9b 2c25 3d21 4e9a 87a0 1ea1 7a9c
00000090: ec27 a5a2 f819 319f c09d fc1d 0495 ec9a
000000a0: 402a 72a4 be99 afa6 e79d 14a8 7c21 7f15
000000b0: 9e17 f91d 88a0 cc99 a424 c016 4b9a 9d9d
000000c0: a62c f61f 3ea0 0d9d 69aa 109a d1ac 6e21
000000d0: 91a1 b2a7 092e 8da9 1124 1da5 f922 b22d
000000e0: 9ab1 40aa f6a7 f222 eaa5 da97 2698 ec9b
000000f0: e8a1 601d 5aa6 da23 9e25 bc29 c830 3095
00000100: e43b 992a 221c 852a 23ae 05b0 3625 69b0
00000110: 3caf 0731 eaa1 29ad 1630 d030 8430 77ac
00000120: 9b2e f12c 19a5 fb2d 8031 682c 21ae 6b31
00000130: 50b1 6031 e2ab 80ab 5fae 5e2d 38a5 03a9
00000140: 4faa 71a9 a620 2d2c 732a 2f2c 6aa2 7029
00000150: 0c2b e9aa 9ea9 9e1e 84a9 7cac 4b1d 64ab
00000160: 9f31 38ac 4a96 20ac a810 f7ae 1c24 479f
00000170: 9e18 a6a5 6a12 d114 0827 c61b 1827 d18f
00000180: 9ba5 8e20 0b9e 1aa1 ec21 4399 6320 a911
00000190: 971d 2820 e8a2 dc29 d014 a520 a11c 8aa4
000001a0: f224 a811 7529 f91f bb24 ef1d d0a1 9ba1
000001b0: 309c 5ea1 9f22 a217 2418 7aa4 eda8 fb99
000001c0: 0eac 47a8 41a2 7aa0 b09e 4d2b bc9c c8a1
000001d0: 769d 5da6 48aa 492b 9317 86a2 68ad 28a5
000001e0: a32d 4b22 9e2c f18f dba0 851d ca29 14a8
000001f0: e622 68ad 4527 f9b0 fe92 14a8 b5ac 1d27

arith.constant9 f2 [32]
-0.00818 0.02646 0.014496 -0.05347 -0.0726 -0.01124 0.0822 0.03021
-0.04034 -0.02182 -0.00684 -0.0148 0.0009065 0.01047 -0.06274 -0.02347
0.02092 0.0014515 3.65e-05 0.02254 0.0417 -0.01401 0.04147 0.02187
-0.01715 -0.00781 -0.03168 0.014015 0.0031 -0.007195 0.01546 0.02951
00000000: 30a0 c626 6c23 d8aa a5ac c1a1 432d bc27
00000010: 2aa9 96a5 019f 94a3 6d13 5c21 04ac 02a6
00000020: 5b25 f215 6402 c525 5629 2ca3 4f29 9925
00000030: 64a4 ff9f 0ea8 2d23 591a 5e9f ea23 8e27

arith.constant10 f2 [32]
-0.00928 -0.01735 0.02338 -0.01126 -0.01507 0.010605 -0.0297 -0.01046
0.0169 -0.01315 0.013245 0.00644 -0.01292 -0.00911 0.01101 0.02324
0.0278 0.00482 -0.02141 0.013626 0.01163 0.02905 -0.02321 -0.04395
0.013306 -0.00699 -0.02917 -0.02081 0.0145 -0.02838 0.00917 0.005787
00000000: c0a0 71a4 fc25 c4a1 b7a3 6e21 9aa7 5ba1
00000010: 5424 bca2 c822 981e 9da2 aaa0 a321 f325
00000020: 1e27 f01c 7ba5 fa22 f421 7027 f1a5 a0a9
00000030: d022 289f 78a7 54a5 6d23 44a7 b220 ed1d

arith.constant11 f2 [12]
0.0002484 -0.0012665 0.001133 -0.0003235 0.001528 -2.307e-05 0.002308 0.0006003
0.002056 0.0006804 0.002817 0.00126
00000000: 120c 3095 a414 4d8d 4216 8381 ba18 eb10
00000010: 3618 9311 c519 2915
