app/src/main/assets/models/quicksrnet_small_1.5x_1080p_v1_float16.tflite (tflite, 51852 bytes, 8 tensors)

arith.constant f2 [32]
-0.03038 0.0658 0.0251 -0.0001106 -1.4e-06 -0.02078 -0.005585 0.08124
-0.001081 -0.1897 0.005642 -0.005978 0.0437 0.00921 -0.4763 0.04333
-0.005653 0.0002306 -5.01e-05 -0.001599 0.09515 -0.01216 0.002485 3.63e-05
0.077 0.05176 -0.007236 0.01622 0.05322 -0.0002625 0.0002549 -0.1965
00000000: c7a7 362c 6d26 4087 1780 52a5 b89d 332d
00000010: 6e94 12b2 c71d 1f9e 9829 b720 9fb7 8c29
00000020: ca9d 8e0b 4983 8d96 172e 3aa2 1719 6102
00000030: ee2c a02a 699f 2724 d02a 4d8c 2d0c 4ab2

arith.constant1 f2 [32, 3, 3, 3]
-0.00524 0.0499 -0.0391 0.01532 -0.036 0.02414 -0.1091 0.10547
-0.0702 0.02216 0.0514 0.01 0.9907 -0.0951 -0.0905 -0.0875
0.115 0.008705 -0.0735 -0.03836 0.02193 -0.1127 0.03317 0.0319
0.1373 -0.0895 -0.04904 0.0948 0.002533 0.01511 -0.1305 -0.0835
0.005417 0.01897 0.0907 -0.03065 -0.10406 -0.0896 0.04797 0.042
1.08 -0.0996 0.102 -0.117 -0.0842 0.04697 0.007637 -0.03952
-0.049 -0.0199 0.0848 -0.0226 -0.001841 0.01556 -0.05795 0.1183
-0.07214 0.0556 -0.06354 -0.0482 -0.06064 0.10815 0.01653 0.02397
0.03424 -0.069 0.06177 0.0164 1.049 -0.0644 -0.153 0.05466
0.0683 -0.00651 -0.02873 -0.1025 0.0867 -0.1538 0.09644 -0.015144
0.05563 -0.0796 -0.005886 -0.1047 0.1243 0.05765 0.227 -0.02248
0.03047 -0.04666 0.0751 0.2761 0.1439 0.04288 -0.02802 -0.1321
-0.12225 -0.1185 -0.1677 -0.007202 0.01307 -0.013855 -0.111 -0.3506
-0.0704 0.09814 0.1266 0.1628 -0.01263 0.00539 0.002909 0.0284
-0.01025 -0.004734 -0.009995 -0.02538 0.01429 -0.006115 0.00994 -0.00629
0.3098 0.1299 -0.1316 -0.11847 -0.02496 0.0535 -0.000236 -0.02975
0.01387 -0.10657 -0.02492 0.03723 0.00831 -0.00749 0.00317 0.0231
-0.0068 -0.02328 -0.02386 0.0063 0.02463 0.003344 -0.0088 -0.022
1.93e-05 -0.001157 0.04596 -0.01373 0.1022 0.2654 0.01223 -0.02641
-0.1372 0.001968 -0.006176 -0.0299 0.0002532 -0.006756 -0.0891 0.01154
-0.03278 0.02875 0.10077 0.12115 0.0788 -0.199 -0.2369 -0.0976
-0.07806 -0.1129 -0.01534 -0.03296 0.0002797 -0.04523 0.1892 0.1382
0.12244 -0.0514 -0.02489 -0.0997 -0.05444 -0.03613 -0.05316 0.03064
0.06415 0.0546 0.09143 0.08453 0.055 -0.01788 -0.01432 -0.01132
0.02634 -0.0934 0.05902 0.0259 0.005688 -0.02275 0.02612 0.0723
0.03055 -0.08307 0.08856 -0.05798 0.01204 -0.0541 0.04742 -0.093
-0.05396 -0.05215 0.0895 0.02116 0.003983 -0.01585 -0.0128 -0.003052
0.012474 0.0704 0.0362 -0.2966 -0.3782 0.008514 -0.03094 -0.04312
-0.001913 -0.03577 -0.0211 -0.06305 0.34 0.317 0.001883 0.02708
0.0629 -0.02148 0.00789 0.01608 0.003925 -0.02974 -0.02449 0.02824
0.0001388 0.004604 0.00563 -0.10876 -0.0365 -0.04108 -0.09296 0.05823
0.1262 -0.02744 0.0883 0.0494 0.1511 -0.1824 -0.06027 -0.0974
00000000: 5e9d 632a 01a9 d823 9ca8 2e26 fbae c02e
00000010: 7eac ac25 942a 1f21 ed3b 16ae cbad 9aad
00000020: 5c2f 7520 b4ac e9a8 9d25 36af 3f28 1528
00000030: 6530 baad 47aa 112e 3019 bc23 2db0 58ad
00000040: 8c1d db24 ce2d d9a7 a9ae bcad 242a 6029
00000050: 523c 60ae 872e 7daf 64ad 032a d21f 0fa9
00000060: 46aa 18a5 6d2d c9a5 8a97 f723 6bab 922f
00000070: 9eac 1e2b 11ac 2baa c3ab ec2e 3b24 2326
00000080: 6228 6aac e82b 3324 323c 1fac e5b0 ff2a
00000090: 5f2c ab9e 5ba7 8fae 8c2d ecb0 2c2e c1a3
000000a0: 1f2b 18ad 079e b3ae f52f 612b 4433 c1a5
000000b0: cd27 f9a9 ce2c 6b34 9b30 7d29 2ca7 3ab0
000000c0: d3af 96af 5eb1 609f b122 18a3 1baf 9cb5
000000d0: 81ac 482e 0d30 3631 77a2 851d f519 4527
000000e0: 3fa1 d99c 1ea1 7fa6 5123 439e 1721 719e
000000f0: f534 2830 36b0 95af 64a6 d92a bc8b 9ea7
00000100: 1a23 d2ae 61a6 c428 4120 ab9f 7e1a ea25
00000110: f79e f6a5 1ca6 741e 4e26 d91a 81a0 a2a5
00000120: 4401 bd94 e229 08a3 8a2e 3f34 4322 c3a6
00000130: 64b0 0818 539e a8a7 260c eb9e b4ad e921
00000140: 32a8 5c27 732e c12f 0b2d 5eb2 95b3 3fae
00000150: ffac 3aaf dba3 38a8 950c caa9 0e32 6c30
00000160: d62f 94aa 5fa6 61ae f8aa a0a8 ceaa d827
00000170: 1b2c fd2a da2d 692d 0a2b 94a4 55a3 cca1
00000180: be26 faad 8e2b a126 d31d d3a5 b026 a12c
00000190: d227 51ad ab2d 6cab 2a22 edaa 122a f4ad
000001a0: e8aa adaa ba2d 6b25 141c 0fa4 8ea2 409a
000001b0: 6322 812c a228 bfb4 0db6 5c20 eca7 85a9
000001c0: d697 94a8 67a5 09ac 7135 1235 b617 ef26
000001d0: 072c 80a5 0a20 1e24 051c 9da7 45a6 3b27
000001e0: 8c08 b71c c41d f6ae aca8 42a9 f3ad 742b
000001f0: 0a30 06a7 a72d 532a d630 d6b1 b7ab 3cae

arith.constant9 f2 [32, 3, 3, 32]
-0.03882 -0.02744 0.0273 0.000254 -0.0005755 0.01237 0.0122 -0.02365
-0.00864 -0.04706 -0.007313 -0.01458 0.06168 0.00374 0.001763 0.0373
0.014915 0.002617 0.001399 0.002378 -0.02441 0.02293 0.003403 -0.0004146
-0.01502 0.02095 0.002384 0.02403 -0.01348 0.006443 -0.0006833 0.01472
0.02415 0.02077 0.003408 0.004803 -0.002815 0.01796 0.0007706 0.03708
-0.010666 0.0502 0.03265 -0.004967 -0.0803 -0.012535 -0.01139 0.04034
-0.01275 0.0006933 -0.008484 -0.0085 -0.002937 -0.010735 -0.00671 0.00711
-0.001101 -0.02107 0.02954 0.0284 -0.01749 0.000109 0.01084 0.02005
-0.001209 0.01126 0.03738 0.00687 0.004402 -0.01013 -0.00616 0.00953
0.01915 0.05035 -0.02884 0.00729 0.0363 -0.002605 -0.02818 -0.01762
0.0418 -0.007393 0.008255 -0.007286 0.002016 -0.004765 0.03357 0.007286
-0.03198 -0.002907 0.03336 0.006653 -0.02693 0.00998 0.008286 0.002758
-0.03177 0.01923 0.02527 0.01235 -0.0362 -0.0002449 0.005688 -0.02855
-0.00632 0.053 0.00199 -0.0133 -0.006603 -0.01037 0.05878 -0.03696
0.002644 0.01024 -0.001001 0.01938 0.00141 0.0209 -0.0192 0.01567
0.0355 0.016 -0.00865 -0.001355 0.02629 -0.00746 -0.01802 -0.00799
0.871 0.03314 0.02638 0.006664 -0.0468 -0.02097 0.0201 0.0741
0.01096 0.04504 0.03247 0.006737 -0.07117 0.0006886 0.1406 0.0228
-0.01683 0.03137 0.00986 0.01567 -0.004864 -0.012314 -0.02263 0.02751
0.0539 -0.4885 -0.0859 0.04446 -0.01639 -0.005566 0.02747 -0.01666
-0.02805 0.0674 -0.004704 0.006935 0.01987 0.013954 0.001521 -0.0127
0.0005865 0.03497 -0.05127 0.007015 0.0515 0.03323 0.04373 -0.05862
0.05078 -0.004246 -0.003323 -0.011215 0.01591 -0.002611 0.007996 0.006493
-0.03214 0.003185 -0.02509 -0.027 0.02513 -0.0093 -0.03848 -0.00327
0.06647 0.03827 0.02759 -0.004436 0.01668 -0.01498 -0.02803 -0.04935
0.00348 0.01772 0.02357 -0.004154 0.01675 -0.0333 -0.02005 -0.0078
-0.011795 -0.00253 0.01627 0.04935 0.0324 0.002262 -0.001358 0.00397
-0.03696 -0.0418 -0.01467 -0.02988 0.00694 -0.000984 0.01426 -0.02557
-0.03152 0.035 -0.00801 -0.002981 0.05222 0.02017 0.00244 0.00377
0.00896 0.0468 -0.006744 -0.01598 -0.06186 -0.01668 -0.1342 0.02191
0.001561 0.012634 0.015076 0.0271 0.001756 0.01646 0.00914 0.02596
0.0661 0.00924 -0.004063 -0.01816 0.006416 0.02599 -0.015564 0.0078
00000000: f8a8 06a7 fd26 290c b790 5522 3f22 0ea6
00000010: 6ca0 06aa 7d9f 77a3 e52b a91b 3917 c628
00000020: a323 5c19 bb15 df18 40a6 df25 f81a cb8e
00000030: b1a3 5d25 e218 2726 e7a2 991e 9991 8923
00000040: 2f26 5125 fb1a eb1c c499 9924 5012 bf28
00000050: 76a1 6d2a 2e28 169d 24ad 6ba2 d5a1 2a29
00000060: 87a2 ae11 58a0 5aa0 049a 7fa1 df9e 481f
00000070: 8294 65a5 9027 4527 7aa4 2507 8d21 2225
00000080: f494 c421 c928 091f 821c 30a1 4f9e e120
00000090: e724 722a 62a7 771f a528 5699 37a7 83a4
000000a0: 5a29 929f 3a20 769f 2118 e19c 4c28 761f
000000b0: 18a8 f499 4528 d01e e5a6 1c21 3e20 a619
000000c0: 11a8 ec24 7826 5322 a2a8 038c d31d 4fa7
000000d0: 799e c92a 1318 cfa2 c39e 4fa1 862b bba8
000000e0: 6a19 3e21 1a94 f624 c615 5a25 eaa4 0324
000000f0: 8b28 1924 6ea0 8d95 bb26 a49f 9da4 17a0
00000100: f83a 3e28 c126 d31e fea9 5ea5 2525 be2c
00000110: 9d21 c429 2828 e61e 8eac a411 8030 d625
00000120: 4fa4 0428 0c21 0324 fb9c 4ea2 cba5 0b27
00000130: e62a d1b7 7fad b129 32a4 b39d 0827 44a4
00000140: 2ea7 502c d19c 1a1f 1625 2523 3b16 81a2
00000150: ce10 7a28 90aa 2f1f 982a 4128 9929 81ab
00000160: 802a 599c ce9a bea1 1324 5999 1820 a61e
00000170: 1da8 861a 6ca6 e9a6 6f26 c3a0 eda8 b29a
00000180: 412c e628 1027 8b9c 4524 aba3 2da7 51aa
00000190: 211b 8924 0926 419c 4a24 43a8 22a5 fd9f
000001a0: 0aa2 2e99 2a24 512a 2628 a218 9095 111c
000001b0: bba8 5aa9 83a3 a6a7 1b1f 0894 4d23 8ca6
000001c0: 09a8 7b28 1aa0 1b9a af2a 2a25 ff18 b91b
000001d0: 9620 fe29 e89e 17a4 ebab 45a4 4bb0 9c25
000001e0: 6516 7822 b823 f026 3117 3724 ae20 a526
000001f0: 3b2c bb20 299c a6a4 921e a726 f8a3 fd1f

arith.constant10 f2 [32, 3, 3, 32]
-0.0518 -0.006794 0.02036 0.005047 -0.001026 -0.02219 -0.004757 -0.002111
-0.001674 -0.01808 -0.0257 0.005985 0.004944 0.003767 -0.010056 -0.01192
0.01154 -0.03928 -0.00798 0.03152 0.003517 -0.0001364 0.01172 -0.00927
0.001085 0.02829 0.011475 -0.01047 0.0201 -0.005127 -0.01221 0.00651
-0.02676 -0.02832 0.05542 -0.006138 0.003672 -0.002476 -0.00826 -0.01072
0.00678 0.0821 0.00743 0.02406 -0.05457 0.02199 -0.01462 0.0326
-0.017 0.01322 -0.00685 0.0197 0.010284 0.01436 -0.002256 -0.006527
0.006153 -0.01126 -0.0412 -0.0039 -0.01672 0.00161 0.01255 -0.00791
-0.00187 -0.02664 0.0143 -0.01026 0.001931 -0.0001513 0.002754 -0.01134
-0.02176 -0.01149 -0.02118 0.04755 0.0273 0.005936 -0.0007453 -0.014915
-0.003843 -0.04944 0.002666 0.04657 0.01497 0.00243 -0.00402 -0.04092
-0.003649 0.039 0.02182 -0.003426 0.01494 -0.002054 0.0004368 0.01622
-0.003006 -0.007706 0.004276 -0.005947 0.007378 -0.01973 0.00985 -0.01575
0.001118 -0.03717 0.010864 -0.04544 -0.00227 0.001294 0.014885 0.0455
0.01539 -0.01006 0.01466 0.02359 -0.0132 -0.00808 0.00628 -0.02846
0.01392 0.005863 -0.01152 -0.00489 0.001978 0.01599 -0.010345 -0.005142
0.884 -0.04132 0.04907 -0.001439 0.00907 0.00829 0.00411 0.007156
0.01474 0.04205 0.06287 -0.01987 -0.03473 -0.03412 0.01515 -0.08484
-0.00457 0.292 0.02798 -0.2172 0.0001444 -0.01865 0.038 0.0821
0.00982 -0.1298 -0.0558 0.02347 -0.0542 0.0005717 0.010345 0.01704
-0.03946 0.02287 0.0679 0.004314 0.004448 -0.01113 0.00864 0.003605
-0.01397 -0.05743 0.04672 0.01776 0.05655 0.005497 0.02826 -0.01241
0.0235 -0.04788 0.013306 0.02477 -0.002586 -0.01897 0.015015 -0.05487
0.01141 -0.0083 0.01444 -0.01059 -0.0469 0.001677 -0.006214 0.006596
-0.03568 0.012344 0.05228 0.001049 0.006092 -0.01694 0.00573 -0.00845
0.00999 0.00553 0.00917 0.004562 -0.01993 0.00998 -0.010025 0.01416
0.01156 -0.02267 -0.003967 0.01889 -0.0003257 0.00598 -0.006817 -0.006863
0.004444 0.001264 0.008125 -0.003668 -0.006546 0.001793 -0.00619 -0.003963
0.00851 0.0296 0.02315 -0.010086 -0.003702 -0.02805 0.01979 -0.02078
0.005356 0.03568 -0.01011 -0.0944 -0.0313 0.00931 0.02582 -0.01968
0.01081 -0.0259 0.003046 -0.01389 -0.002497 0.00456 -0.002579 0.1047
-0.00994 0.01081 -0.01524 -3.51e-05 -0.01068 -0.01346 -0.01531 -0.002398
00000000: a1aa f59e 3625 2b1d 3494 aea5 df9c 5398
00000010: db96 a1a4 94a6 211e 101d b71b 26a1 1aa2
00000020: e921 07a9 16a0 0928 341b 7888 0022 bfa0
00000030: 7214 3e27 e021 5ca1 2525 409d 40a2 ab1e
00000040: daa6 40a7 182b 499e 851b 1299 3ba0 7da1
00000050: f11e 412d 9c1f 2926 fcaa a125 7ca3 2c28
00000060: 5aa4 c522 049f 0b25 4421 5a23 9f98 af9e
00000070: 4d1e c4a1 46a9 fd9b 48a4 9816 6d22 0da0
00000080: a997 d2a6 5223 41a1 e917 f588 a419 cea1
00000090: 92a5 e2a1 6ca5 162a fd26 141e 1b92 a3a3
000000a0: df9b 54aa 7619 f629 aa23 fa18 1e9c 3da9
000000b0: 799b fe28 9625 049b a623 3598 280f 2724
000000c0: 289a e49f 611c 179e 8e1f 0da5 0b21 08a4
000000d0: 9414 c2a8 9021 d1a9 a698 4d15 9f23 d329
000000e0: e123 27a1 8223 0a26 c2a2 23a0 6e1e 49a7
000000f0: 2123 011e e6a1 029d 0d18 1824 4ca1 449d
00000100: 123b 4aa9 482a e595 a520 3f20 351c 541f
00000110: 8c23 6229 062c 16a5 72a8 5ea8 c223 6ead
00000120: ae9c ac34 2a27 f3b2 bb08 c6a4 dd28 412d
00000130: 0721 27b0 24ab 0226 f0aa af10 4c21 5d24
00000140: 0da9 db25 582c 6b1c 8e1c b3a1 6c20 621b
00000150: 27a3 5aab fb29 8c24 3d2b a11d 3c27 5ba2
00000160: 0426 21aa d022 5726 4c99 dba4 b023 06ab
00000170: d821 40a0 6523 6ca1 01aa de16 5d9e c11e
00000180: 91a8 5222 b12a 4c14 3d1e 56a4 de1d 54a0
00000190: 1d21 aa1d b220 ac1c 1aa5 1c21 22a1 4023
000001a0: eb21 cea5 109c d624 568d 201e fb9e 079f
000001b0: 8d1c 2d15 2920 839b b49e 5817 579e 0f9c
000001c0: 5b20 9427 ed25 2aa1 959b 2ea7 1125 52a5
000001d0: 7c1d 9128 2da1 0bae 02a8 c420 9c26 0aa5
000001e0: 8921 a1a6 3d1a 1da3 1d99 ab1c 4899 b32e
000001f0: 17a1 8921 cea3 4d82 78a1 e4a2 d7a3 e998

arith.constant11 f2 [27, 1, 1, 128]
1.034 -0.02547 0.01276 -0.0204 0.1434 -0.062 0.00827 0.004128
0.01746 -0.04727 0.00735 -0.02785 0.10815 0.0274 -0.07043 0.00584
0.2207 -0.003344 0.0452 0.007137 0.11566 -0.02751 -0.1332 0.01499
0.3174 -0.0409 -0.1317 -0.01997 0.0814 -0.06238 -0.003656 0.003012
-0.1138 -0.01276 -0.0931 -0.0068 -0.2869 0.04684 0.0729 -0.005558
-0.174 -0.01528 0.01101 0.005493 -0.1989 0.05273 0.0558 0.007748
0.02783 -0.04776 -0.05597 0.03488 0.137 -0.0816 -0.03595 -0.01689
-0.08154 0.0971 0.00535 -0.01215 0.02437 0.02 0.0656 -0.00841
0.2056 0.08154 0.02914 0.01126 0.0863 -0.05154 -0.07654 0.01498
-0.3118 0.02075 -0.06204 0.0215 -0.0928 0.006924 0.1077 -0.01008
0.0874 -0.1036 -0.0184 0.00846 -0.09106 0.0945 -0.00010586 -0.00633
-0.1056 0.001403 0.01026 0.000614 -0.0791 0.03174 0.0363 -0.0004997
-0.005833 -0.0515 0.04816 -0.001832 0.1997 -0.04657 -0.0831 -0.03168
0.2035 0.03024 0.02768 0.02818 -0.1499 0.0382 0.01439 -0.0085
0.04904 0.006184 0.08057 -0.00493 -0.06665 -0.01913 -0.0476 -0.006466
0.1075 0.009834 0.0777 -0.02303 0.05655 -0.02963 -0.01889 -0.003443
0.945 0.09955 -0.0792 0.05072 -0.04837 0.1428 -0.01137 0.01497
-0.06665 0.03928 -0.01234 0.003725 0.0983 0.00936 -0.041 -0.06525
-0.006676 0.1882 0.05252 -0.03041 0.01457 0.07806 -0.04364 -0.0888
0.1582 0.10974 -0.12396 -0.03268 -0.12427 0.1077 -0.005665 -0.00877
-0.05994 -0.0911 -8.42e-05 -0.0286 0.02571 -0.173 0.07684 0.02611
-0.1249 -0.0691 0.01573 -0.005093 -0.0002701 -0.10724 0.0543 0.0683
-0.1506 0.0802 0.042 -0.07263 0.0706 0.142 0.002323 -0.05435
0.11774 -0.147 -0.003454 0.01258 -0.109 0.02525 -0.02141 0.01008
0.0336 0.0559 -0.00745 0.01782 0.004692 0.0641 -0.05173 -0.00675
-0.0463 -0.2092 0.0847 -0.10657 -0.06082 -0.0411 0.0689 0.04688
-0.1267 0.1605 0.014275 -0.006615 0.219 -0.1692 -0.05035 0.03082
-0.06143 -0.0355 -0.01973 0.05188 0.05573 -0.1008 0.04263 -0.0008507
-0.0673 0.053 -0.00632 0.03516 0.12213 0.1023 -0.06076 -0.02579
0.185 0.09717 0.007286 0.04343 -0.085 -0.1517 -0.03363 0.02185
0.1078 -0.02559 0.03995 0.06058 -0.08307 0.02023 -0.0696 0.03973
0.0321 0.0328 -0.06287 0.0663 0.1009 0.02693 -0.013054 -0.02426
00000000: 233c 85a6 8822 39a5 9730 f0ab 3c20 3a1c
00000010: 7824 0daa 871f 21a7 ec2e 0427 82ac fb1d
00000020: 1033 d99a c929 4f1f 672f 0ba7 43b0 ad23
00000030: 1435 3ca9 37b0 1da5 362d fcab 7d9b 2b1a
00000040: 48af 88a2 f5ad f79e 97b4 ff29 aa2c b19d
00000050: 91b1 d3a3 a321 a01d 5db2 c02a 242b ef1f
00000060: 2027 1daa 2aab 7728 6230 39ad 9aa8 53a4
00000070: 38ad 372e 7a1d 39a2 3d26 1f25 332c 4ea0
00000080: 9432 382d 7627 c421 862d 99aa e6ac ab23
00000090: fdb4 5025 f1ab 8125 f0ad 171f e52e 29a1
000000a0: 982d a1ae b6a4 5520 d4ad 0c2e f086 7b9e
000000b0: c2ae bf15 4121 0811 10ad 1028 a528 1890
000000c0: f99d 98aa 2a2a 8197 6432 f6a9 52ad 0ea8
000000d0: 8332 be27 1627 3727 ccb0 e428 5e23 5aa0
000000e0: 472a 551e 282d 0c9d 44ac e6a4 18aa 9f9e
000000f0: e12e 0921 f92c e5a5 3d2b 96a7 d6a4 0d9b
00000100: 8f3b 5f2e 12ad 7e2a 31aa 9230 d2a1 aa23
00000110: 44ac 0729 51a2 a11b 4b2e cb20 3fa9 2dac
00000120: d69e 0632 b92a c9a7 7623 ff2c 96a9 afad
00000130: 1031 062f efaf 2fa8 f4af e52e cd9d 7ea0
00000140: acab d5ad 8585 52a7 9526 89b1 eb2c af26
00000150: feaf 6cac 0724 379d 6d8c ddae f32a 5f2c
00000160: d2b0 222d 6029 a6ac 852c 8b30 c218 f5aa
00000170: 892f b4b0 139b 7122 faae 7726 7ba5 2921
00000180: 4d28 282b a19f 9024 ce1c 1a2c 9faa e99e
00000190: eda9 b2b2 6c2d d2ae c9ab 43a9 692c 002a
000001a0: 0eb0 2331 4f23 c69e 0233 6ab1 72aa e427
000001b0: ddab 8ba8 0da5 a42a 222b 74ae 7529 f892
000001c0: 4fac c92a 799e 8028 d12f 8c2e c7ab 9aa6
000001d0: ec31 382e 761f 8f29 71ad dbb0 4ea8 9825
000001e0: e62e 8da6 1d29 c12b 51ad 2e25 74ac 1629
000001f0: 1c28 3328 06ac 3e2c 752e e526 afa2 36a6

arith.constant12 f2 [32]
0.010284 -0.01921 -0.0321 -0.0546 -0.06586 0.007145 0.00822 -0.02003
-0.0324 0.01645 -0.0389 -0.02846 0.03964 -0.0081 -0.059 0.0272
-0.02914 -0.0127 0.003149 0.01587 -0.0567 0.02222 0.03096 0.00977
-0.004147 0.006798 0.01233 0.0002316 0.01401 0.01567 -0.11365 -0.02487
00000000: 4421 eba4 1ca8 fdaa 37ac 511f 3520 21a5
00000010: 26a8 3624 fba8 49a7 1329 26a0 8dab f726
00000020: 76a7 81a2 731a 1024 42ab b025 ed27 0121
00000030: 3f9c f61e 5022 970b 2c23 0324 46af 5ea6

arith.constant13 f2 [32]
-0.001999 -0.00567 0.004257 -0.001796 0.003319 -0.01839 0.01784 -0.03622
-0.005157 0.00876 -9.346e-05 0.01419 0.005573 0.01015 -0.02943 -0.00786
0.00863 -0.01675 0.00504 -0.02747 -0.04413 -0.03607 -0.000468 0.00559
-0.01831 -0.006313 0.02274 0.001966 0.01698 0.02156 -0.002584 0.005817
00000000: 1898 ce9d 5c1c 5b97 cc1a b5a4 9124 a3a8
00000010: 489d 7c20 2086 4423 b51d 3221 89a7 06a0
00000020: 6b20 4aa4 291d 08a7 a6a9 9ea8 ab8f b91d
00000030: b0a4 779e d225 0718 5924 8525 4b99 f51d

arith.constant14 f2 [27]
-0.001632 -0.006615 -0.00989 0.001746 -0.00472 -0.00963 0.00784 0.00117
-0.003443 0.005367 0.0005546 -0.00385 0.00801 0.003433 -0.00236 0.01398
0.00862 0.004223 0.0001842 -0.005135 -0.006634 0.001069 -0.002861 -0.005676
0.004776 0.001581 -0.001769
00000000: af96 c69e 10a1 2717 d59c eea0 0420 cb14
00000010: 0d9b 7f1d 8b10 e39b 1a20 081b d598 2823
00000020: 6a20 531c 090a 429d cb9e 6114 dc99 d09d
00000030: e41c 7a16 3f97
