app/src/main/assets/models/quicksrnet_small_1.5x_1080p_v1_float32.tflite (tflite, 96548 bytes, 8 tensors)

arith.constant f4 [27]
0	0xbad5da26	-0.0016315624
1	0xbbd8bf4d	-0.0066146017
2	0xbc21f766	-0.009885645
3	0x3ae4e742	0.001746394
4	0xbb9aaeb8	-0.004720535
5	0xbc1dc44b	-0.009629319
6	0x3c008f19	0.007846617
7	0x3a995c81	0.0011700542
8	0xbb61a137	-0.0034428367
9	0x3bafdb16	0.0053666933
10	0x3a115380	0.00055437535
11	0xbb7c6358	-0.0038511362
12	0x3c033dd7	0.008010349
13	0x3b610248	0.0034333635
14	0xbb1aa6f9	-0.0023598059
15	0x3c64fcec	0.013976317
16	0x3c0d3458	0.008618437
17	0x3b8a6a2b	0.004224082
18	0x39412250	0.00018418697
19	0xbba84123	-0.005134718
20	0xbbd96dec	-0.006635418
21	0x3a8c1882	0.0010688456
22	0xbb3b84f7	-0.0028613189
23	0xbbb9f46c	-0.0056748893
24	0x3b9c7bb9	0.004775491
25	0x3acf3b15	0.0015810454
26	0xbae7ea1f	-0.0017693675

arith.constant1 f4 [32]
0	0xbb03002a	-0.0019989111
1	0xbbb9c28c	-0.0056689437
2	0x3b8b8488	0.0042577423
3	0xbaeb6615	-0.00179595
4	0x3b5989fe	0.0033193822
5	0xbc96955e	-0.01838177
6	0x3c922f35	0.017844776
7	0xbd145e0d	-0.036222506
8	0xbba8fc1e	-0.005157008
9	0x3c0f7e3f	0.008758127
10	0xb8c3f7c0	-9.3444716e-05
11	0x3c68853e	0.014191924
12	0x3bb6ae93	0.00557501
13	0x3c264cdb	0.01015016
14	0xbcf111d5	-0.029427448
15	0xbc00ba6a	-0.007856945
16	0x3c0d5891	0.008627073
17	0xbc893a39	-0.016751396
18	0x3ba51aba	0.0050385864
19	0xbce0faee	-0.027463403
20	0xbd34b8a4	-0.0441214
21	0xbd13c5b3	-0.036077213
22	0xb9f56538	-0.00046805455
23	0x3bb728c3	0.005589576
24	0xbc95f2d7	-0.018304272
25	0xbbcedb8b	-0.0063127927
26	0x3cba369c	0.022731118
27	0x3b00de29	0.0019663668
28	0x3c8b2e77	0.01698993
29	0x3cb0a877	0.021564705
30	0xbb2954f3	-0.0025837987
31	0x3bbe9d0d	0.0058170618

arith.constant2 f4 [32]
0	0x3c287da3	0.01028386
1	0xbc9d6829	-0.019214706
2	0xbd03822c	-0.032106563
3	0xbd5fab54	-0.05460675
4	0xbd86e981	-0.06587506
5	0x3bea1b2a	0.0071443515
6	0x3c06ad7f	0.008220076
7	0xbca410fd	-0.020027632
8	0xbd04b48c	-0.032398745
9	0x3c86cf24	0.016456194
10	0xbd1f6b51	-0.038920704
11	0xbce9286b	-0.028461656
12	0x3d226fcd	0.039657403
13	0xbc04b684	-0.008100156
14	0xbd71a701	-0.058997158
15	0x3cdeed8f	0.027212886
16	0xbceec073	-0.029144501
17	0xbc50283a	-0.012704903
18	0x3b4e60b6	0.003149075
19	0x3c82069a	0.015872288
20	0xbd6835c0	-0.056691885
21	0x3cb5fc94	0.022215165
22	0x3cfda2c4	0.030961402
23	0x3c201487	0.009770519
24	0xbb87dc4a	-0.0041461335
25	0x3bdebc54	0.006797353
26	0x3c49f905	0.012327437
27	0x3972d4cb	0.0002315819
28	0x3c658e88	0.014011033
29	0x3c806d18	0.01567702
30	0xbde8b667	-0.113629155
31	0xbccbce55	-0.02487866

arith.constant3 f4 [27, 1, 1, 128]
0	0x3f846f90	1.0346546
1	0xbcd0a0e9	-0.025467353
2	0x3c510618	0.0127578005
3	0xbca71430	-0.020395368
4	0x3e12d188	0.14337742
5	0xbd7df9ed	-0.062005926
6	0x3c077bf0	0.008269295
7	0x3b874109	0.004127626
8	0x3c8ef94a	0.017452855
9	0xbd419c15	-0.047267992
10	0x3bf0dec4	0.0073507745
11	0xbce42c52	-0.027853165
12	0x3ddd854d	0.10816441
13	0x3ce085d0	0.027407557
14	0xbd9048d2	-0.07045139
15	0x3bbf51e9	0.005838622
16	0x3e62047d	0.22072025
17	0xbb5b1876	-0.0033431328
18	0x3d392347	0.04519966
19	0x3be9eb95	0.0071386793
20	0x3deced7d	0.11568735
21	0xbce15fef	-0.027511565
22	0xbe086a27	-0.13321744
23	0x3c75a904	0.01499391
24	0x3ea281ca	0.31739646
25	0xbd2772a0	-0.0408808
26	0xbe06d849	-0.13168444
27	0xbca3a1fe	-0.019974705
28	0x3da6caaf	0.081441276
29	0xbd7f8de6	-0.062391184
30	0xbb6f94d8	-0.0036557224
31	0x3b456b47	0.0030123757
32	0xbde8fae9	-0.11375982
33	0xbc510b37	-0.0127590215
34	0xbdbeadc1	-0.09310485
35	0xbbdee13e	-0.0068017533
36	0xbe92e89d	-0.28693095
37	0x3d3fe451	0.0468486
38	0x3d953c13	0.07286849
39	0xbbb6195f	-0.0055572237
40	0xbe321521	-0.17390873
41	0xbc7a6663	-0.0152832
42	0x3c345ef9	0.011008971
43	0x3bb3f60e	0.0054919785
44	0xbe4b9740	-0.19881916
45	0x3d57fe91	0.052733008
46	0x3d647232	0.055772968
47	0x3bfde753	0.0077485233
48	0x3ce3f970	0.027828902
49	0xbd43ad05	-0.047772426
50	0xbd65471e	-0.055976026
51	0x3d0ee242	0.034883745
52	0x3e0c469b	0.13698809
53	0xbda71b67	-0.081595235
54	0xbd13350d	-0.035939265
55	0xbc8a6405	-0.016893396
56	0xbda70c16	-0.08156602
57	0x3dc6df98	0.09710616
58	0x3baf4fc5	0.0053500854
59	0xbc4710d6	-0.01215001
60	0x3cc79547	0.024363173
61	0x3ca3dc09	0.020002382
62	0x3d866c7a	0.06563659
63	0xbc09bb5a	-0.0084064845
64	0x3e527190	0.20551133
65	0x3da70625	0.08155469
66	0x3ceeb05d	0.029136831
67	0x3c38835c	0.011261787
68	0x3db0cfed	0.08633409
69	0xbd531174	-0.051530316
70	0xbd9cb70c	-0.07652101
71	0x3c75648c	0.0149775855
72	0xbe9fad62	-0.31186968
73	0x3caa0339	0.02075349
74	0xbd7e1b82	-0.062037952
75	0x3cb02fa1	0.021507086
76	0xbdbe0d9c	-0.092799395
77	0x3be2ec65	0.006925153
78	0x3ddc96f9	0.10770983
79	0xbc252068	-0.010078527
80	0x3db303e3	0.08740976
81	0xbdd41ce6	-0.103570744
82	0xbc96bf46	-0.018401753
83	0x3c0a9441	0.008458198
84	0xbdba8269	-0.09106905
85	0x3dc17d94	0.0944778
86	0xb8de0af1	-0.00010587823
87	0xbbcf51c3	-0.0063268854
88	0xbdd83128	-0.10556251
89	0x3ab7e0d0	0.0014028791
90	0x3c28172a	0.010259429
91	0x3a210b2d	0.0006143328
92	0xbda1f0df	-0.07907271
93	0x3d01fc66	0.031734847
94	0x3d149076	0.03627058
95	0xba02fb64	-0.00049965666
96	0xbbbf1ead	-0.0058325143
97	0xbd52f58f	-0.051503714
98	0x3d454962	0.048165686
99	0xbaf01800	-0.00183177
100	0x3e4c8efb	0.19976418
101	0xbd3eb427	-0.046558525
102	0xbdaa402b	-0.0831302
103	0xbd01c8d5	-0.03168567
104	0x3e505ce2	0.20347932
105	0x3cf7bc41	0.030241134
106	0x3ce2bf18	0.027679011
107	0x3ce6e1cb	0.028183838
108	0xbe19836b	-0.14991538
109	0x3d1c86b0	0.038214386
110	0x3c6bb640	0.0143867135
111	0xbc0b3e5b	-0.008498753
112	0x3d48ef85	0.04905655
113	0x3bcaac03	0.006185056
114	0x3da50d35	0.0805916
115	0xbba174c0	-0.0049272478
116	0xbd888869	-0.06666643
117	0xbc9cb170	-0.019127578
118	0xbd430e90	-0.04762131
119	0xbbd3e70f	-0.0064667533
120	0x3ddc2d6b	0.1075085
121	0x3c2117f7	0.009832374
122	0x3d9f254b	0.07770785
123	0xbcbca317	-0.023026986
124	0x3d679338	0.056536883
125	0xbcf2cbfc	-0.029638283
126	0xbc9ac829	-0.018894272
127	0xbb61aad6	-0.0034434102
128	0x3f71eddd	0.94503576
129	0x3dcbed98	0.09957427
130	0xbda2340f	-0.07920086
131	0x3d4fb47e	0.05070924
132	0xbd46216c	-0.048371717
133	0x3e124238	0.14283073
134	0xbc3a43c3	-0.011368695
135	0x3c75357a	0.014966363
136	0xbd887f61	-0.066649206
137	0x3d20e00a	0.03927616
138	0xbc4a132a	-0.012333671
139	0x3b741cd6	0.0037248633
140	0x3dc95b58	0.098318756
141	0x3c195509	0.009358653
142	0xbd27eafb	-0.04099558
143	0xbd85a21f	-0.06525063
144	0xbbdab132	-0.0066739554
145	0x3e40b991	0.18820788
146	0x3d572df9	0.052534077
147	0xbcf914ed	-0.030405486
148	0x3c6ebbab	0.014571111
149	0x3d9fecd7	0.078088455
150	0xbd32c23c	-0.043642268
151	0xbdb5df7e	-0.088805184
152	0x3e2205f7	0.15822588
153	0x3de0c587	0.10975175
154	0xbdfddcca	-0.12395628
155	0xbd05dd56	-0.032681786
156	0xbdfe8df8	-0.12429422
157	0x3ddca069	0.10772783
158	0xbbb9ac7f	-0.005666315
159	0xbc0fbdab	-0.008773248
160	0xbd758b3b	-0.059947234
161	0xbdba9242	-0.09109928
162	0xb8b0a86b	-8.423704e-05
163	0xbcea4343	-0.028596526
164	0x3cd2969a	0.025706578
165	0xbe31271b	-0.17300074
166	0x3d9d6313	0.076849125
167	0x3cd5d866	0.026104163
168	0xbdffc015	-0.124878086
169	0xbd8d7152	-0.0690638
170	0x3c80d275	0.015725354
171	0xbba6da26	-0.0050919233
172	0xb98da2f5	-0.00027015028
173	0xbddb9f7c	-0.107237786
174	0x3d5e5e5b	0.054289203
175	0x3d8bd5db	0.06827899
176	0xbe1a3404	-0.15058905
177	0x3da4348d	0.08017836
178	0x3d2c0fd0	0.042007267
179	0xbd94b974	-0.07261935
180	0x3d90acba	0.07064195
181	0x3e1167fd	0.14199825
182	0x3b184716	0.002323573
183	0xbd5ea757	-0.054358806
184	0x3df11c4a	0.11772974
185	0xbe1674fa	-0.1469306
186	0xbb6257fc	-0.0034537306
187	0x3c4e19af	0.012579366
188	0xbddf387c	-0.108994454
189	0x3ccee3ba	0.025255073
190	0xbcaf5c39	-0.02140628
191	0x3c2520aa	0.0100785885
192	0x3d0996bc	0.033591017
193	0x3d650d68	0.05592099
194	0xbbf41f4a	-0.007450019
195	0x3c920bb5	0.017827848
196	0x3b99b1a2	0.004690365
197	0x3d833a24	0.06407574
198	0xbd53e71a	-0.051734067
199	0xbbdd14d4	-0.0067468677
200	0xbd3d9d55	-0.04629262
201	0xbe563df4	-0.2092207
202	0x3dad72bb	0.08469149
203	0xbdda3566	-0.10654716
204	0xbd79238a	-0.06082491
205	0xbd2850d4	-0.04109271
206	0x3d8d1134	0.06888047
207	0x3d3ff470	0.046863973
208	0xbe01b9f8	-0.12668598
209	0x3e24650a	0.16054168
210	0x3c69d2b5	0.014271428
211	0xbbd8b68d	-0.0066135586
212	0x3e604f04	0.21905142
213	0xbe2d3c83	-0.16917615
214	0xbd4e398c	-0.05034785
215	0x3cfc8008	0.030822769
216	0xbd7b95f6	-0.06142231
217	0xbd11655e	-0.035497062
218	0xbca1a664	-0.019732662
219	0x3d548aab	0.051890057
220	0x3d643528	0.055714756
221	0xbdce71de	-0.10080312
222	0x3d2eadb0	0.04264611
223	0xba5ef996	-0.0008505819
224	0xbd89e2f1	-0.06732739
225	0x3d592fec	0.053024217
226	0xbbcf1e70	-0.006320767
227	0x3d0ff3f6	0.03514477
228	0x3dfa1f89	0.12213046
229	0x3dd18590	0.10230553
230	0xbd78d0a2	-0.060745843
231	0xbcd33eb5	-0.025786737
232	0x3e3d8b1e	0.185101
233	0x3dc6f6a3	0.09715011
234	0x3beecd26	0.007287639
235	0x3d31e620	0.043432355
236	0xbdae20f8	-0.08502382
237	0xbe1b53b0	-0.15168643
238	0xbd09b18f	-0.0336166
239	0x3cb30abb	0.021855703
240	0x3ddcce4a	0.10781534
241	0xbcd1a468	-0.02559109
242	0x3d23937e	0.03993558
243	0x3d782254	0.060579613
244	0xbdaa1a43	-0.0830579
245	0x3ca5bdd9	0.020232128
246	0xbd8e75de	-0.06956075
247	0x3d22b926	0.039727353
248	0x3d037f75	0.032103974
249	0x3d0666ab	0.032812756
250	0xbd80bfcd	-0.06286583
251	0x3d87ce0b	0.066310965
252	0x3dcea59c	0.10090181
253	0x3cdc92d9	0.026925491
254	0xbc55d3e1	-0.013051004
255	0xbcc6c52e	-0.024263944

arith.constant4 f4 [32, 3, 3, 32]
0	0xbd541513	-0.05177791
1	0xbbde9805	-0.0067930245
2	0x3ca6b65d	0.02035063
3	0x3ba56881	0.005047858
4	0xba867d84	-0.0010260795
5	0xbcb5bbb4	-0.02218423
6	0xbb9be4e8	-0.0047575124
7	0xbb0a6a29	-0.0021120405
8	0xbadb6150	-0.0016737375
9	0xbc942c7f	-0.018087624
10	0xbcd28662	-0.025698844
11	0x3bc42935	0.0059863576
12	0x3ba1f782	0.0049428353
13	0x3b76eb61	0.0037676918
14	0xbc24b8c3	-0.010053816
15	0xbc433ac2	-0.011915864
16	0x3c3d1994	0.011541743
17	0xbd20d453	-0.03926499
18	0xbc02b999	-0.00797882
19	0x3d011e1e	0.031522863
20	0x3b6675aa	0.0035165348
21	0xb90ef75d	-0.00013634325
22	0x3c400dab	0.011722009
23	0xbc17dcfb	-0.009268994
24	0x3a8e3b8e	0.0010851489
25	0x3ce7b2f2	0.02828357
26	0x3c3bfa37	0.01147323
27	0xbc2b86e0	-0.010469168
28	0x3ca4a69b	0.020098975
29	0xbba7f2ff	-0.005125403
30	0xbc480609	-0.01220847
31	0x3bd555d6	0.0065104766
32	0xbcdb3d9d	-0.026762778
33	0xbce7fa84	-0.028317697
34	0x3d6303ea	0.055423655
35	0xbbc92e46	-0.0061395494
36	0x3b709dfc	0.003671526
37	0xbb2249f1	-0.002476331
38	0xbc07654a	-0.008263895
39	0xbc2fa133	-0.010719585
40	0x3bde2f03	0.0067805066
41	0x3da82f6b	0.08212169
42	0x3bf38362	0.0074314335
43	0x3cc522c2	0.024064425
44	0xbd5f7f2b	-0.054564636
45	0x3cb42563	0.021990484
46	0xbc6f85bd	-0.014619288
47	0x3d057490	0.032581866
48	0xbc8b474d	-0.017001772
49	0x3c58993b	0.013220127
50	0xbbe08a75	-0.006852443
51	0x3ca153e6	0.019693326
52	0x3c288c66	0.01028738
53	0x3c6b3d60	0.014357895
54	0xbb13e61a	-0.002256757
55	0xbbd5e584	-0.0065276045
56	0x3bc9919b	0.0061513907
57	0xbc387c6d	-0.011260134
58	0xbd28b7e6	-0.041191004
59	0xbb7fa45c	-0.0039007878
60	0xbc890d7b	-0.01673006
61	0x3ad2fcfc	0.0016097124
62	0x3c4da1be	0.012550769
63	0xbc01aaf7	-0.007914296
64	0xbaf5152c	-0.0018698326
65	0xbcda43e4	-0.0266437
66	0x3c6a40e7	0.0142977005
67	0xbc2825cf	-0.0102629205
68	0x3afd206b	0.001931203
69	0xb91e9776	-0.00015124478
70	0x3b3471fa	0.0027533756
71	0xbc39baad	-0.011336011
72	0xbcb2325c	-0.021752529
73	0xbc3c3c9b	-0.011489059
74	0xbcad75ba	-0.0211743
75	0x3d42cd0d	0.047558833
76	0x3cdfa70f	0.02730134
77	0x3bc285c0	0.0059363544
78	0xba4356fd	-0.0007451622
79	0xbc746f3a	-0.014919097
80	0xbb7bd23e	-0.0038424875
81	0xbd4a7729	-0.049430046
82	0x3b2ecf6e	0.002667393
83	0x3d3ece5e	0.046583526
84	0x3c754fe6	0.014972663
85	0x3b1f4ae3	0.002430611
86	0xbb83caea	-0.004021992
87	0xbd279fec	-0.040923998
88	0xbb6f2db9	-0.0036495759
89	0x3d1fbe5d	0.038999904
90	0x3cb2be9b	0.021819403
91	0xbb607716	-0.0034250668
92	0x3c74bd9c	0.0149377845
93	0xbb0694ae	-0.0020535397
94	0x39e4f40e	0.00043669384
95	0x3c84de61	0.01621932
96	0xbb44f943	-0.0030055798
97	0xbbfc8d59	-0.0077072796
98	0x3b8c2456	0.0042767925
99	0xbbc2dea4	-0.005946951
100	0x3bf1bc7b	0.007377205
101	0xbca19b38	-0.019727334
102	0x3c216108	0.009849794
103	0xbc810c45	-0.01575292
104	0x3a9280cb	0.0011177299
105	0xbd18331f	-0.037158128
106	0x3c32037c	0.010865089
107	0xbd3a1b82	-0.04543639
108	0xbb14b4ee	-0.002269085
109	0x3aa9a6e6	0.0012943416
110	0x3c73d251	0.014881686
111	0x3d3a6ad5	0.04551204
112	0x3c7c2724	0.015390191
113	0xbc24e7c2	-0.010065021
114	0x3c703f43	0.01466352
115	0x3cc137db	0.023586204
116	0xbc5846cc	-0.013200473
117	0xbc046fc1	-0.008083285
118	0x3bcdbac4	0.0062783677
119	0xbce929ad	-0.028462255
120	0x3c642a8b	0.013926159
121	0x3bc0152e	0.0058619
122	0xbc3cc9c5	-0.011522715
123	0xbba040e1	-0.0048905467
124	0x3b01a3c4	0.001978145
125	0x3c830043	0.015991336
126	0xbc297581	-0.0103429565
127	0xbba875d3	-0.005140999
128	0x3f624e3d	0.8840063
129	0xbd294023	-0.04132093
130	0x3d490ce3	0.049084555
131	0xbabc9102	-0.0014386477
132	0x3c14a617	0.009072802
133	0x3c07e614	0.008294601
134	0x3b86a5ef	0.0041091363
135	0x3bea7b26	0.0071557937
136	0x3c7170a8	0.014736332
137	0x3d2c3071	0.042038385
138	0x3d80ceb1	0.06289423
139	0xbca2c71d	-0.019870335
140	0xbd0e3ef5	-0.03472801
141	0xbd0bbf2a	-0.034117855
142	0x3c7831f4	0.0151486285
143	0xbdadc969	-0.084856816
144	0xbb95c585	-0.0045706653
145	0x3e9570ae	0.2918753
146	0x3ce53b2a	0.027982313
147	0xbe5e56c8	-0.21712792
148	0x3917631a	0.000144374
149	0xbc98cb31	-0.018651577
150	0x3d1bab5d	0.03800522
151	0x3da816f3	0.08207502
152	0x3c20e6fb	0.009820695
153	0xbe04dd99	-0.12975158
154	0xbd6478ed	-0.055779386
155	0x3cc042cc	0.023469351
156	0xbd5e0936	-0.054208003
157	0x3a15d9c3	0.0005716348
158	0x3c297cde	0.010344712
159	0x3c8b9030	0.017036527
160	0xbd21a261	-0.039461497
161	0x3cbb662a	0.022875864
162	0x3d8b0dfc	0.06789777
163	0x3b8d5d62	0.0043141106
164	0x3b91cc91	0.004449435
165	0xbc3655be	-0.011128841
166	0x3c0d8b49	0.008639165
167	0x3b6c3dbf	0.0036047546
168	0xbc64eb4e	-0.013972117
169	0xbd6b441f	-0.057438012
170	0x3d3f51ab	0.046708744
171	0x3c917cfa	0.017759789
172	0x3d67ade1	0.05656231
173	0x3bb41674	0.0054958407
174	0x3ce7771b	0.028255036
175	0xbc4b6fcd	-0.012416792
176	0x3cc07f44	0.023498185
177	0xbd44261e	-0.047887914
178	0x3c5a0015	0.013305684
179	0x3ccad4d3	0.024759686
180	0xbb2975e4	-0.0025857622
181	0xbc9b6b4c	-0.018972062
182	0x3c75f8d5	0.015012939
183	0xbd60b25f	-0.054857608
184	0x3c3b05bb	0.0114149405
185	0xbc080cdb	-0.008303846
186	0x3c6c9bf0	0.014441475
187	0xbc2d7d2e	-0.010588927
188	0xbd4027aa	-0.046912827
189	0x3adbb843	0.0016763288
190	0xbbcbabd4	-0.006215552
191	0x3bd818af	0.0065947394
192	0xbd121a66	-0.035669707
193	0x3c4a3dac	0.012343805
194	0x3d562592	0.052281924
195	0x3a897dde	0.0010489782
196	0x3bc792ba	0.006090489
197	0xbc8ab6ba	-0.016932834
198	0x3bbbb5d2	0.005728462
199	0xbc0a8c13	-0.008456248
200	0x3c23a1b1	0.009987281
201	0x3bb53fbd	0.00553128
202	0x3c1644b1	0.009171651
203	0x3b957e18	0.0045621507
204	0xbca34776	-0.019931536
205	0x3c2377a2	0.009977253
206	0xbc244614	-0.010026474
207	0x3c67fb30	0.014159009
208	0x3c3d60f0	0.011558756
209	0xbcb9bfce	-0.022674467
210	0xbb82030e	-0.0039676493
211	0x3c9acf6a	0.01889773
212	0xb9aac220	-0.0003256956
213	0x3bc3f54d	0.00598017
214	0xbbdf55e7	-0.0068156603
215	0xbbe0d8d0	-0.0068617836
216	0x3b919ce3	0.004443751
217	0x3aa599fb	0.0012634391
218	0x3c051820	0.008123428
219	0xbb706df3	-0.0036686629
220	0xbbd68cef	-0.0065475623
221	0x3aeafce1	0.0017928147
222	0xbbcad743	-0.006190212
223	0xbb81df9c	-0.003963424
224	0x3c0b5122	0.00850323
225	0x3cf27b5e	0.029599842
226	0x3cbd9eb4	0.023146965
227	0xbc2540bf	-0.010086237
228	0xbb72afde	-0.0037031095
229	0xbce5c455	-0.02804772
230	0x3ca21441	0.019785048
231	0xbcaa31bf	-0.020775674
232	0x3baf8ac1	0.005357117
233	0x3d122c92	0.035687037
234	0xbc25a2c1	-0.010109604
235	0xbdc16eba	-0.094449475
236	0xbd003b9c	-0.031306848
237	0x3c188b91	0.009310619
238	0x3cd3835c	0.025819473
239	0xbca13131	-0.019676777
240	0x3c312377	0.010811678
241	0xbcd423e0	-0.025896013
242	0x3b4790c8	0.0030451287
243	0xbc6398ae	-0.013891382
244	0xbb2391b4	-0.0024958672
245	0x3b955012	0.0045566643
246	0xbb290acd	-0.0025793791
247	0x3dd66f8d	0.104704954
248	0xbc22de0f	-0.009940638
249	0x3c3126f7	0.010812513
250	0xbc79bb40	-0.015242398
251	0xb8134644	-3.511297e-05
252	0xbc2efa99	-0.010679864
253	0xbc5c8a27	-0.013460672
254	0xbc7ae9d2	-0.015314536
255	0xbb1d2f7f	-0.0023984609

arith.constant5 f4 [32, 3, 3, 32]
0	0xbd1f0d0b	-0.038830798
1	0xbce0bd2b	-0.027433952
2	0x3cdf9fb5	0.027297834
3	0x39852c70	0.00025400845
4	0xba16d612	-0.0005753945
5	0x3c4aa28c	0.012367856
6	0x3c47e3b7	0.012200288
7	0xbcc1b6bd	-0.023646707
8	0xbc0d8700	-0.008638144
9	0xbd40b432	-0.047046848
10	0xbbefaf3e	-0.0073145917
11	0xbc6ee6d6	-0.014581403
12	0x3d7caa11	0.061685625
13	0x3b7511b4	0.0037394585
14	0x3ae71d2c	0.0017632595
15	0x3d18c642	0.03729845
16	0x3c74513d	0.014911947
17	0x3b2b754c	0.0026162444
18	0x3ab751ee	0.0013986209
19	0x3b1bd67d	0.0023778968
20	0xbcc7f7fa	-0.024410237
21	0x3cbbd0c9	0.022926705
22	0x3b5ef04a	0.0034017735
23	0xb9d955fc	-0.0004145353
24	0xbc762c67	-0.015025235
25	0x3caba123	0.02095086
26	0x3b1c36c5	0.0023836356
27	0x3cc4e759	0.024036096
28	0xbc5cea4b	-0.013483594
29	0x3bd3134d	0.00644151
30	0xba331e33	-0.0006832808
31	0x3c71188a	0.014715323
32	0x3cc5e7b3	0.024158334
33	0x3caa1743	0.020763045
34	0x3b5f5a30	0.0034080856
35	0x3b9d59f5	0.0048019835
36	0xbb388558	-0.002815565
37	0x3c931df9	0.017958628
38	0x3a49f9a8	0.0007704743
39	0x3d17dee1	0.03707779
40	0xbc2ec72e	-0.010667605
41	0x3d4da723	0.050208222
42	0x3d05cdf0	0.0326671
43	0xbba2b7d7	-0.004965763
44	0xbda47582	-0.08030225
45	0xbc4d5054	-0.012531359
46	0xbc3a99ee	-0.011389239
47	0x3d254277	0.04034659
48	0xbc50d79d	-0.012746719
49	0x3a35b5e9	0.0006931709
50	0xbc0af6aa	-0.008481661
51	0xbc0b4635	-0.008500625
52	0xbb408212	-0.0029374403
53	0xbc2fe84a	-0.010736534
54	0xbbdbe7cc	-0.006710982
55	0x3be901dd	0.007110818
56	0xba904aa6	-0.0011008575
57	0xbcaca6b7	-0.02107559
58	0x3cf200fe	0.029541489
59	0x3ce8a5f4	0.028399445
60	0xbc8f3a44	-0.017483838
61	0x38e497ba	0.000109001485
62	0x3c3198e1	0.010839672
63	0x3ca44505	0.020052442
64	0xba9e7895	-0.001209038
65	0x3c3870b9	0.011257344
66	0x3d1910ac	0.037369415
67	0x3be1170d	0.006869203
68	0x3b903476	0.004400785
69	0xbc25fa25	-0.01013044
70	0xbbc9d50a	-0.0061594294
71	0x3c1c277b	0.009530897
72	0x3c9cd2cf	0.01914349
73	0x3d4e33cd	0.05034237
74	0xbcec35ec	-0.028834306
75	0x3beee769	0.00729077
76	0x3d14a4a6	0.036289833
77	0xbb2acaf5	-0.0026060913
78	0xbce6d653	-0.02817837
79	0xbc905f46	-0.017623555
80	0x3d2b436e	0.041812353
81	0xbbf236f7	-0.007391806
82	0x3c0737ba	0.008253032
83	0xbbeecbb6	-0.007287468
84	0x3b041bfa	0.0020158277
85	0xbb9c2f8a	-0.0047664093
86	0x3d097517	0.03355893
87	0x3beec90d	0.0072871507
88	0xbd02fbcc	-0.031978413
89	0xbb3e832c	-0.0029069884
90	0x3d089bb4	0.033351615
91	0x3bda0107	0.0066529545
92	0xbcdcae66	-0.026938628
93	0x3c238c0f	0.009982123
94	0x3c07cdaf	0.008288785
95	0x3b34c0b2	0.0027580676
96	0xbd0221bb	-0.03177045
97	0x3c9d7044	0.019218571
98	0x3ccef39d	0.025262648
99	0x3c4a69be	0.012354312
100	0xbd143e5b	-0.03619228
101	0xb98063e1	-0.00024488478
102	0x3bba5fe7	0.005687702
103	0xbce9d492	-0.028543744
104	0xbbcf2dc5	-0.006322595
105	0x3d591b1d	0.053004373
106	0x3b025a38	0.00198902
107	0xbc59e52d	-0.013299269
108	0xbbd852b1	-0.0066016545
109	0xbc29ee99	-0.0103718275
110	0x3d70c75d	0.058783878
111	0xbd175eb4	-0.03695555
112	0x3b2d43e7	0.0026438178
113	0x3c27c08b	0.010238777
114	0xba834880	-0.0010016114
115	0x3c9ec88d	0.01938274
116	0x3ab8b166	0.0014090955
117	0x3cab37e7	0.02090068
118	0xbc9d378b	-0.019191524
119	0x3c805f55	0.015670458
120	0x3d116925	0.035500664
121	0x3c8311d3	0.01599971
122	0xbc0db1c2	-0.008648338
123	0xbab19b7e	-0.0013550369
124	0x3cd76fd8	0.026298448
125	0xbbf47406	-0.00746012
126	0xbc93adc2	-0.01802719
127	0xbc02e7ff	-0.0079898825
128	0x3f5f0174	0.8711159
129	0x3d07b513	0.03313167
130	0x3cd818aa	0.026378948
131	0x3bda5e87	0.0066641006
132	0xbd3fb812	-0.046806403
133	0xbcabc2c8	-0.020966902
134	0x3ca4a0a7	0.020096136
135	0x3d97b444	0.0740743
136	0x3c33a8d8	0.010965548
137	0x3d387855	0.045036633
138	0x3d04f01b	0.032455545
139	0x3bdcb983	0.006735982
140	0xbd91b75c	-0.07115051
141	0x3a34881e	0.0006886738
142	0x3e10083b	0.1406564
143	0x3cbab940	0.022793412
144	0xbc89d01c	-0.016822867
145	0x3d0071e4	0.031358615
146	0x3c218666	0.009858703
147	0x3c806708	0.01567413
148	0xbb9f6908	-0.0048648156
149	0xbc49c75e	-0.012315599
150	0xbcb95bcc	-0.02262678
151	0x3ce16f04	0.027518757
152	0x3d5cba9c	0.053888902
153	0xbefa1716	-0.48845738
154	0xbdafefde	-0.08590673
155	0x3d361a7f	0.044458862
156	0xbc864aa5	-0.016393015
157	0xbbb66511	-0.0055662473
158	0x3ce0f593	0.027460849
159	0xbc888a04	-0.016667373
160	0xbce5cf3d	-0.02805292
161	0x3d8a0b57	0.06740444
162	0xbb9a10f2	-0.004701727
163	0x3be33beb	0.006934633
164	0x3ca2c55b	0.019869497
165	0x3c64937c	0.013951179
166	0x3ac76fa3	0.0015215765
167	0xbc502556	-0.012704214
168	0x3a19b6c7	0.0005863723
169	0x3d0f3fc9	0.03497294
170	0xbd520f9c	-0.051284418
171	0x3be5e6c3	0.0070160343
172	0x3d52f3ae	0.051501922
173	0x3d081a50	0.03322822
174	0x3d332b46	0.04374244
175	0xbd70102e	-0.05860918
176	0x3d4ff2ab	0.050768536
177	0xbb8b26e5	-0.00424658
178	0xbb59ba8e	-0.0033222768
179	0xbc37c0ab	-0.011215369
180	0x3c826748	0.015918389
181	0xbb2b24e1	-0.002611451
182	0x3c02fb88	0.00799454
183	0x3bd4c825	0.0064935856
184	0xbd039aa8	-0.032129914
185	0x3b50c7b2	0.003185731
186	0xbccd7d62	-0.025084201
187	0xbcdd1120	-0.026985705
188	0x3ccde99f	0.025135813
189	0xbc1865b4	-0.009301592
190	0xbd1d9249	-0.038469587
191	0xbb563e80	-0.0032691061
192	0x3d8812d4	0.06644216
193	0x3d1ccc7b	0.038280945
194	0x3ce205fe	0.027590748
195	0xbb916b7d	-0.0044378624
196	0x3c889fb7	0.01667772
197	0xbc756730	-0.014978215
198	0xbce5a95d	-0.02803486
199	0xbd4a1607	-0.049337413
200	0x3b641d11	0.0034807364
201	0x3c9128fc	0.017719738
202	0x3cc12594	0.023577489
203	0xbb882a08	-0.004155401
204	0x3c893e1b	0.016753247
205	0xbd085c1d	-0.03329097
206	0xbca44fd2	-0.020057593
207	0xbbffa8ee	-0.0078021204
208	0xbc41420a	-0.01179553
209	0xbb25b409	-0.0025284311
210	0x3c8536b6	0.01626144
211	0x3d4a102a	0.04933182
212	0x3d04c7f5	0.032417256
213	0x3b143ed2	0.0022620452
214	0xbab1fca0	-0.0013579316
215	0x3b822877	0.003972109
216	0xbd175915	-0.03695019
217	0xbd2b4772	-0.041816182
218	0xbc706b71	-0.0146740535
219	0xbcf4ba8b	-0.029874107
220	0x3be36119	0.006939065
221	0xba80f50c	-0.0009838655
222	0x3c69a9a0	0.014261633
223	0xbcd18129	-0.025574284
224	0xbd012577	-0.03152987
225	0x3d0f54de	0.034993045
226	0xbc0347ff	-0.008012771
227	0xbb4364f4	-0.0029814811
228	0x3d55ed95	0.05222853
229	0x3ca5350f	0.020166902
230	0x3b1fd4bc	0.0024388274
231	0x3b772d69	0.0037716276
232	0x3c12c627	0.008958376
233	0x3d3fbd5f	0.046811458
234	0xbbdcf899	-0.0067435023
235	0xbc82d150	-0.015968949
236	0xbd7d55e6	-0.061849497
237	0xbc88ac63	-0.016683763
238	0xbe0960ec	-0.13415879
239	0x3cb3834f	0.021913199
240	0x3acca7f4	0.0015614019
241	0x3c4efbda	0.012633288
242	0x3c76fcc4	0.015074912
243	0x3cde000d	0.027099634
244	0x3ae62e5f	0.0017561427
245	0x3c86d97e	0.01646113
246	0x3c15c0c1	0.009140194
247	0x3cd4a791	0.025958808
248	0x3d87528f	0.06607544
249	0x3c176ad9	0.009241783
250	0xbb8516da	-0.004061562
251	0xbc94bc56	-0.018156212
252	0x3bd23398	0.006414842
253	0x3cd4e311	0.02598718
254	0xbc7f02e3	-0.015564653
255	0x3bff9578	0.0077998005

model/tf.nn.convolution/convolution f4 [32, 3, 3, 3]
0	0xbbabb0be	-0.005239575
1	0x3d4c5671	0.049887124
2	0xbd20184b	-0.039085668
3	0x3c7afd01	0.01531911
4	0xbd138f20	-0.036025167
5	0x3cc5cd90	0.024145871
6	0xbddf6e56	-0.10909717
7	0x3dd80908	0.105485976
8	0xbd8fb079	-0.07016081
9	0x3cb571b0	0.022148937
10	0x3d528231	0.05139369
11	0x3c23ee78	0.010005586
12	0x3f7dae06	0.99093664
13	0xbdc2befd	-0.095090844
14	0xbdb96efc	-0.09054372
15	0xbdb345c3	-0.0875354
16	0x3deb7a91	0.11497987
17	0x3c0ea075	0.008705248
18	0xbd968ece	-0.073514566
19	0xbd1d21ba	-0.038362242
20	0x3cb3a37f	0.021928547
21	0xbde6b334	-0.11264649
22	0x3d07e7b5	0.033179957
23	0x3d02a7ba	0.031898238
24	0x3e0c9564	0.13728863
25	0xbdb748c8	-0.08949429
26	0xbd48dc5d	-0.04903828
27	0x3dc22507	0.09479719
28	0x3b2600de	0.0025330107
29	0x3c7770a0	0.0151025355
30	0xbe059efb	-0.13048927
31	0xbdaaf3a6	-0.083472535
32	0x3bb17416	0.00541545
33	0x3c9b52e7	0.01896043
34	0x3db9b1c1	0.09067107
35	0xbcfb1f48	-0.030654564
36	0xbdd51178	-0.104037225
37	0xbdb78f18	-0.0896284
38	0x3d447ca7	0.04797044
39	0x3d2bfae1	0.041987304
40	0x3f8a3c15	1.0799586
41	0xbdcbf861	-0.09959484
42	0x3dd0d284	0.10196403
43	0xbdefa808	-0.11701971
44	0xbdac7934	-0.08421555
45	0x3d40520c	0.046953246
46	0x3bfa33bb	0.0076355613
47	0xbd21d002	-0.039505012
48	0xbd48c82a	-0.049019016
49	0xbca2f211	-0.019890817
50	0x3dad97f0	0.084762454
51	0xbcb91911	-0.02259496
52	0xbaf13421	-0.0018402376
53	0x3c7edc70	0.015555486
54	0xbd6d58a5	-0.057945866
55	0x3df23493	0.11826434
56	0xbd93bfdf	-0.07214331
57	0x3d63c2ef	0.055605825
58	0xbd8212d8	-0.063512504
59	0xbd456b38	-0.048197955
60	0xbd785ece	-0.060637288
61	0x3ddd79ae	0.10814224
62	0x3c8756f0	0.016520947
63	0x3cc45311	0.02396539
64	0x3d0c4bd1	0.03425199
65	0xbd8d42b9	-0.06897492
66	0x3d7d0bab	0.061778706
67	0x3c866acd	0.016408348
68	0x3f863022	1.0483439
69	0xbd83e42c	-0.06440005
70	0xbe1ca967	-0.15298997
71	0x3d5fef79	0.05467174
72	0x3d8bdc34	0.0682911
73	0xbbd55d43	-0.006511362
74	0xbceb685f	-0.028736291
75	0xbdd1dc6d	-0.10247121
76	0x3db172bf	0.08664464
77	0xbe1d81b0	-0.15381503
78	0x3dc58086	0.096436545
79	0xbc782a53	-0.01514681
80	0x3d63da69	0.055628214
81	0xbda30620	-0.079601526
82	0xbbc0e041	-0.005886108
83	0xbdd66c9d	-0.10469935
84	0x3dfea169	0.1243313
85	0x3d6c1edb	0.057646614
86	0x3e687519	0.22700919
87	0xbcb82a7c	-0.022481196
88	0x3cf9a81c	0.030475669
89	0xbd3f1603	-0.04665185
90	0x3d99c775	0.075087465
91	0x3e8d5656	0.27604932
92	0x3e136381	0.14393426
93	0x3d2fa397	0.04288062
94	0xbce57fe6	-0.028015088
95	0xbe074c54	-0.1321271
96	0xbdfa6144	-0.12225583
97	0xbdf2cb6d	-0.11855207
98	0xbe2bcffb	-0.16778557
99	0xbbebf8a3	-0.0072012707
100	0x3c561822	0.013067277
101	0xbc630082	-0.013855102
102	0xbde36dd9	-0.11104936
103	0xbeb388b5	-0.35065237
104	0xbd901757	-0.07035702
105	0x3dc90ac4	0.098165065
106	0x3e0190b3	0.12652855
107	0x3e26c67a	0.1628665
108	0xbc4ed732	-0.012624549
109	0x3bb0a088	0.0053902306
110	0x3b3e959c	0.0029080873
111	0x3ce89546	0.028391492
112	0xbc27d2f7	-0.010243169
113	0xbb9b287c	-0.0047350507
114	0xbc23b6c8	-0.009992309
115	0xbccfd7b7	-0.025371416
116	0x3c6a1fa6	0.014289772
117	0xbbc856ad	-0.006113848
118	0x3c22e74b	0.00994284
119	0xbbce1e7e	-0.006290256
120	0x3e9e924b	0.30970988
121	0x3e050d56	0.12993369
122	0xbe06c2da	-0.13160267
123	0xbdf2a4b4	-0.11847821
124	0xbccc87d6	-0.024967115
125	0x3d5b2d09	0.053509746
126	0xb9777e2a	-0.00023602755
127	0xbcf3bcdc	-0.029753141
128	0x3c63372f	0.013868137
129	0xbdda4dde	-0.10659383
130	0xbccc1488	-0.024912134
131	0x3d188732	0.037238307
132	0x3c081e81	0.008308054
133	0xbbf5603a	-0.0074882777
134	0x3b4fb30d	0.0031692416
135	0x3cbd3200	0.02309513
136	0xbbded3f2	-0.006800168
137	0xbcbeb8fd	-0.023281569
138	0xbcc381a9	-0.023865538
139	0x3bce86b8	0.006302681
140	0x3cc9cf48	0.024634972
141	0x3b5b18c6	0.0033431514
142	0xbc1024ae	-0.008797808
143	0xbcb43834	-0.021999456
144	0x37a1e60f	1.9299825e-05
145	0xba979a53	-0.0011566378
146	0x3d3c4f26	0.04597392
147	0xbc60f073	-0.013729203
148	0x3dd1467a	0.102185205
149	0x3e87de8e	0.26536983
150	0x3c485bda	0.01222893
151	0xbcd8524d	-0.026406432
152	0xbe0c797c	-0.13718218
153	0x3b010555	0.0019687016
154	0xbbca662f	-0.006176732
155	0xbcf506df	-0.029910503
156	0x3984baad	0.00025316086
157	0xbbdd6f9c	-0.0067576896
158	0xbdb68207	-0.089115195
159	0x3c3d1fae	0.011543198
160	0xbd06352b	-0.03276555
161	0x3ceb7a96	0.028744977
162	0x3dce5f3d	0.10076759
163	0x3df82ec3	0.12118294
164	0x3da16ce6	0.07882099
165	0xbe4bb69e	-0.19893882
166	0xbe72adbf	-0.23699091
167	0xbdc7e0ff	-0.097597115
168	0xbd9fe9e1	-0.07808281
169	0xbde73186	-0.11288743
170	0xbc7b69d5	-0.015345057
171	0xbd06f09d	-0.03294431
172	0x3992a07c	0.0002796686
173	0xbd393fae	-0.045226745
174	0x3e41c4ee	0.18922779
175	0x3e0d7923	0.13815741
176	0x3dfac139	0.122438855
177	0xbd527191	-0.051377837
178	0xbccbee0d	-0.024893785
179	0xbdcc2267	-0.09967499
180	0xbd5f0c11	-0.054454867
181	0xbd13f676	-0.036123715
182	0xbd59cae6	-0.053172015
183	0x3cfb0341	0.0306412
184	0x3d835d99	0.06414337
185	0x3d5f925a	0.05458293
186	0x3dbb40c8	0.091432154
187	0x3dad2cfb	0.08455845
188	0x3d613a85	0.05498745
189	0xbc92878c	-0.0178869
190	0xbc6a92d3	-0.014317232
191	0xbc398627	-0.011323488
192	0x3cd7b9aa	0.026333649
193	0xbdbf469b	-0.09339639
194	0x3d71bfe8	0.059020907
195	0x3cd4169c	0.025889687
196	0x3bba5f38	0.0056876205
197	0xbcba53f1	-0.022745105
198	0x3cd60c93	0.026129043
199	0x3d942910	0.072343946
200	0x3cfa4998	0.03055267
201	0xbdaa19b6	-0.08305685
202	0x3db55fdf	0.088561766
203	0xbd6d85ab	-0.057988804
204	0x3c453076	0.01203548
205	0xbd5da093	-0.054108214
206	0x3d42455e	0.047429435
207	0xbdbe7047	-0.09298759
208	0xbd5cf8d7	-0.05394825
209	0xbd55945c	-0.05214344
210	0x3db73de8	0.089473546
211	0x3cad60a4	0.021164246
212	0x3b828cb5	0.0039840587
213	0xbc81d289	-0.015847461
214	0xbc51b436	-0.012799313
215	0xbb47f107	-0.0030508654
216	0x3c4c6fe1	0.012477846
217	0x3d9021eb	0.07037719
218	0x3d14418a	0.036195315
219	0xbe97e8b3	-0.29669723
220	0xbec1a904	-0.3782426
221	0x3c0b87b1	0.008516238
222	0xbcfd8bc6	-0.030950438
223	0xbd30935e	-0.04310929
224	0xbafacaed	-0.0019133963
225	0xbd12829c	-0.03576909
226	0xbcaceac3	-0.021108037
227	0xbd811600	-0.06303024
228	0x3eae2f81	0.34020618
229	0x3ea23f99	0.31689146
230	0x3af6cdb9	0.0018829621
231	0x3cddef86	0.027091753
232	0x3d80dc89	0.06292064
233	0xbcb00f2e	-0.021491613
234	0x3c013f1c	0.007888582
235	0x3c83bb56	0.01608054
236	0x3b80a2cd	0.0039256574
237	0xbcf3a04e	-0.029739525
238	0xbcc8a210	-0.02449134
239	0x3ce76e65	0.028250882
240	0x39118aad	0.00013879938
241	0x3b96d47e	0.0046029678
242	0x3bb88cbc	0.005632011
243	0xbddeb7ce	-0.10874902
244	0xbd15873b	-0.03650592
245	0xbd283101	-0.04106236
246	0xbdbe5f2e	-0.09295498
247	0x3d6e8791	0.058234755
248	0x3e01463c	0.12624449
249	0xbce0cbe6	-0.027440976
250	0x3db4ea34	0.08833733
251	0x3d4a5aa8	0.049402863
252	0x3e1ac80a	0.15115371
253	0xbe3ac4ca	-0.18239132
254	0xbd76d815	-0.060264666
255	0xbdc776ce	-0.09739457

model/tf.math.add/Add;model/tf.nn.convolution/convolution;model/tf.math.add/Add/y f4 [32]
0	0xbcf8d8f2	-0.030376885
1	0x3d86b9aa	0.06578381
2	0x3ccda28e	0.025101926
3	0xb8e7f67f	-0.00011060852
4	0xb5b68b7d	-1.3600653e-06
5	0xbcaa3cc6	-0.020780932
6	0xbbb70223	-0.0055849715
7	0x3da6676b	0.08125194
8	0xba8db69a	-0.0010811866
9	0xbe4248f1	-0.18973137
10	0x3bb8e17e	0.005642115
11	0xbbc3deaf	-0.0059774737
12	0x3d330346	0.043704294
13	0x3c16e463	0.009209725
14	0xbef3e081	-0.4763222
15	0x3d318f0a	0.043349303
16	0xbbb931b0	-0.005651675
17	0x3971b035	0.00023049193
18	0xb85222fb	-5.010048e-05
19	0xbad1914a	-0.0015988734
20	0x3dc2d46b	0.09513172
21	0xbc474b93	-0.012164014
22	0x3b22d426	0.0024845689
23	0x38184b31	3.630965e-05
24	0x3d9dcd9e	0.07705234
25	0x3d53f737	0.051749434
26	0xbbed11ee	-0.0072348034
27	0x3c84ecdf	0.01622623
28	0x3d5a01e9	0.053224478
29	0xb989ac51	-0.00026259062
30	0x3985995f	0.00025482007
31	0xbe493ef5	-0.19652922
